experiments/workflow/lightning_logs/version_3/checkpoints/epoch=99-step=4200.ckpt (torch, 692906 bytes, 27 tensors)

model.embedding.weight f4 [128, 53]
00000000: f8c0 33bd 9fe4 a73d 1ef9 ba3d 0f18 193e
00000010: 48ff 7e3d afa0 e03d d6a6 e4bd c967 c5bc
00000020: 0ba6 ce3d 375f bebd d180 e7bd 89bb 853d
00000030: 568c cabc 2646 75bd a298 e53a bb1e 013d
00000040: de46 f43d 5ec7 cb3d 3d00 e83d 98f4 bbbd
00000050: e680 0cbe 0cd4 333d 9b94 67bd 20e4 a0bd
00000060: 2809 01be eb30 c6bd 8bf0 dc3d 99dc d8bc
00000070: e19e 0b3e 8263 f83d 580c 01be db82 95bd
00000080: fc69 c6bd 107d 0e3d c672 c23d 5cfe 73bd
00000090: 400b d8bd 6891 ed3b b836 b53d f030 47bc
000000a0: 6cd0 05bd f132 913d ee25 a0bd 1b5a f33d
000000b0: d460 953d c9d1 d83d 052f c53d bf52 e83d
000000c0: 8141 313d 4e5f 213d 8b90 c3bd e146 c6bb
000000d0: 949d dc3d f3ba 1dbd b621 05bd 5ea8 d03d
000000e0: 5d82 ecbd 1a9e f53c 4976 b4bd 408d 8bbc
000000f0: 1f36 233a 049e 28be 852d 12be 614c ae3c
00000100: 2508 223d a178 e8bd a795 973d bb39 c6bd
00000110: 3ee9 8f3d 1852 a63d d606 0e3e e491 de3d
00000120: d18c ec3d 653d a73d b6f8 9e3c 84bd 34be
00000130: 6c69 d3bd 0b1f e33d 00d9 d3bd 576f 99bd
00000140: 7b7e 4bbc 6cbe b7bd 4612 15be 799f f3bd
00000150: 2f98 babb 5f04 ad3c c26c e13d 453f 373d
00000160: 99b2 063e 58dc 0c3d 8356 02be 3f85 f7bd
00000170: 8ea3 bd3c 7a5f 0c3e dd87 10be 95eb 713d
00000180: 100d f73d 3beb 5dbd 4bcd 863d 5574 e0bd
00000190: 7c35 19be 8255 ebbd 3e2a 6bbd bef1 cbbc
000001a0: 1796 d23d 45b5 c6bd a1d9 edbd 7cd7 3abd
000001b0: 74a9 493d 7e7b fc3d b8fa e6bd c3b2 bfbb
000001c0: 259e 5b3c 3cc0 3ebd 57eb 05bd edd3 cc3d
000001d0: 1b1f d4bd a9b2 a23d 2534 e03d 4956 9d3d
000001e0: 843c b73d e8e7 113e ba5f a83b 12e4 4bbb
000001f0: 8d53 96bd 92a6 d9bd 69c6 f13d e290 d43b
00000200: b7c5 c8bd 2753 8ebd 8d45 b9bd c91a a6bd
00000210: 9e5a f53d 5418 2abd be60 83bd 399a e4bd
00000220: 1ba5 bcbd 3af4 85bd e680 8dbb 10df 823d
00000230: 9960 c2bd 7546 733d 811c 95bd 8809 96bd
00000240: 6c3a 653d f92c 00be 8860 cabc 27e4 2dbd
00000250: 84d2 eabb 65df 17be 1b2f cdbb ddcb a03c
00000260: 15d9 e6bd 5441 0bbd daf7 9ebd 7287 f53d
00000270: fb09 d3bc 0536 1a3d 8a8a d4bd f48e 13bd
00000280: 38ff 353c 00b8 b6bd 8740 043e 5af6 85bd
00000290: 7e36 68bd f308 49bd 9fa3 e6bd eb58 a1bd
000002a0: c1c6 0d3d d03c c83d a197 e8bd be53 f73d
000002b0: fc78 74bd 50ac 373d 87b5 913d b25f 663d
000002c0: dffe d43d 4424 d2bd bd9d 1fbe ac2a 85bd
000002d0: 14ee 6cbd a792 afbd 59cf 13be 5b99 83bd
000002e0: bf4c 01be 723d dc3d 2b1f aa39 630f d03c
000002f0: 413f a9bd 7655 9b3c 69cc 8abd 3fb1 283d
00000300: 0431 41bd 13c5 9abd 753b c83d 158c cfbd
00000310: eaec eb3d b5d1 083e 4b72 6a3d 22fa 373d
00000320: d22b 0b3e af3a cf3b 064c 5abd 4cf4 c83d
00000330: 1651 01bd 6704 253e 2983 fc3d 24f5 033e
00000340: eb5f 5c3d 5387 bbbd e426 0a3e 06cf ce3d
00000350: f21b f33d b6fd ae3c c896 3e39 16d5 203d
00000360: 21a2 78bd a83c 0dbd b682 01be a8c5 32be
00000370: 853f 02bd 5dbb 12be 02f5 b13c cd20 903d
00000380: 69da 02bd ab13 a33d 21fb a9bd d533 a83c
00000390: e978 bc3c 13ad f03d 88cf e73d e7b0 adbd
000003a0: 52af c8bd 1630 bbbc 56cf 25be 9d4c f2bd
000003b0: c433 c3bd 541f f8bd 8ebe 843d f3b5 2fbc
000003c0: 2a07 213e 1a49 08bc 491f eebd 004f bcbc
000003d0: ded0 0a3d 8283 fcbd 4967 4b3d e170 c23d
000003e0: e5de 88bd 7ef2 56bd 4e4b e03d 3b21 113d
000003f0: 7e28 febd a8c6 f6bc 390b fabc 89c0 00be
-0.0438852 0.08197903 0.091295466 0.14950584 0.062255174 0.10968148 -0.11164634 -0.02409734
0.10090264 -0.092955045 -0.11303867 0.0652991 -0.02472512 -0.059881352 0.0017516802 0.031523447
0.11927579 0.09950136 0.113281704 -0.09177512 -0.13721046 0.043903396 -0.056538206 -0.078560114
-0.12601149 -0.09677299 0.107880674 -0.026472377 0.13634826 0.121283546 -0.12602365 -0.07300349
-0.09688184 0.034787238 0.094945475 -0.059568748 -0.10549021 0.00725 0.088483274 -0.012157664
-0.03266947 0.070897944 -0.078197345 0.11882421 0.07293859 0.10586888 0.09628109 0.113439076
0.04327536 0.03939753 -0.09549054 -0.00605093 0.10772243 -0.038508367 -0.032502852 0.101883635
-0.11548302 0.029982615 -0.088116236 -0.017035127 0.0006226021 -0.16466528 -0.14275177 0.021276655
0.03955855 -0.11351133 0.07401591 -0.0967898 0.07026909 0.08121127 0.13869795 0.1086767
0.11550296 0.08166007 0.019405704 -0.1765042 -0.10322842 0.11089905 -0.10344124 -0.074919395
-0.012420292 -0.08971867 -0.14557752 -0.11895651 -0.005694411 0.021120248 0.11007072 0.044738073
0.13154067 0.034389824 -0.12728314 -0.120859616 0.023149278 0.13708296 -0.14114328 0.05906256
0.12063038 -0.05417941 0.06582125 -0.109596886 -0.14961809 -0.11490919 -0.057413332 -0.024895545
0.102825336 -0.09702543 -0.11613775 -0.04561566 0.04923387 0.12328242 -0.112782896 -0.0058501675
0.013404404 -0.046570048 -0.03269514 0.10001359 -0.103574954 0.07944233 0.10947446 0.07682473
0.08947089 0.14248621 0.0051383646 -0.0031111282 -0.07340155 -0.10627474 0.11805422 0.006486998
-0.09803336 -0.06949454 -0.09046469 -0.081105776 0.119801745 -0.041527107 -0.064149365 -0.11162228
-0.09211179 -0.06540723 -0.0043183444 0.06390202 -0.09491081 0.059393365 -0.07280827 -0.07326037
0.05596392 -0.12517156 -0.024704233 -0.04245391 -0.0071662087 -0.14831312 -0.006261719 0.01962846
-0.11271874 -0.03399785 -0.07762118 0.11988725 -0.025761595 0.037649173 -0.10377987 -0.036025003
0.011108212 -0.08921814 0.1291524 -0.065411285 -0.056692593 -0.0490808 -0.11261677 -0.07878288
0.034613375 0.09777224 -0.11357046 0.120765194 -0.059685692 0.044842064 0.07114702 0.056243606
0.10400175 -0.10260823 -0.15587516 -0.0650228 -0.057844236 -0.085728936 -0.14434566 -0.064257346
-0.12626933 0.10753907 0.0003244815 0.025397962 -0.08264018 0.01896165 -0.067772694 0.04118466
-0.047165886 -0.0755712 0.097769655 -0.101341404 0.11519797 0.13361247 0.057237905 0.04491628
0.13590935 0.0063241343 -0.053295158 0.09812221 -0.03157147 0.1611496 0.12329704 0.12886482
0.053802412 -0.091566704 0.13491398 0.1009808 0.118705645 0.021361213 0.00018175982 0.039265715
-0.060701493 -0.034481674 -0.12647519 -0.17458212 -0.03179886 -0.14329286 0.021723274 0.07037506
-0.031946573 0.07962736 -0.08299852 0.020532528 0.023006873 0.11751761 0.1131888 -0.08481007
-0.09799065 -0.022850078 -0.16192374 -0.11831019 -0.09531358 -0.1211535 0.06481658 -0.010724532
0.15725389 -0.00831821 -0.11627061 -0.022986889 0.033890598 -0.123297706 0.049659047 0.09494186
-0.06683139 -0.052477352 0.10951863 0.03543208 -0.12410067 -0.030124024 -0.03052293 -0.12573446

model.embedding.bias f4 [128]
00000000: fb0c d73d ce63 d1bc e722 ea3d ba66 6d3d
00000010: 7777 c0bc efaa e9bd da0a d5bd df9b 0a3e
00000020: 5d9f 0bbe 21c9 69bd 4f78 9e3d e007 4bbd
00000030: c3d9 f73b c218 e93d 0076 80bd 6860 003e
00000040: fa46 b73d e97d 92bc 5fd3 c63c a408 4f3d
00000050: 2500 863d b67a c639 f7a0 bbbd eea1 e2bd
00000060: 2a30 f8bd a61b 9cbd 74a8 d43d 3205 25bd
00000070: b876 a1bd 1da7 153e e7ae 9f3c ef73 0dbe
00000080: 39e6 3e3c 75fb 23bd 397f 13bd 8064 9cbd
00000090: 2d80 75bd 851d 813d 6c73 eb3d 8fd8 ed3c
000000a0: 97bb fabb 69b9 74bd 52bb 03be 4bf6 9a3d
000000b0: efe4 0b3e 5811 01be ad86 c0ba a6ed 01be
000000c0: 4eb8 fdbd dd94 483d 78ec 583d 2074 93bd
000000d0: da4d c0bd 89a3 edbd 00db 04be 3807 133e
000000e0: 5e3a 29be 6d8f 633d ad74 a3bd 86ce eabd
000000f0: 72cd dabd 29c4 04be fb9b bbbd 1ea5 b5bb
00000100: e5d4 f5bd ac4d bd3c 45bd f7bd a9f9 07be
00000110: 782c 2abe 4ad6 6c3d 625c 17bd 9449 9b3d
00000120: 34aa 943d a41a dabc d850 01bb 419f c2bd
00000130: 276d a4bd 3841 c13d 6609 e73d 3551 053e
00000140: fc66 15bd f78b 843d f924 963d 7728 8abd
00000150: 0bdd 4f3d 5e76 05be c5b8 ba3d eb8a f4bd
00000160: 959e cf3d e8b8 12be 3e22 03be b127 19be
00000170: 9c6b 0c3e 76b9 b3bd ae91 b13d d95e b73d
00000180: f16a d83d 5813 8a3d c3a4 d2bd 13d2 df3d
00000190: c6f9 d03d fe7d f6bd 6d42 f33c b798 1bbd
000001a0: f5a5 19be a94f 11be 24ed f2bd 3257 13be
000001b0: 73ea 013e 56aa cebd 88ea dbbd 6af8 633b
000001c0: c4bf c73d fa39 41bd 799b 10be b0e2 dabd
000001d0: 3b01 c8bd 4f7c 133d b60f 21bc db9d d23d
000001e0: 1330 18be a726 4f3d 84c7 c4bd 68b3 8a3c
000001f0: 5436 843d 9d71 c9bd 2b01 203e f033 18bd
0.10500523 -0.025560286 0.11432438 0.057959296 -0.023494465 -0.11409556 -0.104024604 0.13536023
-0.13635011 -0.057076577 0.07737791 -0.049568057 0.007563801 0.11381675 -0.06272507 0.12536776
0.089490846 -0.017882304 0.024270711 0.05054535 0.06542996 0.0003785693 -0.09161561 -0.11066042
-0.121185616 -0.07622461 0.103836924 -0.040288158 -0.07883972 0.1461453 0.01949258 -0.13813756
0.011651569 -0.04003473 -0.03601 -0.07636356 -0.05993669 0.063044585 0.11496624 0.029033927
-0.007651757 -0.059747133 -0.12864426 0.07566508 0.1366155 -0.12604272 -0.0014688574 -0.12688312
-0.12388669 0.048970092 0.05295989 -0.071998835 -0.09389849 -0.116034575 -0.12974167 0.14358222
-0.16526172 0.055556703 -0.079812385 -0.114651725 -0.10683717 -0.12965454 -0.0916061 -0.005543365
-0.12003497 0.023108326 -0.12096647 -0.13278832 -0.16618526 0.05782155 -0.036953337 0.07582393
0.07259026 -0.026624031 -0.0019732025 -0.095030315 -0.08028632 0.094362676 0.112810895 0.1301926
-0.036475167 0.06472009 0.07331271 -0.06745999 0.050747912 -0.13033435 0.09117273 -0.11940559
0.10137669 -0.14328349 -0.12806031 -0.14956547 0.13712925 -0.08775608 0.08670364 0.08953638
0.105672725 0.06741971 -0.10285332 0.1092874 0.102038905 -0.1203575 0.02969476 -0.037987437
-0.15004714 -0.14190544 -0.11861637 -0.14388731 0.12687092 -0.10091083 -0.10738093 0.0034785517
0.09753373 -0.04717443 -0.14121808 -0.106877685 -0.0976586 0.03600722 -0.009830406 0.10284015
-0.14862089 0.05057397 -0.09608367 0.01693125 0.06455675 -0.09836123 0.15625446 -0.037158906

model.convs.0.weight f4 [128, 128]
00000000: 94e4 053d fcf0 0abd 7ea5 523d ce8b 97bd
00000010: 0d07 8a3d 9e28 afbd aa71 e8bc 3a97 7b3d
00000020: 5950 b33d c083 6d3c f2c8 343d f906 953d
00000030: 002a 323b aeda 4f3d 4081 413c 7685 21bd
00000040: 1d63 01bd 6ca3 47bd ec00 56bd 1655 453d
00000050: b08a 96bd 6ad7 073d 0fa4 823d 809c 913c
00000060: c869 ea3c 5948 91bd ae4c adbd 88ac 183c
00000070: c67c 0a3d 18dd a7bd 96ac a9bd 2a2a 063d
00000080: 4253 1f3d a039 aebd 50e3 f33b b1b2 00bd
00000090: 1d65 ad3d 93a3 863d 81c1 a43d 602f a53b
000000a0: e0ea ad3b 5ad9 93bd fe7b 0ebd 5f28 ae3d
000000b0: 7ec9 063d 70df 633c cb0f 833d 81d7 953d
000000c0: a484 c83c ad68 86bd e7a9 6cbd b2c5 02bd
000000d0: 2a44 363d bbc6 863d 9923 ac3d 004d 3fbb
000000e0: a081 933c 1266 6a3d e4a8 13bd 01e3 93bd
000000f0: c4d0 17bd 5c27 e23c 1860 6bbd b8d3 293c
00000100: 30c8 f2bc 0ab7 7a3d 3e1a 523d dded 803d
00000110: a7b1 813d 9d41 8a3d 53d4 acbd 8e1c 3b3d
00000120: 7839 9dbd 0ef2 a2bd 8819 96bd 5a8d 85bd
00000130: b72f 813d cd11 a6bd d292 1d3d 14d6 c0bc
00000140: 16e2 6b3d dceb 8cbd cc60 a7bd 66ef 343d
00000150: 7863 8ebc c97d 9b3d 6e48 53bd 8343 8e3d
00000160: 652c a4bd 44db fc3c 582c a7bd 44d4 853c
00000170: 0042 593c 6012 b7bc d4ba c2bc 60c4 2b3b
00000180: c350 843d 6cb7 08bd baef acbd 6434 81bd
00000190: 5e60 d6bc 8aab 74bd 22fc b4bd 4874 5bbc
000001a0: f86b 64bc 98bd 90bd a43d c0bc bd87 a63d
000001b0: a274 f7bc e9d0 04bd 70b9 acbd f8e9 e33c
000001c0: b41b 84bd 2640 453d b0e4 d0bb 582e 39bc
000001d0: a03c ecbb 635f 87bd dfe2 ab3d cbbb 82bd
000001e0: 046e bdbc 68cc 323c 9774 45bd 8002 22ba
000001f0: 704a c43c e7ce a93d 809c 27bb d214 5e3d
00000200: 934b 1e3c 6698 0e3d 3a4b 003d b93f 9f3d
00000210: b9e5 0dbc 55e4 9d3d bd71 dd3d 897a 90bd
00000220: 7a0e 38bd ef1f a53c 3cd6 a4bd 5f52 99bb
00000230: fcf5 4e3d e656 90bd c59e dfbc d0ee d6bd
00000240: 19ff 1fbc 0292 69bd a669 593b 0a14 9a3c
00000250: cc9c 24bd ee5b a63d 9838 f43d ce9a dd3c
00000260: e655 f13c 4fa4 c63c 07fd 7c3d 2f43 27bd
00000270: fe8a 34bd 5f4a eabd a4eb 4abd 0cc4 79bb
00000280: c957 953c 04bb 923d c9fc ee3d f0e8 a63d
00000290: 7ee6 283d fb00 433d b1e8 d6bd 9c43 cf3c
000002a0: 1c39 f83b 4aaf 5abc d440 90bd d28b d4bd
000002b0: 4d96 93bc 5ffc 3f3d 3790 93bd d9dc 14bd
000002c0: d957 753d e416 f53b 4f3d 47bc a1b4 893d
000002d0: 92db c33d 21f0 863d 7b46 873d 40d4 0836
000002e0: c0ce 5ebc 69c7 9ebd 0f64 fabc 192c 0c3d
000002f0: 3f33 c3bb 090f d33d 999f b9bd e1ed 583d
00000300: 45ea 5ebc ce90 eebc 5237 d2b9 66fc ca3d
00000310: 7c03 673d 9e17 ab3d debe b0bd 2424 16bb
00000320: 03d8 3fbd 4894 cebc be07 b13d 7ae5 02bd
00000330: 1594 81bd 06eb e6bd 62f6 c5bb 4f76 47bc
00000340: b492 b0bd c83a 3a3d 0e1a ffbd 1b5a 5fbd
00000350: eafa 973d ba8b 373d c74f fe3c dc16 8ebd
00000360: 7295 0c3d 9ec1 7e3d 1621 86bd 4841 cfbc
00000370: 77e3 8b3d 8028 b73d 2067 a8bd 3a78 98bd
00000380: 7125 adbd 0b34 39bc 0a80 87bd 076b 023d
00000390: 3c3e aebd 74d4 313c 2b8d 86bd 964f 513d
000003a0: b602 8cbd 9f60 2cbb 039c ab3d 8bc4 9cbd
000003b0: 44c7 b3bd fde3 57bc 7448 24bc 232a a0bc
000003c0: bb58 033d c6d6 983c fc44 10bd ca0d b13d
000003d0: 0103 e53c d689 1f3d f745 82bd 3315 eb3c
000003e0: fb71 e83d 49f3 d0bc 4f7f 4c3d 3638 6abd
000003f0: 64f2 29bd 97e8 94bd fa00 c2bc 8dfc cf3d
0.032688692 -0.033921227 0.051427357 -0.073997125 0.06739626 -0.08552669 -0.028374512 0.061423518
0.087555595 0.014496744 0.04413695 0.072767206 0.0027185678 0.05074566 0.011810601 -0.03943392
-0.031588662 -0.048739836 -0.052246973 0.048176847 -0.07350671 0.03316442 0.06378948 0.01777482
0.028614894 -0.07093877 -0.08461891 0.009318478 0.0338104 -0.08196467 -0.08284871 0.032755055
0.03889776 -0.08507085 0.0074428692 -0.031420413 0.084665515 0.06574168 0.080447204 0.005041048
0.0053075403 -0.07219191 -0.034786217 0.08503794 0.032907 0.013908252 0.06399497 0.07316495
0.02447731 -0.06562934 -0.05777922 -0.03192682 0.0444986 0.065808736 0.08405227 -0.0029190183
0.018006146 0.057226248 -0.03604974 -0.07221032 -0.03706433 0.027606659 -0.05746469 0.010365419
-0.029636472 0.061209716 0.051294558 0.06295369 0.063327126 0.06750796 -0.08438935 0.04568153
-0.07676977 -0.079563245 -0.073290884 -0.06521101 0.06307929 -0.08108864 0.038470097 -0.02353958
0.05758866 -0.06880924 -0.081727594 0.04417362 -0.017381415 0.07592351 -0.051582746 0.069464706
-0.0801628 0.030866273 -0.08162755 0.016336568 0.0132603645 -0.02234763 -0.023770727 0.0026209578
0.064607166 -0.03337805 -0.08444162 -0.06308821 -0.026168998 -0.059733905 -0.08837153 -0.013394423
-0.013941757 -0.07067412 -0.023466893 0.08131359 -0.030206982 -0.032425795 -0.08433807 0.027821526
-0.064505965 0.04815688 -0.006374918 -0.011302553 -0.0072093755 -0.066099904 0.083928816 -0.06383475
-0.023123749 0.010912992 -0.048206892 -0.0006180182 0.023961276 0.082914166 -0.002557546 0.054219075
0.009661573 0.034813307 0.03132174 0.07775826 -0.008660727 0.077095665 0.108127095 -0.07054622
-0.04493568 0.020156829 -0.080486745 -0.004679009 0.050527558 -0.070478246 -0.027297387 -0.104947686
-0.00976541 -0.05702401 0.0033174544 0.018808383 -0.040188596 0.08123003 0.11924857 0.027051356
0.029459905 0.02424827 0.061764743 -0.040835556 -0.044077866 -0.114399664 -0.04954113 -0.0038111238
0.018230336 0.07164577 0.11669309 0.08149898 0.04123544 0.047608357 -0.10493601 0.025300793
0.0075751673 -0.013347456 -0.07043615 -0.10378231 -0.018016005 0.04687154 -0.07205241 -0.03634343
0.05989823 0.0074795354 -0.012160613 0.06723905 0.09563364 0.0658877 0.0660524 2.0389125e-06
-0.013599098 -0.07752878 -0.03056529 0.034221742 -0.0059570367 0.10305602 -0.09063644 0.052961234
-0.013605659 -0.029121783 -0.00040095538 0.099114224 0.056399807 0.08354114 -0.08630155 -0.0022909725
-0.046836864 -0.02521719 0.08644055 -0.031957127 -0.063270725 -0.11275296 -0.006041334 -0.012174203
-0.086217314 0.045466214 -0.124561414 -0.05452929 0.07420905 0.044810988 0.0310439 -0.06937954
0.03432221 0.062196366 -0.065492794 -0.025299683 0.06830495 0.08943272 -0.082227945 -0.074448064
-0.08454407 -0.011303912 -0.066162184 0.03184035 -0.08507964 0.010853875 -0.065698944 0.05110129
-0.068364546 -0.0026302708 0.08379366 -0.07654675 -0.08778241 -0.013176915 -0.01002704 -0.019551342
0.03206704 0.0186571 -0.03522204 0.08645208 0.027955534 0.03894981 -0.06361001 0.028696632
0.11349865 -0.025506632 0.0499261 -0.057182513 -0.041490927 -0.072709255 -0.023682106 0.10155592

model.convs.0.bias f4 [128]
00000000: d605 efbc d86d a9bd 9993 b1bb f9a5 e93a
00000010: ee37 adbc a79a 593d 754e 6b3d 7b29 a5bd
00000020: b230 f63a c002 a73d 6f4a aabd 100d 98bd
00000030: 51d3 883d ff21 febc 3521 68b9 ede1 a03d
00000040: bd4d b43c 1432 c83d 1271 963c eb5e 7c3d
00000050: 67d2 4fbd c6f7 3fbd 0f07 8a3d a6cc 863d
00000060: 19f2 87bd c862 a3bd f67d 8dbd 1a4a 01bd
00000070: 8cb5 ab3d 613c b9bd 6d3f 0f3c c544 483c
00000080: 9c53 453d 0960 0b3c 6c4d 293d 1128 38bd
00000090: e5b5 d13b 482b 873d b2ed 3cbb 5d64 cc3d
000000a0: dcae 433d 7520 a43d 2746 c53d 8c99 cb3d
000000b0: f5a7 243d 1d4d 103c 2d7f 6ebd 7288 b63c
000000c0: 6fcd 5cbd e071 f63c 36b4 653b 9294 99bd
000000d0: 5f3d c33d 8c02 6b3d 1ac4 513d 4d68 873d
000000e0: 1731 3dbd d087 d63c 9a01 673d 5805 933d
000000f0: cfbe 27bd 6404 623d dc95 bb3d c565 d7bb
00000100: 8ebb cb3d 096b 30bb a3ad 943d bd05 ab3d
00000110: 906c 1ebd 10fe aebc efc4 603b a289 b93d
00000120: 015e 79bd 5054 903d 2330 1cbd aca3 523c
00000130: e330 d23d d1a9 d3bc eb19 033d 1d6a c33d
00000140: de3f 83bb b4fc 82bc eed2 913d 31ff 823d
00000150: 59a5 4c3d b831 0ebd 1526 98bc 509e 6ebd
00000160: 957e 903d 5bdb 69bc 3dce b03d 23bd 8b3b
00000170: bced 08bd f0b4 2abd 8c02 7a3d 9dde 1c3c
00000180: 2237 63bd c554 78bc 9fc9 983d 1a57 04bd
00000190: c92c 453d d0c9 9f3d 2246 5e3b 47a5 aa3d
000001a0: 3cbd 61bd ce6a c93c 2267 203d 2ceb 553d
000001b0: 1517 f73c d0f4 88ba 6e50 b33d f2da 6d3d
000001c0: a823 9abc a96e da3d e6c9 873d 5638 a03c
000001d0: bbe4 7abd 9764 db3d 8782 973d 08f6 113d
000001e0: 0743 193d de03 113d 0c0f ef3d 33d0 a93d
000001f0: 29b0 553d 2539 5ebc 79ab d0ba a5fc bfbc
-0.029177587 -0.08272904 -0.0054192063 0.0017825953 -0.021144833 0.053126004 0.05744787 -0.080645524
0.0018782823 0.081548214 -0.08314978 -0.074243665 0.066809304 -0.03102207 -0.00022137615 0.07855592
0.022009725 0.09775177 0.018364463 0.06161396 -0.050737765 -0.046867155 0.067396276 0.06582002
-0.06637973 -0.079778254 -0.06908791 -0.03156481 0.08384237 -0.090447195 0.008743149 0.012223427
0.04817544 0.008506783 0.0413336 -0.044960085 0.0063998573 0.06600052 -0.00288282 0.0998008
0.04777418 0.08014003 0.09632521 0.09941396 0.04019924 0.008807448 -0.058226753 0.02228186
-0.053906854 0.030083597 0.003505004 -0.07499041 0.0953319 0.057375476 0.051212408 0.06611691
-0.046189394 0.026187807 0.05639801 0.071787536 -0.040953454 0.05517997 0.09159443 -0.006573411
0.099478826 -0.0026919267 0.07259681 0.08350704 -0.038677752 -0.02136138 0.003429707 0.090594545
-0.060880665 0.07047331 -0.038131844 0.012856405 0.10263231 -0.02583781 0.03200714 0.09541724
-0.0040054163 -0.015989639 0.0712031 0.0639633 0.049962375 -0.034715384 -0.018572846 -0.058256447
0.070553936 -0.01427349 0.08633087 0.00426449 -0.033429846 -0.04167646 0.061037585 0.0095745595
-0.0554725 -0.015156929 0.07460331 -0.03230963 0.048138414 0.078021646 0.0033916314 0.083323054
-0.05511211 0.024587061 0.039160855 0.05222623 0.030162374 -0.0010448936 0.08755575 0.05807013
-0.01881583 0.10665638 0.06630306 0.019558113 -0.06125329 0.10712545 0.07397943 0.035635024
0.037417438 0.03540408 0.11672792 0.08291664 0.052169953 -0.013563429 -0.0015920243 -0.0234359

model.convs.1.weight f4 [128, 128]
00000000: 5007 b43c 33c7 1f3e 622b 653d 1623 063e
00000010: fbb3 463c cac1 d43c 44ad 743d a5b1 9e3d
00000020: 49c2 0f3d 92ba 263d b6be 223d 45d5 61bd
00000030: c917 953b 3b77 b43d 3ec5 83bd 6073 98bb
00000040: d227 f0bb 2933 003d 6e0b 953d ae02 b1bd
00000050: 2917 9bbd 1b43 5abd 9a8f aebd 62c2 74bc
00000060: 270d 8bbd 4efb 0ebd a858 523c 2a4c 36bc
00000070: 0562 a9bd 6e6a 62bd 4b3d 023d 16f4 133e
00000080: b4e5 d63c 05fe 583d 5f74 9b3d 5094 ce3c
00000090: f172 7c3c 1823 a33d f579 9abd c3ab c33c
000000a0: 232f 243d 6d35 693d 4c45 cf3c 37ea b63d
000000b0: c11d febc a4b5 64bc ee1d 81bc 8f13 4e3d
000000c0: 1e86 303d 449b 003d 9692 04bd 3f27 693d
000000d0: 953d 9c3d 879a a93d e1f3 42bd b309 68bd
000000e0: 3b05 973d 68db 0b3d b519 413d aa57 a2bd
000000f0: 391b 033e 8301 70bc 5ddf 623d 7f73 8cbd
00000100: a6fa 5c3d 704d 3ebc b5b7 843c 855f f2bc
00000110: 9b45 c03c f1b2 c33c b5f6 213d 3378 c2bc
00000120: 55b5 60bc 416a 343d 74ef 25bd 571f 603d
00000130: 6cc5 cb3d b841 9d3d 32fb dd3c 39da b7bb
00000140: 7772 823d 1044 a4bd 865e 52bd 4905 2d3d
00000150: e84e 91bc 1345 6abd 67fb e5bd 2977 af3d
00000160: 800d ffbc a02a f83c 23d6 cc3c 2f48 b7bd
00000170: c193 943d ecf2 6abd 24c9 68bd 4fb7 7fbd
00000180: 305a 4bbc 817d d6bd 6aa1 b1bb f5c3 7ebd
00000190: 1403 05bc 550b b7bd 0d0a a7bb 4b43 93bd
000001a0: 592b 8cbc f1d6 f33b 71f1 45bd 448a 08bd
000001b0: cb70 523d 9919 5fbc e485 54bd e6cc 323d
000001c0: 4693 333d 87be a8bd 9bba 723d 9c1b 83bb
000001d0: 99fc 82bd 842e 4bbd aa3c a9bd 43a1 38bd
000001e0: 6d5d a03d b80f 37bd b26a 83bb 9e4e 8dbd
000001f0: 5799 b73c e0c6 633d 2171 8fbc 1142 48bd
00000200: 14b4 093d 0ec8 b13d 8abe 713d 5ddb 3d3d
00000210: 1e49 363e 4891 fc3c fd36 10bd f795 8dbd
00000220: 2991 2bbd 00f7 b63d 30dc 50bd 5602 233d
00000230: ad09 013e 4c6d 7f3b e7ff 503c f780 913d
00000240: a1b4 55bd 8a9c 38bd 3217 71bd 9f28 723d
00000250: ebab 093d 2245 1a3e db82 23bd 09d6 f33c
00000260: 8d32 983d 50a7 31bd 86f2 0ebd eada 48bd
00000270: c682 d13c 6f23 2bbe 2d06 6f3d 1a7a 713d
00000280: a5e3 273e a6aa 80bd 1fbe 15be 5755 6bbd
00000290: 62b7 19bc a23f da3b 3963 023c a940 90bc
000002a0: ef3c d03d 9f03 c93d 771e 823d 66ed 993d
000002b0: fca6 b639 0e66 673d b90a 5f3d 60f6 9e3d
000002c0: 549d b53c 8432 21bd bdab 533d 2547 233c
000002d0: bbf9 9d3d a6ba acbd b3b7 8d3d dfec 603d
000002e0: 687f a0bc e110 cd3d 5276 833c 406a 933d
000002f0: 1391 013e 761f 6d3b 8f31 ac3d a0fb b53d
00000300: 0594 3e3c d255 013d 2c44 cabb 8831 e5bc
00000310: 65b1 a43b 5b23 19bd 17c9 8dbd 7258 62bd
00000320: 4600 f53d 6eba 67bd b752 37bd 9591 043e
00000330: ea7b 1c3d 1f56 dc3b 6e24 4abc fcb9 813c
00000340: 1632 223c dfba 8dbd aab7 5f3d e28d 143b
00000350: ffd4 e33b f47f 073d eb74 41be b4ef 45bd
00000360: 286c c43d d1e3 6abd a94c f03d 3222 463e
00000370: 3a41 033d 9eef 80bc afdb 1a3d 1818 70bc
00000380: 34bd 803d 0790 293d 06a6 e03c 7d47 523d
00000390: 7233 923b d7fd 92bd 7acd 703d 6cb7 8f3d
000003a0: 10be 2a3d 566b 2a3e a89a 1e3d 514e ed3d
000003b0: e490 6d3e 0cce a63d ef84 8b3d 2e33 58bd
000003c0: 8afe d3bd 7889 cd3c 12c2 cf3c 3ab1 15be
000003d0: 2a7e 0b3d 8e4f 183d 20f0 37bd 3abc 0e3d
000003e0: 7917 51bd fcbe a8bc 47ae 083e 2757 333d
000003f0: 1967 2b3d 5077 bf3d 9310 f7bc 45b7 2c3a
0.021976143 0.15603332 0.055949576 0.13099322 0.012127872 0.025971312 0.05973555 0.07748727
0.035097394 0.04070527 0.039732657 -0.05513503 0.0045499546 0.08811804 -0.06434105 -0.0046524256
-0.0073289657 0.03129879 0.07277571 -0.08643089 -0.07572777 -0.053286653 -0.085234836 -0.014938923
-0.06789618 -0.03490763 0.01283852 -0.011126557 -0.08270649 -0.05527728 0.031796735 0.1444858
0.026232578 0.052976627 0.075905554 0.025217205 0.015408264 0.07965678 -0.07542793 0.023885613
0.040084016 0.056935716 0.025301598 0.08931392 -0.031020047 -0.013959322 -0.015761342 0.05031162
0.043096654 0.031398073 -0.032366358 0.056922194 0.07628933 0.08281427 -0.047595862 -0.056649875
0.073740445 0.03414479 0.047143657 -0.07926877 0.12803353 -0.014648798 0.055388797 -0.06857967
0.053949974 -0.011615142 0.01620088 -0.029586563 0.02347069 0.023889037 0.03954192 -0.023738956
-0.013715108 0.044046644 -0.040511563 0.054717388 0.099497646 0.076785505 0.027097318 -0.005610731
0.06369489 -0.080207944 -0.051359676 0.04224137 -0.01773782 -0.05719478 -0.11229592 0.0856765
-0.031134367 0.030293763 0.025004452 -0.08949315 0.07254744 -0.057360575 -0.056832448 -0.062430676
-0.012411639 -0.10473157 -0.0054208534 -0.062198598 -0.00811841 -0.08937708 -0.0050976337 -0.071905695
-0.017110514 0.0074413945 -0.04832596 -0.033334985 0.0513771 -0.013616943 -0.0518855 0.043652438
0.043841623 -0.08239465 0.059259992 -0.004001094 -0.063958354 -0.049604908 -0.08263524 -0.045075666
0.078303196 -0.044692725 -0.004010522 -0.06899761 0.022411985 0.055609584 -0.017509999 -0.04889113
0.033619 0.086807355 0.059019603 0.04635178 0.1780133 0.030830994 -0.03520869 -0.06913369
-0.041886482 0.0893383 -0.050991237 0.03979715 0.12601347 0.0038975058 0.012756324 0.07104676
-0.052174214 -0.045071162 -0.05886001 0.05912077 0.03361122 0.15065435 -0.039919715 0.029765146
0.07431517 -0.043372452 -0.034899257 -0.049036898 0.025575053 -0.16712736 0.0583555 0.058954336
0.16395433 -0.062825486 -0.14623307 -0.057454433 -0.009382101 0.0066604177 0.007958227 -0.017608957
0.10167872 0.09815144 0.06353467 0.07515983 0.00034838158 0.05649381 0.054453585 0.07761836
0.022169746 -0.039354816 0.051677454 0.009965693 0.07713648 -0.08434038 0.069198035 0.054913398
-0.019592002 0.10012985 0.01604763 0.07198 0.12652998 0.0036182082 0.0840789 0.08885884
0.01163197 0.031575985 -0.0061726775 -0.02797772 0.00502603 -0.037387233 -0.069231205 -0.05526013
0.11962943 -0.056574278 -0.044756617 0.1294616 0.03820411 0.0067241336 -0.012337787 0.015835755
0.009899637 -0.069204085 0.054618515 0.0022667577 0.0069528813 0.03308101 -0.18892257 -0.0483243
0.09590942 -0.05734617 0.11733372 0.19348982 0.032044627 -0.015739258 0.037807163 -0.014654182
0.06286088 0.04139712 0.027422916 0.051337708 0.004461699 -0.07177322 0.058789708 0.07017407
0.041685164 0.16642508 0.03872171 0.11587203 0.23199803 0.08144769 0.068124644 -0.052783184
-0.10351284 0.025089964 0.025361095 -0.14618388 0.034055866 0.037185244 -0.044906735 0.034847476
-0.051047776 -0.020598881 0.13347732 0.043784287 0.04184637 0.09348929 -0.03015927 0.00065885886

model.convs.1.bias f4 [128]
00000000: d5c0 79bd aebe 3bbd 12e2 903d 138e 12bd
00000010: bf93 1cbd 025d 09bd 96a5 c33d ec60 5b3d
00000020: efbf 6d3c bf70 7bbd 81a4 193c dd75 a73d
00000030: 03fb a93a 7ec2 31bd 0947 17bd e84a cd3d
00000040: de96 413d 0a12 7fbd 0479 793d 0bc6 fd3c
00000050: 2589 463d 2d7c 9d3d 5152 22bd 0751 c83d
00000060: 2c99 0dbc 8689 6ebd 4ed0 b83c 1395 cf3c
00000070: 7f90 24bd 36c8 cd3d 537e 32ba f3d1 683d
00000080: 1426 e6bc 3139 503c 7204 42bd 459b 853c
00000090: 6f13 a3bc 6afe 2cbd 8509 6abd ae31 b43c
000000a0: c8f5 86bc 7852 8b3c 867d a63c 0a44 21bb
000000b0: 21f5 483c ebf1 61bd 939f 983d dd3b 14bd
000000c0: e1d6 5fbd 8f27 2e3c df54 eb3b 900d 16bd
000000d0: 0fd6 aaba 5400 ad3c b1c0 583d 5135 84bc
000000e0: a789 513c 7058 1c3d c0bc 9fbb 14b0 1b3d
000000f0: 0f88 063c 12e0 903d 3d50 8bbd 1621 2d3d
00000100: 1b95 cf3d 4d5c 5b3d da18 f03c 60e7 90bd
00000110: 4dd2 453d 9e1c 4cbd aa58 2fbd 540b c9bc
00000120: 647c 033d 6836 bb3c 2739 463c ccd0 3e3d
00000130: 95cf 8cbc 9f87 93bd 4f7f 31bc 6abb 8b3d
00000140: 79f2 a23d 1903 66bc 8301 a43a be68 25bc
00000150: 9c09 543d e13b 9c3d 311f ba3d 381a 42bd
00000160: b202 24bd 65bd 823d f959 8f3d 94e8 803d
00000170: 59f5 4f3d 5628 373b 4c36 64bd ec88 133c
00000180: b655 87bd 5c5a af3c 7ec2 8c3c a283 913d
00000190: cabc 5e3d d31b 47bd 170b a9bd e67f a93d
000001a0: 8155 87bd 6717 e0bc dfdc 373d 3ff4 813d
000001b0: c0d0 243c 85a1 ee3c 125a 2c3d 8126 92bd
000001c0: 3855 aa3d ee4f ddbc a022 d23d d084 c43c
000001d0: 8c9e 7ebd ab12 ac3c 3e99 bd3d 05a2 ab3d
000001e0: f0c1 a53d 6567 afbc 062a 753c 74c6 4abd
000001f0: 57ae 2abc d62b b43b 044e ca3c 8124 93bd
-0.060974915 -0.045836143 0.070743695 -0.035780024 -0.03822684 -0.033535965 0.095530674 0.05355923
0.014511093 -0.06138682 0.0093776 0.081767775 0.0012968484 -0.043398373 -0.03693298 0.10024053
0.04726302 -0.062273063 0.060906425 0.030978223 0.048470635 0.076897 -0.039629284 0.0978108
-0.008642476 -0.05823662 0.022560265 0.025339639 -0.040176865 0.10047953 -0.0006808985 0.05684085
-0.028094329 0.012708948 -0.04736752 0.01630939 -0.019906728 -0.042234816 -0.057137985 0.021996345
-0.01647462 0.017007098 0.020323526 -0.0024607205 0.012265475 -0.05516235 0.07452311 -0.036189903
-0.054648284 0.010629549 0.0071817483 -0.036634028 -0.0013033765 0.02111832 0.05291814 -0.016138704
0.0127891665 0.038170278 -0.0048747957 0.038009718 0.00821115 0.07073988 -0.068024136 0.04226788
0.101358615 0.05355482 0.029308725 -0.07075381 0.04829626 -0.04983198 -0.042809166 -0.024541534
0.03210105 0.022853091 0.012098587 0.046585843 -0.017188827 -0.07203602 -0.010833575 0.06822856
0.07956404 -0.0140388245 0.0012512658 -0.010095773 0.051766977 0.076286085 0.090879805 -0.047388285
-0.040041633 0.063837804 0.06999583 0.06294361 0.05077109 0.0027947626 -0.055715844 0.009004813
-0.06608145 0.021405391 0.017182585 0.07105185 0.054379262 -0.04861052 -0.08254068 0.08276348
-0.066081055 -0.02735491 0.044888373 0.06345414 0.0100595355 0.029129753 0.042078085 -0.0713625
0.083170354 -0.027015653 0.102605104 0.023989111 -0.06216292 0.021004995 0.09257744 0.08380512
0.08093631 -0.021411607 0.014963632 -0.049505666 -0.010417542 0.0054983897 0.024695404 -0.07184697

model.convs.2.weight f4 [128, 128]
00000000: dcd2 8d3c d571 413d 9617 8a3d a523 1bbc
00000010: 67c8 e13c 79fe 2cbd 45e5 8bbc 3177 c2bc
00000020: ad7b 413b 06c1 0bbd 7db9 ab3d 628e 4bbd
00000030: 7f78 08bd 96cf 4cbd 0cd9 9c3d 1f39 54bd
00000040: 6f84 18bd 7eb3 59bd 64d6 353b cd0c 9b3c
00000050: d54a 9cbd 9fa8 88bd aef3 e0ba e053 60bc
00000060: e623 a1bd 7fe8 29bc 0139 8cbc 223f 963d
00000070: c18d 81bb c0c9 cdbc 19c6 18bc 3a19 0fbd
00000080: fc67 3a3c d3a1 803d 80e4 3abd 359e 893d
00000090: 4a7e 99bd f04c 773b e8ed 5dbc 1210 78bd
000000a0: e55f 91bd e8b2 0c3c cfaf f83b 5de9 0a3d
000000b0: 34ad 373d 8191 a23d 36f5 8b3c f25f b8bd
000000c0: fe8e 83bd 1403 82bd 6892 a6bd 4472 f4bc
000000d0: 9bf1 c73c 1386 713d 8913 8e3d 0f32 0b3b
000000e0: 0ca9 803d 63e3 bcbd 1c2b a3bc e6ff 783d
000000f0: 1247 ad3d 98b9 4f3b d01b e0bc b59b d93a
00000100: eb23 f9bc d9fc f2ba 1131 abbc 92be b0bd
00000110: 5ca7 0f3d 34ba c93b ca1c 69bd 2ab9 f5bc
00000120: 60c7 85bd 2da8 d2bc a0d7 b0bd 6d2e 0cbd
00000130: a5d8 91bd 91ef a5bd 29f9 77bd 6c8b a1bd
00000140: 6d9b 02bd 0310 48bd 6892 e2bc f101 653c
00000150: 7e5f abbc 89b4 b1bd 1b72 a1bc fbbc 9e3c
00000160: 1b1d 5abd 830b 0ebd 3eda ea3a e477 e13c
00000170: 0e00 a6bd f285 a43d 0090 a0bd 2b58 0d3d
00000180: e1f5 363d 240b 14bd e19c 78bd c3c0 a1bc
00000190: a646 283d 1906 8d3c 9c63 a73d 1bd1 993c
000001a0: e3bb 9ebd 9e08 243d 1238 8c3d f596 893d
000001b0: 8a1e 17bd 66fd 8dbd 2cb7 653d c146 4fbc
000001c0: 7e26 19bd e918 963d 0206 d9bc e150 493d
000001d0: 203a 4abc dcd0 a2bd d10c 8f3a 5d97 823d
000001e0: 212d 2f3c 6c41 8abd adb5 6d3c 001d 673b
000001f0: ba3a 0b3b d7ef 89bd e176 99bd b5b3 57bd
00000200: b1ee ee3c e94e 01bd f3ba ba3d d783 42bb
00000210: 2ec1 c2bc 40d8 d4bc 5e39 aa3d 6aa8 393d
00000220: b717 b03d 86a4 6f3d ac88 923d 3511 89bb
00000230: 70f0 843d 2f79 d13d 82e1 a5bb d8a7 5a3d
00000240: 6772 aabc 7cfc 7ebd 5708 bd3c 93a8 5b3d
00000250: 7479 4c3c 65a0 8b3d 5d9a 1ebd 2133 cd3d
00000260: fd7f 3b3d 0464 4d3c 4eb3 483d c14a 163c
00000270: 5b87 c33c 9c73 44bc ea2e 00ba dae7 7dbd
00000280: 7f61 95bc 9d6b e63d 46aa 4dbd 1ee5 ca3d
00000290: a457 eb3c b2f7 bc3b 1a49 743d 3727 193c
000002a0: d07c 4d3c a0ab 0a3c 6cf1 873d ee77 b23c
000002b0: 626c dd3d 530f 24bd c94f dc3d 69c6 a1bd
000002c0: 31b3 223c 67ea 3b3d 54f8 de3c 787d 0c3c
000002d0: f047 31bd d216 823d f4d2 793d be31 29bd
000002e0: 5a92 8ebc 5391 83bd 196c c23d 8b4d 50bd
000002f0: 7077 833c 1c2a 3ebc acf0 ee3c 0254 4e3d
00000300: a07f 17bd 4404 87bd 4001 5abd ba7c 413d
00000310: dff8 bebc 92c7 21bd 1849 f73d db7a 883c
00000320: 10ae 343d af25 3ebd 45be 8b3d ad80 bd3d
00000330: bacc 543d 1579 3bbd 381f 9dbd 67f2 f83c
00000340: 2f5a 2abd 4905 073c d4b5 083c 590a e53c
00000350: 0d93 693d 8b13 c13d 4c44 6bbd 8a62 64bd
00000360: d38a 07bd e876 f03c 87d6 3cbd c1eb a63d
00000370: 85ef c7bc ea04 05bc 3e4c a83b 1786 d13d
00000380: 3b55 583c 71f0 a23d f39e c7bc c705 24bd
00000390: 1248 383d 2e80 c5bb ffec f3bc c2b1 1a3c
000003a0: 88bd 263b aed3 923d c342 2ebd adf2 bd3d
000003b0: 22e0 843d f3c4 b53d 3f8b a4bc fbba 35bd
000003c0: 8fbb ad3d 1f25 473d 0ca8 59bd c3d5 483d
000003d0: 3665 90bd 1df1 013d ece3 dd3c 534a 0a3d
000003e0: 3458 96bc 736b 493d 35c5 1bbd 3c9a 9b3c
000003f0: 5ce9 a8ba 1799 d2bc f98d ea3d 3b09 3e3d
0.01731246 0.0472277 0.0674278 -0.009468948 0.02756138 -0.04223487 -0.017077098 -0.023738476
0.002952318 -0.03411963 0.083849885 -0.049696334 -0.03331804 -0.050002657 0.07658586 -0.051812287
-0.037235674 -0.053149693 0.0027746195 0.018927002 -0.076314606 -0.06672787 -0.0017162466 -0.013691872
-0.07868175 -0.010370373 -0.017117025 0.073362604 -0.003953666 -0.025120616 -0.009324574 -0.034936167
0.011377331 0.062808655 -0.04562807 0.06719629 -0.07494791 0.0037735067 -0.013545491 -0.0605622
-0.070983686 0.008587576 0.0075893174 0.03391396 0.044842914 0.07937909 0.0170847 -0.09002675
-0.06423758 -0.06348243 -0.081333935 -0.029839642 0.024407199 0.058965754 0.0693732 0.0021239554
0.06282243 -0.09223058 -0.019918017 0.06079092 0.08460821 0.0031696316 -0.027357012 0.001660219
-0.030412635 -0.0018538489 -0.02089742 -0.086300984 0.035071716 0.0061562303 -0.05691222 -0.02999552
-0.065321684 -0.025714958 -0.08634877 -0.034223963 -0.071214 -0.08102334 -0.060540352 -0.07887921
-0.031886507 -0.048843395 -0.027657703 0.013977514 -0.020919558 -0.086770125 -0.01970773 0.019377222
-0.053250413 -0.034678947 0.0017917824 0.027522989 -0.08105479 0.080333605 -0.07839966 0.03450791
0.044668082 -0.036143437 -0.060696486 -0.019745236 0.041083 0.017214822 0.08173296 0.018776467
-0.0775068 0.04004728 0.06846632 0.06718246 -0.03689436 -0.069330975 0.05608289 -0.012651146
-0.037390225 0.0732897 -0.026492123 0.049149398 -0.01234296 -0.07949993 0.0010913854 0.063765265
0.010691912 -0.067507595 0.014508647 0.0035265088 0.002124472 -0.06735199 -0.074933775 -0.052661616
0.029166551 -0.031569395 0.09117689 -0.0029680633 -0.023773756 -0.025982022 0.08311723 0.045326628
0.08598273 0.05850651 0.07154974 -0.0041829594 0.06491172 0.10228192 -0.005062283 0.053382725
-0.020806504 -0.062252507 0.023075266 0.05362756 0.012480129 0.06817702 -0.03872143 0.10019518
0.045776356 0.012536053 0.048999123 0.009173096 0.023868253 -0.011990454 -0.0004889803 -0.06198869
-0.018234966 0.11250994 -0.050211214 0.09906982 0.028728314 0.0057668323 0.059640028 0.009347728
0.012541965 0.00846377 0.066378444 0.021785703 0.10811688 -0.040053677 0.10757405 -0.07899172
0.009930418 0.04587784 0.027218021 0.008574836 -0.043281496 0.06352009 0.060992196 -0.041307203
-0.01740377 -0.06424203 0.09493274 -0.0508552 0.016048163 -0.011606719 0.029167496 0.050373085
-0.036986947 -0.065926105 -0.05322385 0.04723809 -0.02331203 -0.039496966 0.120744884 0.016660145
0.04411131 -0.046422657 0.068234004 0.092530586 0.051953055 -0.04576977 -0.0767197 0.030389024
-0.041589912 0.008241006 0.008344132 0.027959036 0.057025004 0.09427556 -0.05743818 -0.055758037
-0.033091377 0.029353574 -0.046103027 0.08150435 -0.024406204 -0.008118847 0.005136042 0.10230654
0.013203914 0.07956017 -0.024367785 -0.040044572 0.044990607 -0.006027243 -0.029776094 0.009441795
0.002544256 0.07169281 -0.042544138 0.09274802 0.064880624 0.08875456 -0.020085929 -0.04436777
0.084830396 0.048619386 -0.053138778 0.049031984 -0.070505545 0.031724084 0.02708622 0.033762287
-0.018352605 0.049174737 -0.03802987 0.018994443 -0.0012886929 -0.025707765 0.114528604 0.04639552

model.convs.2.bias f4 [128]
00000000: dba2 3b3d 6b82 0d3c df2c bf3d 1728 3ebd
00000010: b5e7 a3bc ac9a 963c 6d2a 9dbd f12e c6bd
00000020: c7c2 6e3b aae3 a53d c47e d7bc 50a5 b03b
00000030: 8672 8739 0c6b 713d 9d7d 903d c8af 8dbd
00000040: fe3a e03c 72e2 a4bc b887 0d3c b1ae 9bbd
00000050: dbd0 8d3d ff42 6ebd 2abe b13c e3ad 953b
00000060: e937 083d edd4 adbd 1dc1 993d 0efd 623c
00000070: 4bbc a03d d8ca efbb 0764 903d 0a92 a7bd
00000080: 2e9e 2abc 8ed4 913c 6e0f 38bd 7499 86bd
00000090: c17a 2ebd 158a 7fbc 2058 a6bd 7e1b c63d
000000a0: 8def 3b3c cde3 c43c e784 b73d 2aad b2bd
000000b0: ccc1 1fbd 280b 46bc 8d3d b33c 5891 aebc
000000c0: c04e 9fbc 0c21 263d b22c 6fbd b5cf 473c
000000d0: 5081 9a3d b732 5ebc 582c c8bc 844d 63bd
000000e0: 721b b73d 05c9 063d 6c12 863d 065e 88bc
000000f0: 60e3 22bb 3fb5 8d3a 22a8 9d3b e253 8abd
00000100: bb24 32bd be71 99bc cc91 8a3a 7230 ffbc
00000110: f5be aebc d149 28b9 7c15 38bd a26b 5fbd
00000120: 2fcd 3fbd 43c7 a5bd e036 0bbc ac21 95bd
00000130: 1857 7e3d a5ff 0cbd 777f 8c3d a5e2 96bd
00000140: 04aa fdbc 865d 5abc e542 5abd 925a 863c
00000150: 0fcd 9f3d 70e8 6c3d 1ad8 d83c baec 9c3c
00000160: 9637 89bc 30aa 10bd bfbc af3d 9bfe 43bd
00000170: aa96 363c d5f9 ac3d 4bf8 8fbd 8445 b1bd
00000180: 9cd4 903d 9cf7 91bc ed3d 10bd 10ff 63bc
00000190: fcfd 91bc ba44 6e3d b0e6 fcbc 9055 9b3d
000001a0: 54bc ce3d ce4f c2bc 44e8 143d dcc1 4a3c
000001b0: 7d83 65bd 4c56 7fbc 19e1 bd3c 1d96 5a3d
000001c0: c904 e3ba 4cac 70bd 68ab 0cbd a133 bd3d
000001d0: 6e30 983d 1cb0 d23b 53e8 b8bd 4028 943b
000001e0: 193d 4abd 2e23 383d 72da 263d a428 7cbd
000001f0: c348 433d 0bdc 143c b609 4a3d d524 a4bd
0.045809608 0.008637051 0.0933473 -0.04642495 -0.020007947 0.0183843 -0.07674108 -0.09676922
0.0036432014 0.08100064 -0.026305564 0.0053908005 0.00025834533 0.05893998 0.07055209 -0.06918293
0.02737188 -0.020127509 0.008638315 -0.07601679 0.06924602 -0.05816936 0.021697123 0.004567848
0.033256445 -0.08487878 0.075075366 0.013854278 0.07848414 -0.007317882 0.07050329 -0.081821516
-0.01041369 0.01780155 -0.04493659 -0.065722376 -0.042597536 -0.015596886 -0.08122277 0.096732125
0.011470688 0.024034405 0.08960896 -0.08724435 -0.03900318 -0.012087621 0.021879936 -0.02130954
-0.01944673 0.04055886 -0.058392234 0.012195517 0.07544196 -0.013561896 -0.024435207 -0.055493847
0.08940782 0.03290655 0.065464824 -0.016646396 -0.0024854764 0.0010811462 0.0048113028 -0.067542806
-0.04349206 -0.018730994 0.0010572015 -0.03115103 -0.02133129 -0.00016049227 -0.044942364 -0.054546006
-0.046826538 -0.08094647 -0.00849697 -0.07281813 0.062094778 -0.03442349 0.068602495 -0.07367448
-0.030964859 -0.013327962 -0.05328645 0.01640061 0.07802784 0.057838857 0.026470233 0.019155849
-0.016750138 -0.035318553 0.08580922 -0.047850233 0.01114432 0.08446089 -0.0702978 -0.08655837
0.07071802 -0.017818265 -0.035215307 -0.013915792 -0.017821305 0.05817101 -0.03087172 0.07584679
0.100945145 -0.023719694 0.03635432 0.012375321 -0.0560336 -0.01558454 0.023178624 0.053365815
-0.0017320152 -0.058758065 -0.034343153 0.09238363 0.07431112 0.0064296853 -0.09028687 0.0045213997
-0.049374674 0.044955425 0.04073567 -0.061562195 0.047676813 0.009085665 0.049325667 -0.08014838

model.output.weight f4 [1, 128]
00000000: e384 473d 305f 67bd 41b6 d0bd 6fa6 4abd
00000010: 49ad a93d 984b 1d3c 48ac 5a3c 6ff4 423d
00000020: be67 363d cd0f 90bd 250a 193d 8cd4 cf3c
00000030: d04a 91bd 837c 963c 99f2 07bd cb6e a93d
00000040: 9110 dcbd b752 a8bc 5f41 12bd db57 2c3d
00000050: 95fe 39bd f452 8abc a1d3 f4bc 5e0c d53c
00000060: ee53 903c b889 703c f47d 74bd 10ba 20bd
00000070: 7ddf 47bd 6bef 9b3d 8ab9 e4bd 8063 88ba
00000080: 4838 5d3d eebc a83d 560d a5bd eea5 08bd
00000090: 4d32 25bd ec02 6ebd c63e 2d3d 4141 c9bd
000000a0: 5cce 853c ca21 01bd 8d4c 82bd de26 4b3d
000000b0: db5f ab3d 3eac 103d 3aec 6c3c acc6 733d
000000c0: 3bbe afbd 2b0c ea3c 4095 95bd bcc6 453d
000000d0: 9e3b d3bd 9967 a0bd 7665 61bd cc6e d1bc
000000e0: 4235 abbd f384 7cbd 541d bebc 4fe2 5abd
000000f0: 6c51 b53c 4bae 9fbd e05f 1ebd 038b 09bd
00000100: 93c7 823d 4c60 093d b239 3dbd 7517 a7bd
00000110: 8b12 ae3b b697 5c3d 676b 9dbc 8ee5 c9bc
00000120: e074 043c db90 863d 2065 8d3c 128a 753d
00000130: 9101 cdbd 600e 653b e7c9 ecbc fa13 a43d
00000140: f810 f5bc bbe4 7a3d caaa 0ebd 6474 bdbc
00000150: 1d00 bfbc 762a 77bd 3138 7abc 043a adbd
00000160: d4ec 903d f0f6 c03b 3156 9bbd 2e35 383d
00000170: b707 93bd 002c 92bd 4021 903d 1c2e 3238
00000180: 19e8 8cbd 2905 89bd 17fa 61bd be1c 49bd
00000190: 9474 d63b 1c66 b7bd 0ad7 bdbd a530 c5bc
000001a0: 6f1d d3bc 9d5d d8bd 7b71 8f3d 33ba 64bd
000001b0: 0816 a5bc fc92 6b3d be0f d03c 36c3 6f3a
000001c0: 77c2 4ebd 3aa4 993d c68d 083c f2e7 c4bc
000001d0: a434 a73d 3cce d53c bd11 043e 063e 823d
000001e0: 4511 91bd 934e eb3c 99af 863c c67f 8d3d
000001f0: cafc 6ebd 6d79 323d 482c 453d 80e7 433c
0.048710715 -0.056487262 -0.10191012 -0.04947513 0.08285005 0.0096005425 0.013346739 0.04759639
0.04453253 -0.07034264 0.03736319 0.025369905 -0.070943475 0.018369919 -0.033190344 0.08273085
-0.10745347 -0.020547254 -0.035706874 0.042075973 -0.045408804 -0.016885258 -0.029886069 0.026006874
0.017618146 0.014681272 -0.05969043 -0.039239943 -0.04879712 0.07614025 -0.11168201 -0.001040563
0.054008752 0.082391605 -0.08059184 -0.033361368 -0.040331174 -0.058108255 0.042296194 -0.09826899
0.016333751 -0.031526364 -0.06362257 0.049597614 0.08367892 0.035320513 0.014460618 0.05951564
-0.085812055 0.028570255 -0.07303858 0.04828523 -0.103141055 -0.0783226 -0.0550284 -0.025565527
-0.083597675 -0.061650228 -0.023207344 -0.05343848 0.022133552 -0.077969156 -0.038665652 -0.033579838
0.06385722 0.0335391 -0.0461976 -0.08158771 0.005312269 0.05385562 -0.019216252 -0.024645593
0.008084506 0.06570598 0.017260134 0.059946127 -0.100100644 0.0034951195 -0.028904868 0.08011623
-0.029915318 0.06125329 -0.034830846 -0.023126788 -0.023315484 -0.06034323 -0.015272186 -0.08458331
0.070764214 0.0058888122 -0.07584799 0.04497259 -0.07179206 -0.071372986 0.07037592 4.248145e-05
-0.068802066 -0.06690437 -0.055170145 -0.049099676 0.006544659 -0.08955023 -0.09269531 -0.024071047
-0.025770871 -0.1056473 0.070040666 -0.055841636 -0.020152107 0.057513222 0.025398131 0.0009146215
-0.050478425 0.07502027 0.008334583 -0.024036381 0.08164337 0.026099317 0.12897392 0.06359486
-0.07083372 0.02872399 0.016441153 0.069091365 -0.058346547 0.043572832 0.048137933 0.011957049

exp_avg f4 [128, 53]
00000000: 2bdd 51bb d27e 433b 908c 2039 a843 8f3a
00000010: e854 13ba 747d 2439 810d f7ba 4300 233b
00000020: 32a6 c3ba f216 3eba 58fa d1ba a692 e539
00000030: 7c79 c939 6ae2 8e3a 281c 18bb 7244 d339
00000040: df66 573a a0f2 023b be4e 68bb de88 f7b9
00000050: e43e 68bb d839 1c39 561e 9aba e298 c4bb
00000060: 8e81 3f3b a803 a0bb 97c5 adba 08ca 633a
00000070: ec94 2b3b 84a2 26bb 5731 0b3a 5834 3e3b
00000080: 1517 353b e813 663b 7e0c 8eba 6f00 383b
00000090: 6e78 473a c7c2 9abb a177 40bb a257 803b
000000a0: e0d4 8938 15e5 f5ba 77ab 4e3b 03af 473b
000000b0: b41a 193b 2b0f 01bb f344 1e3b 717c 0c3b
000000c0: c8bc b7ba e00c 86ba 5345 913a 3184 913a
000000d0: 47cb 26bb b67e 103a 4332 15bb e3c5 76ba
000000e0: 1e50 643a b887 073b 22ab 163a eff2 c33a
000000f0: 8884 b9ba 24ac 013a b8d1 7b3a 08d2 f839
00000100: e81b c539 ba0c 07ba 6843 fe39 0b6d 1e3a
00000110: 9bf2 023a 14fa 93ba cea9 2eba d068 943a
00000120: f617 013a b431 80b9 0e96 bb39 c5aa 463a
00000130: 42d7 343b e57a 28bb 3a00 a339 4438 0039
00000140: 6141 b33a 7420 25bb 07aa a73a 202d 19b9
00000150: b3ed 24bb c03f f739 8888 d8ba b16b 7f3a
00000160: ea53 63ba 2a53 dfb9 0c3d 233a 35fa 613b
00000170: fc67 ceb9 d572 993a eca0 d33a aa9f 7eba
00000180: 44bf 53ba 48b0 6fbb a6b4 bc3a 76c3 b739
00000190: 7a36 0ab9 f438 84ba 72a7 9ab9 b631 eb39
000001a0: 002e c335 7da0 aa3a 73d5 babb d627 4b3b
000001b0: 44f7 2a3b 37fa 0c3b 858c 5b3a 3f68 65ba
000001c0: 487d c3ba 4093 0038 eeaf 0cbb 147f cfba
000001d0: b7d5 27bb a655 9aba bfbc 053b cd9c 2c3b
000001e0: 7994 79ba 0e4b 2b3b d6ed 673a f023 f93a
000001f0: 1a83 cdbb 4ca1 98b9 6096 a3bb cbe8 923a
00000200: f406 083a 52a4 a6bb a857 e23a da87 cfbb
00000210: 9cd6 bfba c055 e63a 280d 5a3a f637 31bb
00000220: 455c 0ebb 166c 523b 4cf6 8f3b c8f1 6d3b
00000230: dd13 f1ba 67db 553b f063 953a 0552 e5bb
00000240: aa7c c5ba 9478 e73b 28f4 8ab9 9a29 59bb
00000250: 2b8b ba3b 2cab 8b3b e5c3 62bb b646 11bb
00000260: 7391 b23b 7bd5 993b baa5 583a 1bab 10bb
00000270: f221 673a fc53 ad3b 568b b2bb 7a59 2abb
00000280: de13 063a 684b 893a e0b2 ffb9 626c d2ba
00000290: 00cf 4b39 d2bd 11bb fcac 32bb 4fd3 40bb
000002a0: e836 92ba cf90 bfba 2d33 dbba ccf4 f83a
000002b0: 4433 20ba 9209 49bb 14b7 283a 8975 083b
000002c0: cb26 813b 2339 a9bb 480e 00ba 0380 d43a
000002d0: 5c18 bdb8 a87e 87ba 8fbf 2fba aa5e c13a
000002e0: aa59 ebba baf4 0bbb 30c9 ebba 8604 6e3b
000002f0: 44f7 43b9 7cef 29bb 76e4 633b f678 053a
00000300: 4352 5e3b f2ac e8ba 0097 813b be74 35ba
00000310: c5a0 b0bb 5fa9 a3bb f2fb 7d3b a01b 5fba
00000320: 2a45 3fbb b693 983a efaf 043b 7392 853a
00000330: 044c 00bb 6925 543b 74e2 0a3b 8892 43ba
00000340: 0226 72bb 45eb aeba ad65 203b f414 08bb
00000350: d8b5 bbbb e854 253b 0080 6d3a d8c5 0b3b
00000360: 1c55 883a 14e5 333a d068 cbba 26b0 1a3b
00000370: 66e7 63bb 1db3 86ba ef13 2ebb 9f43 843a
00000380: 10ea a23a 00d6 4eb9 b101 debb 205d 4f3a
00000390: 81e1 723b f6a7 373b e0dd cebb 0020 81b7
000003a0: a2f9 bebb b235 e63a f0f7 a83a 3ac9 9cbb
000003b0: 401f 693b f23f d9bb 4470 e9ba a88b 643b
000003c0: 84e4 d63a 448e 3fbb d7e6 d0ba d80a aa3b
000003d0: 5194 9f3b 2b92 a73b 5f7e 48bb 1c09 bb3b
000003e0: 11fe d53a 6c0e 09bc 1843 34ba f141 ec3b
000003f0: 00b9 c1b9 f465 3ebb 6541 c63b 9210 8b3b
-0.0032022696 0.002983023 0.00015311153 0.0010930197 -0.0005620257 0.00015686994 -0.0018848629 0.0024871982
-0.0014926849 -0.0007251344 -0.0016020043 0.00043787545 0.0003842822 0.0010901217 -0.0023210142 0.00040296052
0.0008216928 0.0019981042 -0.0035447325 -0.00047213485 -0.0035437876 0.00014898868 -0.0011758308 -0.0059996704
0.0029221508 -0.0048832484 -0.0013257739 0.0008689468 0.0026181294 -0.0025426457 0.00053097814 0.0029022899
0.0027632166 0.003510708 -0.0010837463 0.002807643 0.0007609193 -0.0047229263 -0.002936818 0.0039166966
6.57232e-05 -0.0018760288 0.0031535306 0.0030469305 0.0023361864 -0.0019692879 0.0024149984 0.0021436478
-0.0014018053 -0.0010227226 0.0011083282 0.0011102018 -0.0025450753 0.00055120455 -0.0022765554 -0.00094136427
0.0008709448 0.002068026 0.00057475467 0.0014949719 -0.0014153877 0.00049466104 0.00096061407 0.00047458732
0.0003759556 -0.0005151738 0.00048496877 0.00060434703 0.00049952575 -0.0011289739 -0.0006662876 0.001132274
0.000492453 -0.00024451094 0.0003577922 0.0007578547 0.0027594124 -0.0025708016 0.00031089952 0.00012227992
0.0013676101 -0.0025196346 0.0012791761 -0.00014608027 -0.0025166094 0.0004715901 -0.0016520182 0.00097435253
-0.0008671867 -0.00042595837 0.0006227053 0.003448141 -0.00039368856 0.0011707196 0.0016145981 -0.0009713123
-0.0008077512 -0.0036573578 0.0014397099 0.0003505011 -0.00013181 -0.0010087774 -0.00029497925 0.0004485973
1.454202e-06 0.00130178 -0.0057017147 0.0030999086 0.0026087323 0.0021511444 0.0008375126 -0.00087511906
-0.0014914656 3.0654715e-05 -0.0021467167 -0.0015830719 -0.0025609562 -0.0011774793 0.002040669 0.0026338578
-0.00095207203 0.0026137265 0.0008847391 0.0019007903 -0.006271732 -0.00029111875 -0.0049922913 0.0011208294
0.00051890244 -0.0050855065 0.0017268555 -0.0063333334 -0.0014636102 0.0017573163 0.00083180005 -0.0027041412
-0.0021722477 0.0032107881 0.0043933745 0.0036307443 -0.001839276 0.0032631995 0.0011397582 -0.006998303
-0.001506706 0.0070639346 -0.00026503322 -0.0033136369 0.0056928596 0.0042623486 -0.0034601626 -0.002216739
0.005449468 0.0046946383 0.0008264441 -0.0022074643 0.0008817009 0.0052895527 -0.005448739 -0.0025993274
0.0005114655 0.0010474743 -0.00048770662 -0.0016054029 0.00019436702 -0.0022238386 -0.0027263751 -0.0029422825
-0.0011155279 -0.00146153 -0.0016723626 0.0018993854 -0.0006111155 -0.003067587 0.0006435972 0.002082201
0.003941392 -0.005164282 -0.00048849406 0.0016212467 -9.0167596e-05 -0.0010337429 -0.00067042647 0.0014752944
-0.0017955799 -0.0021355585 -0.0017989036 0.0036318614 -0.00018688763 -0.0025930097 0.0034773625 0.0005091572
0.0033923544 -0.0017751737 0.003954768 -0.0006921998 -0.005390259 -0.004994556 0.0038754907 -0.00085108913
-0.0029185512 0.0011640701 0.0020246466 0.001019074 -0.001957656 0.003237093 0.0021192105 -0.00074604945
-0.0036948924 -0.0013345262 0.0024474666 -0.0020764442 -0.0057284646 0.002522761 0.0009059906 0.002132764
0.0010401341 0.00068624434 -0.0015518907 0.0023603528 -0.0034775375 -0.0010276769 -0.0026562174 0.0010090953
0.0012429375 -0.00019725412 -0.006775104 0.00079103 0.003706068 0.0028023697 -0.0063130707 -1.53929e-05
-0.0058280984 0.001756361 0.0012891274 -0.0047847303 0.0035571605 -0.0066299373 -0.0017809947 0.003487328
0.0016395007 -0.0029229084 -0.0015937936 0.005189281 0.0048699756 0.00511386 -0.0030592901 0.005707873
0.0016326328 -0.008365255 -0.0006876453 0.0072100093 -0.00036949664 -0.0029052468 0.006050276 0.0042439187
