experiments/workflow/lightning_logs/version_1/checkpoints/epoch=99-step=4200.ckpt (torch, 692906 bytes, 27 tensors)

model.embedding.weight f4 [128, 53]
00000000: 9e7d ce3d 5d64 733d 2b59 a4bd bb86 aebd
00000010: e6e0 b0bd 0307 1d3c 3d51 b8bc 63e7 b6bd
00000020: 8d56 7bbc 3866 c7bd 96fb a0bb a0ec aa3d
00000030: 7834 8f3d f3e7 b7bd bf0c 5d3d 1b31 b5bc
00000040: c694 8f3d c056 883c d9d7 bcbd b2b8 38bd
00000050: 8008 52bd 4ff5 95bd 61df e8bc 2921 8c3d
00000060: a6f1 9f3d c40c c53d 212c dabd 1e95 38bd
00000070: 049c c6bc 7a5c 503d ac84 34bd 5a51 e9bd
00000080: 0f17 0e3e e1b1 acbd 9321 06bd 8e5b 803d
00000090: 5c60 b9bd fc93 78bc 3a22 ed3c 2278 c13b
000000a0: e33f 5e3d 1c49 633a 5ebf 523c 4fc5 9bbb
000000b0: 5971 30bd 72e0 14bd 23bb c03d c21e 01be
000000c0: fc61 68b9 2e4d 053e cbe0 673c 22f6 b73d
000000d0: 0352 cb3d f15a f33d 1989 613d 6e74 02be
000000e0: 56bb c7bd 5274 26bc 1ade 043e adf5 25bd
000000f0: 5ad0 87bd d79c 1c3e 25fa 003c 02bf b23d
00000100: 3e28 23bc 5eba f43c 150b 1b3d 91dc e93c
00000110: 5977 473d 4fe6 b03d e351 8d3c b878 643d
00000120: 9724 c43c 8990 15be 941b 813d 0186 ee3c
00000130: 7aea 09be 559e a5bc dde4 bb3d aa63 96bd
00000140: 152c bb3d 65ec ddbd df5f 21bd e2ce e2bd
00000150: 7d69 d7bd 8ccb c7bc 4720 c23d f91e acbd
00000160: 5255 da3d 02c1 ca3d f191 643d 25ad 063e
00000170: 819e fa3d c7ba fb3d 68ea 41bc c457 d139
00000180: 182f 58bd a966 5abd cf3b da3d fb02 ae3c
00000190: ddab dd3c 632e 52bd d56b 0b3e 88e4 d4bd
000001a0: e791 0cbd 7bf0 323d a3b6 bfbd f756 123b
000001b0: c8b4 e23d 0b24 d03d c1d3 e2bd 7df0 253e
000001c0: cbdd eb3d c164 0c3d 4512 ca3d 822c 1ebe
000001d0: 542b 353b a0bf ffbd 3f65 b7bd 98b7 423d
000001e0: 19c7 d1bb a186 fc3d d185 c9bc 2a4b a8bd
000001f0: 1959 da3d 04d4 d2bd 8128 0b3d 578e 993d
00000200: 54e0 57bb f4ed b3bd 6310 a2bd 9e7c 5bbc
00000210: 884f d03d ed3c d6bd af7b 8abd dcd7 b03d
00000220: 1ac3 593d 11ec 79bb 2444 853d 9dc2 ed3c
00000230: 7354 023e a9e4 0abd 0c56 5fba d466 293d
00000240: 9348 b5bd 5b4f 04be 0ff6 023d 0fb0 213e
00000250: 90fb 243d 7c3a 8dbd a5ed 183e 90e2 9fbc
00000260: 64eb b0bc 03ed 68bd 8743 4c3c 3d54 f1bd
00000270: eaad 703d 49da b1bd 963e 4ebd c971 8f3d
00000280: bbe2 fd3c 3640 903d 5ce0 59bc bcec dfbd
00000290: 372b 15be c97e 8c3d e346 64bd 1109 67bd
000002a0: eede c93d 14b4 5bbc 50f1 0f3e 7237 b3bd
000002b0: 8757 b73d 8d13 c93d 2ac1 1dbe 4ac4 de3d
000002c0: a6e1 13be 35ab cc3d db66 2c3e 5b70 2f3d
000002d0: 4a7f dcbd 2b96 493c 2860 dfbd 3dbd abbd
000002e0: 2bab 9fbd bb06 d33d ac60 013e 0afe 08bd
000002f0: 36ab 183c c450 c2bd d4c4 e43d 8e74 823d
00000300: 6205 a43c f354 bebd 76cb 2fbd 6286 ff3d
00000310: 61d6 8e3d f199 9a3d a788 debd 5ec8 61bb
00000320: 16b8 803d 79ab 92bd 1487 853d 15d2 fdbd
00000330: bc99 1ebd 4507 2ebe 89b9 9abc 57d8 80bd
00000340: 99a8 b53c ec0b 11be 8b59 e93c 16fe e9bb
00000350: 3187 443d ee3c fcbc 1bae 0b3e 8bc8 b23d
00000360: 1f16 a43b 509e 7abd ef69 173d f493 4e3c
00000370: c6fc 5c3d 7449 833d ed54 efbd d316 7cbc
00000380: 59fa b23c 31b5 323d 26c8 bbbd 41fa 03be
00000390: bcff 633b a9b2 c53d eaeb ccbc 4222 203e
000003a0: d3fb 1c3e b2b3 07bd 5a48 d93c 8617 99bd
000003b0: e5f6 023e 1a32 a23c f5e5 773d 74da 853c
000003c0: 9ab2 d03d 57a6 92bc be88 c03d bdf4 6fbd
000003d0: 3b7c 55bd b702 eabd ef11 b3bb e550 03be
000003e0: 55b7 b13d 28e4 433d 76c4 b4bd f6b2 02be
000003f0: 5bc5 003e 3ced 6a3d f223 cbbc 38d9 7a3d
0.10082553 0.059421886 -0.0802482 -0.085217915 -0.08636646 0.009584191 -0.022499675 -0.08930852
-0.0153404595 -0.097362936 -0.004912804 0.08345914 0.069924295 -0.08979788 0.053967234 -0.022118142
0.07010798 0.016642928 -0.09220857 -0.045098014 -0.051277637 -0.073221795 -0.028426828 0.06842262
0.07809763 0.096215755 -0.10652948 -0.045064084 -0.024244316 0.050869443 -0.04407184 -0.1139247
0.13875984 -0.08432365 -0.032746863 0.06267463 -0.09051582 -0.015172001 0.028946985 0.0059042135
0.054260146 0.0008670257 0.012863008 -0.0047537456 -0.043076847 -0.03634686 0.094106935 -0.1260939
-0.00022161746 0.13017723 0.014152716 0.08982493 0.09927752 0.1188258 0.055062387 -0.12739727
-0.09752528 -0.010159569 0.1297535 -0.040517498 -0.06631537 0.15294205 0.007872139 0.08727838
-0.009958325 0.029874023 0.037852366 0.028547557 0.048697803 0.08637678 0.01725096 0.05577919
0.023943229 -0.14605917 0.06304088 0.029116632 -0.13468352 -0.0202171 0.091745116 -0.07343228
0.09139267 -0.10836104 -0.03939807 -0.11074616 -0.10518167 -0.02438905 0.09478813 -0.08404345
0.10660805 0.099000946 0.055803243 0.13151987 0.122372635 0.12291484 -0.011835672 0.00039928977
-0.052779287 -0.05332056 0.10655939 0.021241656 0.02705949 -0.05131377 0.13615353 -0.103951514
-0.03431883 0.04368637 -0.09361007 0.0022329667 0.110696375 0.10163125 -0.11075545 0.1620502
0.11516913 0.034275774 0.09866766 -0.15446666 0.0027644234 -0.124877214 -0.08954858 0.04753837
-0.006401908 0.12330366 -0.024599941 -0.082174614 0.10661525 -0.10294345 0.033974174 0.07497852
-0.0032940106 -0.0878562 -0.07913282 -0.01339641 0.101714194 -0.104608394 -0.06761872 0.08634922
0.05316458 -0.0038135091 0.065071374 0.029023463 0.12727527 -0.033909474 -0.0008519597 0.04135783
-0.08851733 -0.12920897 0.03197294 0.15789817 0.04027897 -0.06895921 0.14934404 -0.019517213
-0.021596618 -0.056866657 0.012467272 -0.11783645 0.058759607 -0.08684213 -0.050352655 0.07004125
0.030991903 0.07043497 -0.01329812 -0.109338254 -0.14567266 0.0686012 -0.055731665 -0.05640513
0.098569736 -0.013409633 0.14056897 -0.0875081 0.089522414 0.09818182 -0.15405717 0.10877283
-0.14441547 0.09993593 0.16836111 0.04283176 -0.10766466 0.012303869 -0.10907012 -0.08385704
-0.077963196 0.10304018 0.12634534 -0.033445396 0.009318164 -0.09488061 0.111703545 0.06369887
0.020022098 -0.092935465 -0.042918645 0.12476803 0.06974483 0.07548893 -0.10865908 -0.0034451704
0.062851116 -0.07161612 0.06519905 -0.123935856 -0.03872083 -0.1699496 -0.018887298 -0.062912636
0.02217512 -0.14164704 0.02848508 -0.007140885 0.04798049 -0.030790772 0.13640635 0.08729657
0.00500752 -0.061186135 0.03696626 0.012608517 0.053952 0.064104944 -0.1168612 -0.015386301
0.02184789 0.04362983 -0.09169035 -0.12888433 0.003478988 0.09653217 -0.025014836 0.15638068
0.15330438 -0.033130355 0.026523758 -0.0747519 0.12789495 0.01979928 0.06052204 0.016339518
0.101903155 -0.017901583 0.094010815 -0.05858301 -0.05212043 -0.11426299 -0.0054647843 -0.12823828
0.08677546 0.04782501 -0.088265345 -0.1276358 0.12575285 0.05735515 -0.024797413 0.061242312

model.embedding.bias f4 [128]
00000000: 6b4f 183e 7f63 463d ccff 943d 0bc3 13be
00000010: 3e9f 01bd 03d8 da3d 6a50 0dbe 248d 0c3e
00000020: f10f d7bc 7a96 b7bd 23ce eebc 1d77 833d
00000030: 1d25 20be 44f1 f43d 03a3 00be c1af c6bd
00000040: 230a e9bc 213b 7d3d 5b36 293c e57b 18be
00000050: 7d31 0fbe 7cda 80bd 2079 09be d06b 19be
00000060: 8c1f 583d e707 fd3c 220d 8f3d 6872 45ba
00000070: 5e21 4d3d 9578 c43d b1a0 1ebc 6cf3 c93d
00000080: dcc8 6b3b 7796 f7bd 215e 56bb 60cc 743d
00000090: fd3f dc3d cec6 e7bd 8d4d 0dbd 853c e93d
000000a0: 5192 06be 06a7 8d3d 6cb0 f53d b43b f53d
000000b0: 18e1 76bd 6dd1 d5bd ea70 17be 2797 c1bd
000000c0: 35bb ef3d 2d23 c03d b998 003e b85d 94bd
000000d0: afe8 0c3e b1f5 163e edd6 d6bd ca17 a4bc
000000e0: 2b90 813d 400e 64bd b10c c13d a35a 803d
000000f0: 061c 01bd 9a57 19be 4198 9cbd eebc f1bd
00000100: 560d 253e 5734 af3b 2264 213e e94f b9bd
00000110: 2cbd 20bd 94ee d1bd c117 353d f949 16be
00000120: 06e5 0ebe 9f47 a83d a9bc cfbd 7207 4a3d
00000130: dc4a 08be 0803 c839 0135 81bd 72d1 22be
00000140: 977f d83d e138 11be e9dc 12be 8340 f53d
00000150: 2f5a 11be a86d cc3d 7eed 83bd 5e01 a0bd
00000160: 7100 2b3d 1404 86bd c96b dbbd b2ed c2bd
00000170: 4a0d 1f3e 77da 3ebd b3f8 f53d 876b ae3d
00000180: 5a31 f03d 4fc2 57bd 91c5 e13d 6733 05be
00000190: 0075 0e3e 5300 113d 8db4 153e 8133 5f3c
000001a0: 9f83 bd3d 5ce5 c7bd 005d 71bd 3964 febd
000001b0: 8b69 c2ba 3684 a5bc 687b a4bd 2e35 d23d
000001c0: 9add 24be 63de 783d ed91 5ebc 63bd 193e
000001d0: 4419 6ebd b5f8 ea3d e684 d23c 251e 56bd
000001e0: 35e0 623d dbfe 90bd 038f e53d e6be b73d
000001f0: 492f efbd 141e 95bd f8f7 d33d 5bb8 1cbe
0.14874046 0.04843473 0.07275352 -0.14429872 -0.031646006 0.10685732 -0.13800207 0.13725716
-0.026252719 -0.08964248 -0.029151028 0.064192034 -0.15639158 0.1196008 -0.12562184 -0.09701491
-0.028447216 0.061823968 0.010327901 -0.14891012 -0.13983722 -0.062916726 -0.13425112 -0.14982533
0.05276446 0.030887557 0.06984927 -0.00075320015 0.05008065 0.09593312 -0.0096818665 0.09860882
0.0035977876 -0.12089246 -0.0032709914 0.05976522 0.10754392 -0.11317216 -0.034497786 0.11388496
-0.13141753 0.06916623 0.119965404 0.11974278 -0.06027326 -0.104403354 -0.14789167 -0.09452658
0.11705629 0.09381709 0.12558259 -0.07244438 0.13760637 0.14742161 -0.104902126 -0.020030875
0.06326326 -0.055677652 0.09426249 0.062672876 -0.031520866 -0.14974824 -0.07646228 -0.118036136
0.16118369 0.0053468156 0.15760854 -0.09048445 -0.03924291 -0.10250583 0.044212107 -0.14676656
-0.13954553 0.08216786 -0.10143406 0.049323507 -0.13309807 0.0003814923 -0.06308938 -0.1590021
0.10571211 -0.14181854 -0.14342083 0.11975195 -0.14194559 0.09981853 -0.064417824 -0.07812761
0.041748468 -0.065437466 -0.10713918 -0.09517993 0.15532413 -0.046595063 0.12010326 0.08516603
0.11728163 -0.05267554 0.11024011 -0.1300789 0.1391182 0.0354007 0.14619656 0.013623119
0.0925362 -0.09760544 -0.058926582 -0.1242146 -0.001483248 -0.020204645 -0.080313504 0.102640495
-0.1610016 0.06075896 -0.013584596 0.15013652 -0.058129564 0.11473218 0.025698137 -0.05227484
0.0553896 -0.0707986 0.11208918 0.08971958 -0.11678941 -0.072811276 0.10350031 -0.15304701

model.convs.0.weight f4 [128, 128]
00000000: ba34 ab3c 2c8a 8b3d 92c3 21bc 4b4e bd3c
00000010: f680 9abd 434e 5cbd 49bd 063d 087d a4bd
00000020: e681 0cbd 09f5 cfbc 9020 ee3c 4817 bdbc
00000030: b786 9d3d cad4 32bc 3192 953d 6ac6 8b3d
00000040: f806 a83c c6a0 653d f77d febc 90f4 28bd
00000050: 4333 873d 9a43 273d 7609 383c 86e4 30bd
00000060: 4d0e 2abd f590 06bc 9ae0 91bd 5133 b93d
00000070: 15fe dd3b f9f5 4e3c e84b e7bc 2266 b7bd
00000080: 821b 803c 8d9b d53d 5cdc aa3d 382a 683d
00000090: 9b4b 03bd b05f a33d f861 783d 5783 03be
000000a0: e6f9 e83c ae06 10bd 739d e6bd 5773 a43b
000000b0: 4e78 313d 984c 793c 5063 933d 578c 9a3c
000000c0: 0215 c9bd b6e9 b03d 0ae0 2fbc 7f04 cebd
000000d0: 9076 c6bb 42bc dfbd 7d91 7cbc 4d5c 81bc
000000e0: 075f 953c 7d07 573d 8346 a2bd 11f2 b33d
000000f0: 5c62 f33c fc92 9538 cc34 f9bc 6f30 5dbd
00000100: 9bf9 43bd f379 e5bd db35 803d e37d a73d
00000110: 060c 0b3c 733a 47bd 1b74 8ebd b0a6 82bc
00000120: 1fd5 74b9 cf3c e63c 39a6 263d db28 30bd
00000130: c74c 713c 9cd0 b4bc 69c5 a03d e3e8 36bd
00000140: d306 9ebd 1317 88bd 1d2b a7bd 4cf5 afbc
00000150: 13a2 e93d 6eb3 10ba abad da3b d5ee eebc
00000160: 607a 2dbd 37d1 a53d de6c 26bd 82e6 663c
00000170: 3199 90bd a03c cabc 7a31 2d3c c271 4a3d
00000180: 61ce 9dbd 753d b9bd fdab 4abb b330 ae3d
00000190: c3a5 93bd d71a 053d a766 21bd b982 ea3b
000001a0: 3fe2 fbbd 1b48 733c 4cad b4bd ae1b d0bd
000001b0: 450c 783d f6fa 813d 7999 bebc 8bd6 37be
000001c0: 3364 553d 59a8 95bd 50f6 05bd 7010 4ebd
000001d0: 7a51 823d 1ba9 b93d 11b5 28bc 6732 90bc
000001e0: 0c72 6cbd d849 73bd 988f 44bd d507 d5bd
000001f0: ebd9 993d c845 253d 64b1 9cbd 17a1 9dbd
00000200: 689f 1b3d 69ac b03d d6d3 603c b6e0 f7bc
00000210: 7e88 a43c 405f b83c 4972 c1bd 555b aa3d
00000220: 0660 1d3d 65a5 8f3d 1354 cdbd d1f5 d53c
00000230: ad3b bfbd e311 0a3d 9439 32bb 34b5 893d
00000240: 9232 c53c 46e5 05bc 9552 b23c ba64 bdbb
00000250: 5d58 d3bd d526 7abd f2cd 6d3d 24a3 143d
00000260: 6ee5 7d3d 12e4 21bd 84bb 87bd 668b db39
00000270: 25ac cb3a c65b ddbc c450 abbd d7ef a9bc
00000280: 32a6 523d b322 5a3d f35e df3c 0351 013c
00000290: 8955 f13c fafd 37bd 6da1 a5bd 478b d73d
000002a0: ed31 9cbd 41e0 42bc 54c6 e13d 3a32 9c3d
000002b0: 3cd4 a43c 0a5f 08bd 8d2e 8e3d 5b29 6f3d
000002c0: a011 053d bffe aa3d 70d7 c23b 0086 b5bd
000002d0: 109f 9a3d 59b4 21bb 9d0a 573d ed11 d7bc
000002e0: 0aaa cf3d 9ff4 5f3d 2a2f f5bc 81e3 853d
000002f0: 87d6 793c 94ef 92bd a1cc 59bd 71a5 513b
00000300: 5d48 2bbd 545e 92bd 9150 bb3d d087 1c3d
00000310: bbfb d8bb a05d 71bd 4e5a 3c3c 5002 99bd
00000320: 401d c8bd 2766 c53a 37d2 9c3d e25f 27bb
00000330: 331d dfbc cbcd c93c 18fc ddbb 973e 16bd
00000340: 7370 023d 73a3 8c3c 32b9 bfbd 10b3 7c3d
00000350: f5f4 053c 293e 883d fe3c 43bc f932 61bd
00000360: 4f83 97bd 7c4f 983c 9add ccbd dc29 123d
00000370: 5a23 2bbd b7e4 dbbd 3cc9 cdbb ddc9 90bc
00000380: 37ea b33b dec7 703b 49c5 a7bc acf2 8fbb
00000390: 1eaa 603d 81fa 8dbd 3f0f eb3c 5b00 4b3d
000003a0: 45bb 30bd 427f 993d 2613 28bd 2349 0a3c
000003b0: 4d73 76bd e242 83bd 69de 353d 4026 753d
000003c0: 8b88 2d3d d73f 883c 3744 80bd a473 a83d
000003d0: aaee bdbc 84aa 9d3c d22d 4e3d 0494 89bd
000003e0: 18d5 87bd 1f7e 2d3d a96c 81bd c9c5 5ebd
000003f0: f957 31bc 7a3a afbd 1b6f 27bc 2c4e b5bd
0.020899165 0.068134636 -0.009873288 0.023108622 -0.075441286 -0.053785574 0.03289536 -0.0803166
-0.03430357 -0.025385397 0.029068261 -0.02308239 0.076917104 -0.010914991 0.073032744 0.06824954
0.020511135 0.05606153 -0.031065924 -0.041248858 0.06601574 0.040835954 0.011232724 -0.043186687
-0.041517545 -0.008213271 -0.071229175 0.09042991 0.0067746737 0.012631887 -0.028234437 -0.08955027
0.015638117 0.104300596 0.083428115 0.056680888 -0.032054525 0.07977235 0.060640305 -0.12843071
0.028439473 -0.03516262 -0.112605 0.0050186324 0.043327622 0.015216015 0.07196677 0.018865747
-0.0981846 0.08638327 -0.010734567 -0.10059451 -0.006056614 -0.10924579 -0.0154155465 -0.015791083
0.01823379 0.052497376 -0.07923605 0.08786405 0.029709987 7.1322516e-05 -0.030420683 -0.054001268
-0.047845464 -0.112049006 0.06260272 0.08178308 0.008486753 -0.048639726 -0.06955739 -0.015948623
-0.00023349047 0.028105168 0.040685866 -0.043007713 0.014727778 -0.022072129 0.07850153 -0.04465569
-0.07716145 -0.06645026 -0.0816252 -0.021479271 0.11407866 -0.0005519901 0.006673535 -0.029166618
-0.042353034 0.08096545 -0.040631168 0.014093043 -0.07060469 -0.024687111 0.010570878 0.049424894
-0.07705379 -0.09044925 -0.0030925267 0.085053824 -0.07209351 0.0324963 -0.039404538 0.0071566966
-0.122990124 0.014848734 -0.08822116 -0.101615295 0.060558576 0.06346695 -0.02326654 -0.17952935
0.05209751 -0.073075004 -0.032705605 -0.050308645 0.06363197 0.090654574 -0.010297076 -0.017602159
-0.05772595 -0.059396595 -0.047988504 -0.104018845 0.07512268 0.04034975 -0.07651022 -0.07696741
0.03799382 0.08626635 0.013722381 -0.030258518 0.020084616 0.022506356 -0.09445626 0.083182015
0.038421653 0.070139684 -0.100258015 0.026118191 -0.09337554 0.033708464 -0.0027194964 0.06724015
0.024071965 -0.008172339 0.021767894 -0.00577983 -0.10319588 -0.06107219 0.058057733 0.036288396
0.06198638 -0.039524145 -0.06627563 0.00041874795 0.0015538974 -0.0270213 -0.08365014 -0.020744247
0.051428027 0.053255748 0.027266955 0.00789285 0.029459732 -0.044919945 -0.0808743 0.10524612
-0.0762671 -0.011894287 0.11024156 0.076267675 0.020120732 -0.03329376 0.069424726 0.05838905
0.03248751 0.0834937 0.0059460923 -0.08863449 0.0754987 -0.0024674146 0.052500356 -0.026253665
0.10139854 0.05467665 -0.029929716 0.065375336 0.015248901 -0.07174602 -0.053173665 0.003198948
-0.041817058 -0.07146898 0.09146226 0.03821546 -0.0066218055 -0.05892718 0.01149614 -0.07471144
-0.09771204 0.0015060351 0.07657283 -0.0025539328 -0.027235603 0.024634263 -0.0067744367 -0.036680784
0.03184552 0.017167782 -0.09361495 0.061694205 0.008176078 0.06652481 -0.011916397 -0.054980252
-0.07398092 0.018592589 -0.10003205 0.03568445 -0.04178176 -0.10736983 -0.0062800925 -0.01767438
0.005490567 0.0036740224 -0.020479815 -0.0043929424 0.054849736 -0.069325455 0.028693793 0.049560886
-0.043147344 0.074949756 -0.041033886 0.008440289 -0.060168553 -0.06409241 0.04440156 0.05985093
0.042366546 0.016632004 -0.06263011 0.08225182 -0.023185093 0.019246347 0.050336666 -0.06717685
-0.06632441 0.042356607 -0.063195534 -0.05438784 -0.010824197 -0.085560754 -0.010219361 -0.08852801

model.convs.0.bias f4 [128]
00000000: d3bd d73c 372f 2f3d 1a4c 8a3d 89ae 11bd
00000010: 60af 24bd aa24 d0bc 3ab7 2bbd cd2f 923d
00000020: 26cc 5dbd 09e9 883d 4874 d53d e8b5 b03d
00000030: 19e1 033d 2da1 90bc 6e71 dc3d 9b94 bc3c
00000040: ca72 25bd 809a 2f3c e30b c83d cd25 8e3d
00000050: 7208 123d fbb6 763d 06a1 c73d 63a8 b23d
00000060: dad2 4b3c 9ca1 c3bc 868c d8bc 2fb2 cb3d
00000070: 30ef 223d 4643 6f3c 7a41 de3c 59a7 373d
00000080: d3fc b4bb df57 5a3d 19b5 2ebd b423 de3d
00000090: a16e 2c3c 1cad 773d ec58 263d 1513 bc3d
000000a0: 7603 d9bb 5be4 dbbc 7f2a d93d 7fb1 84bc
000000b0: bbdc 6fbd 1586 993d 2c0c e0bc d40e 45bd
000000c0: dda7 48bd 35ee 993d 4249 c9bc 214b 553d
000000d0: c885 1bbd b8b3 85bd 8e87 163d 2644 513d
000000e0: 4a92 ac3d f336 38bd 071a d33d e255 65bd
000000f0: c4c9 853a 7dbd 44bd 245e 393d 1a02 65bd
00000100: 1828 d5bc 12ab 153c 89c7 3fbd e942 5dbd
00000110: 2e58 a8bc 82ff 55bd 70c0 993d 0fec a63a
00000120: a8ec 793d f787 d83c 4846 663d 64d4 e03d
00000130: b470 a1bd 9868 9fbd 5c89 b83d 1c50 993d
00000140: e441 3b3d f19c 33bd 01c9 2a3c d5a6 b2bd
00000150: 9ed9 a7bd d0bf 273c d30d b3bd 491e 21bd
00000160: 1dd1 923c 66c0 76bd 8c5f fabb 5ebe d03d
00000170: da44 93bb 81a0 233d 97c6 b3bd c6a9 4abd
00000180: 31dc d63d 8ca1 983b ba1c 533d ed98 98bc
00000190: 38b5 983c b464 423d c639 abbc 78fb 84bd
000001a0: 8b5e 613d e2fa 3bbd 5a7c ce3d a29e 4e3d
000001b0: 3a19 d13d b799 90bd 9bda 2b3d 8ac4 0bbd
000001c0: a3ef 81bc 6430 82bd dd58 cb3d 0145 c63d
000001d0: 99ed a5bc c8e6 343d dbc9 1abd 8b0f 753d
000001e0: c2ec 50bd 0abe b63d 0be3 2b3d 9027 ddbc
000001f0: 1f98 073c a263 e8bc f2df 3e3d 1b7e ecbc
0.026335632 0.042769637 0.067527965 -0.03556684 -0.040206313 -0.025408108 -0.041922785 0.071380235
-0.05414977 0.06685073 0.104225695 0.08628446 0.03219709 -0.01765498 0.107638225 0.02302008
-0.040392675 0.010717988 0.09767892 0.06940804 0.035652585 0.060233098 0.0974751 0.087235235
0.012440408 -0.023880772 -0.026434194 0.09946095 0.03977889 0.014603442 0.027130831 0.04483733
-0.005523303 0.053306457 -0.042653177 0.108466536 0.010524423 0.060467824 0.040612146 0.09183327
-0.006622727 -0.026842287 0.106038086 -0.016197918 -0.058560114 0.07496277 -0.027349554 -0.048109844
-0.048988212 0.075161375 -0.024571065 0.0520736 -0.03796938 -0.06528419 0.03675037 0.051090382
0.0842634 -0.04497428 0.10307699 -0.055990107 0.0010207226 -0.048032273 0.045255795 -0.055910207
-0.026020095 0.009135025 -0.04682115 -0.05401889 -0.02054986 -0.052245624 0.07507408 0.0012735146
0.06101671 0.02643202 0.05621937 0.1097801 -0.078828245 -0.077836215 0.09010574 0.07485983
0.045717135 -0.043850843 0.0104239 -0.08723227 -0.08195804 0.010238603 -0.08742871 -0.039335523
0.017921979 -0.06024208 -0.0076407846 0.1019256 -0.0044942917 0.03994799 -0.087781124 -0.049478315
0.10491217 0.0046579298 0.051541068 -0.018627608 0.0186411 0.04745932 -0.020901572 -0.06493276
0.055021804 -0.045893557 0.10082312 0.050444253 0.1020989 -0.07060569 0.041956525 -0.03412298
-0.015861338 -0.06356886 0.09929059 0.0968113 -0.020254897 0.044165403 -0.03779016 0.059829276
-0.05100704 0.08922966 0.041964572 -0.026996404 0.008276015 -0.028367821 0.04660029 -0.028868726

model.convs.1.weight f4 [128, 128]
00000000: ba05 0d3d 1443 bc3d 6674 9bbd 2a03 9cbc
00000010: 4334 713d fa4e 7bbd 389f 48be 91be 6f3b
00000020: dd25 bd3d da63 8cbd 7da2 07bd cdca 02bd
00000030: a2eb 93bc 62cf a03d 13c4 5bbd 1bf3 85bc
00000040: a3b8 683d d179 87bc c6a7 47bd f7ae 24be
00000050: 762b 89bd 26e9 a33d 30a0 daba 6218 043d
00000060: 0fad 203e 4574 c13c e666 d03c 8c69 5d3d
00000070: 4260 90bd 2ace 363d c8a9 a63d 8f46 73bd
00000080: a267 68bd 8317 953d b827 aa3d 6c0d 343d
00000090: 09d8 623e 0763 143d 06a0 bc3d 7d7e 6cbd
000000a0: fb67 21bc 0515 41bd b490 ac3c e042 2fbd
000000b0: 158e a0bd 91fe afbc 15c7 513d aa6d 013e
000000c0: 7f84 213e 5969 e83d 0522 0e3d 12cc 273c
000000d0: c746 17bd f27e 883d fb9d bfbc b3a3 f43d
000000e0: bfb3 c93d 1a72 ba3d 68f7 9b3d c145 b5bc
000000f0: 78e4 b53c cdfb 2ebc 366f 973b 6edc 4cbd
00000100: ef84 903d f329 a63c 7d80 1abe 1016 89bc
00000110: f69d bcbc 2177 93bd a1a8 703c 500b b33d
00000120: 0e0a 903d 42d8 b13d 1358 f2ba 5a40 b03d
00000130: de7b a3bd 9c78 493d 8940 8d3d 1c36 903d
00000140: d22e 993d e24d 00bd 9981 7e3d 6d93 9ebd
00000150: 8f5b 14bd af02 83bd 5695 8e3d cacf 923d
00000160: 07e6 a63a ad17 19bd c909 a93c e9f5 883d
00000170: fe45 573e 28ca 003c e993 9e3c a048 293d
00000180: c1c3 debb 4d63 bfbc 898c 4b3d dac6 49bd
00000190: 19b6 ad3d 1413 f3bc be39 483b fa13 f2bc
000001a0: edcd 9fbd c4bc 43bd ea8c 4bbd f001 173c
000001b0: f506 063c 37f6 a8bc 9a11 9c3d 736d b8bd
000001c0: e8a4 ad3d 0856 9d3b ea63 bf3d 3485 9cbc
000001d0: ffda 6a3d 21d7 123c cdb6 a33d b5cc c93d
000001e0: c4c1 9d3d f972 2fbd 6031 c4bc e7b7 963d
000001f0: e191 e23c 650e 53bd 8538 7c3c c58b aebd
00000200: 7ed1 2c3c 8062 84bd bde0 243d e7f5 903d
00000210: c74b a6bd 8cdd 74bd 482c af3c 0fc7 4a3d
00000220: a3c5 ae3d 2ffc 56bd ef10 7f3d 8ae1 803d
00000230: 12d2 d73c e532 713d 4af0 d6bc 76db b1bd
00000240: b431 e7ba de07 8e3c 4930 8cbc c286 503d
00000250: 62d2 443d 626e 5f3d 27d5 8bbd ddc9 993d
00000260: 2a2c 893d c9f5 dbbc 640d 103d 3d02 163d
00000270: 3c64 9a3c 5672 173d a571 b53c 8cad adbc
00000280: f21a a3bd 8681 41bd c833 aabd d5b2 3ebd
00000290: 5ec8 14bd 9ed9 35bd a4a2 0c3d e2be f33c
000002a0: 270b 903d 6896 16bc c5dc b2bd 78d3 88bd
000002b0: 5a0a 953d 1e9e 46bc d9a9 85bd 0026 55b9
000002c0: 0a1a 7e3d d445 b1bc 806e d1bb a7a3 913b
000002d0: 0a64 e7bc 354c b6bd 571d 87bd ab7b 77bd
000002e0: e87a 72bd 8bde 133d 5111 a13d 34e2 a83d
000002f0: 243e e83c 36fb 30bd 279f 01bd 00a1 97bd
00000300: fb00 a83d ed86 a7bd 744d d23c c7dd 8bbd
00000310: 3b25 743d 9a5a 883d 0a0d 6b3d b540 a3bd
00000320: 83a3 d63b fc48 f83b c4ea ccbc 6920 39bd
00000330: 9653 d53c c21c 433d 1013 5fb9 1c94 b13d
00000340: e655 4bbc 3d8e 853d 99e3 97bd d15e 803d
00000350: 4afe 553d de93 95bd 3f5c 883d 6218 8b3d
00000360: 3fa5 f83c 0f77 3f3d 401d 6a3d 1fbb afbd
00000370: 4f89 9c3d 64c0 a9bd bef1 7b3d 94e7 acbc
00000380: 1b51 0c3d 97b9 163d 9bd9 9b3c 1530 a83d
00000390: 2649 6c3d 39c1 92bc da6d 9f3c ae14 47bd
000003a0: ae66 98bd c27c 60bc 8b22 e0bc a141 a33d
000003b0: eaf9 7ebd 6d2a b8bc 80d8 28bd 3783 a9bd
000003c0: de63 423c ec90 aa3c 844a 3b3c 22d2 e2bc
000003d0: 4201 9d3d 20ed 8abd 76d3 91bd 7dc5 483d
000003e0: 5b98 a03d d559 ddbc 5e52 94bc 1301 dfbc
000003f0: 7f8b 5ebd 408b cebc eaf8 923d 1e55 323d
0.03442929 0.09192482 -0.075905606 -0.019044477 0.05888773 -0.061354615 -0.19591987 0.0036582092
0.092357375 -0.06854983 -0.033113945 -0.031931687 -0.018056694 0.07852055 -0.053653788 -0.016351273
0.05681671 -0.016537579 -0.048743986 -0.16082369 -0.06697743 0.08003454 -0.001667982 0.032249816
0.15691017 0.023615012 0.02543969 0.054055735 -0.0704961 0.044630207 0.08137852 -0.05939346
-0.056739457 0.07279875 0.08308357 0.043958113 0.22152723 0.036227252 0.092102095 -0.057737816
-0.009851451 -0.047139186 0.021065094 -0.042788386 -0.078396 -0.021483691 0.05121525 0.1263949
0.157732 0.113482185 0.034700412 0.010241525 -0.036932733 0.06664838 -0.02339076 0.11945286
0.09848737 0.091037944 0.07615548 -0.022127988 0.022203669 -0.010680151 0.0046214117 -0.050014906
0.07056605 0.020283675 -0.15088077 -0.016734153 -0.02302454 -0.072004564 0.014688642 0.08742392
0.07033168 0.08683826 -0.0018489383 0.08606024 -0.0798261 0.049187288 0.06897075 0.070415705
0.074796334 -0.031324275 0.062135313 -0.07742963 -0.03622013 -0.06396996 0.06962077 0.07168539
0.0012733348 -0.037376095 0.020634549 0.06687529 0.21022794 0.007860698 0.019357638 0.041329026
-0.006798238 -0.02336278 0.04969457 -0.049261905 0.08481998 -0.029672183 0.0030551995 -0.029550541
-0.07802949 -0.047787443 -0.049694933 0.0092167705 0.00818037 -0.020625217 0.07620545 -0.09005251
0.08478719 0.0048015155 0.09345229 -0.019106485 0.057337757 0.008962424 0.07993851 0.09853498
0.077029735 -0.042834256 -0.023949325 0.07359295 0.027657451 -0.0515274 0.015394335 -0.08522753
0.010547994 -0.064641 0.04025339 0.07078152 -0.08119922 -0.059781596 0.02138342 0.049506243
0.0853379 -0.052486595 0.06227201 0.06293018 0.026345287 0.058886427 -0.026237626 -0.08684437
-0.0017638714 0.017337736 -0.017112868 0.050909765 0.0480522 0.05454863 -0.06827765 0.075092055
0.06697877 -0.026850598 0.03516902 0.03662323 0.018846624 0.036974274 0.022148916 -0.021200918
-0.07964124 -0.047242664 -0.08310658 -0.046557266 -0.036323898 -0.04439699 0.034334794 0.029754106
0.07033377 -0.009191133 -0.08733515 -0.066809595 0.07277365 -0.012122659 -0.065265365 -0.00020327419
0.06203655 -0.021639742 -0.0063913465 0.0044445577 -0.028245945 -0.08901254 -0.06597393 -0.060420673
-0.059199244 0.036100905 0.07864631 0.0824627 0.028349943 -0.043208323 -0.03164592 -0.07403755
0.08203312 -0.08180032 0.025671698 -0.0682941 0.05960582 0.06657906 0.057385482 -0.07971326
0.006550254 0.00757706 -0.025014289 -0.045196924 0.026040833 0.047634847 -0.00021274039 0.08670828
-0.0124106165 0.065212704 -0.07416458 0.06268085 0.052244462 -0.07303594 0.066582195 0.0679176
0.030352233 0.046744402 0.0571568 -0.085806124 0.07643377 -0.08288649 0.06150984 -0.021106519
0.034257036 0.036798086 0.01902466 0.08212296 0.057686947 -0.017914401 0.019461561 -0.048603706
-0.074414596 -0.01370162 -0.027360221 0.07971502 -0.062250055 -0.022481168 -0.041222095 -0.0827698
0.0118646305 0.020821057 0.01143134 -0.02768809 0.076662555 -0.06783509 -0.07120411 0.049016465
0.078415595 -0.027020374 -0.018105682 -0.027222192 -0.054332253 -0.025212884 0.07176383 0.043538205

model.convs.1.bias f4 [128]
00000000: eb73 96bc ab34 69bd a209 27bd 2a7d 62bd
00000010: 476a a03d 912e 39bd 6884 6b3d 5273 a3bd
00000020: d544 9cbd 8d8d 123d 2f70 eabc 3fa0 a1bd
00000030: 5d0c b93d 3342 faba dac5 fa3c 99e3 a13d
00000040: a972 4d3d 527c bb3d 0e68 3dbd f7dd bf3d
00000050: 1f08 4abd 3afe d5bd 97c4 a2bc e84d 363b
00000060: 790a 633c 8b40 8e3b a836 1d3d df3a 00bd
00000070: 8188 2cbd 7391 77bd 3dd4 41bd 4ede a5bd
00000080: df20 723d e764 a53d 612d 543d 50e9 d43c
00000090: fd9f 973d 28d0 d3bc 9845 80bd c631 c23d
000000a0: 8f7c a7bd 80d6 213d 2c88 1e3d 0d9c 4bbc
000000b0: ac73 38bc 0bae 22ba 5c88 833d be1e 3ebd
000000c0: a7cf 47bd bd3c 7d3d df24 98bd 5920 83bd
000000d0: 4e6e 0bbc af64 db3c 5f13 b63c 83df 403d
000000e0: 92fe 7ebd d73f a43c 4274 d3bd 7139 8bbd
000000f0: c22d 82bd 674b 813d 7aee 633d 181d c3bc
00000100: bc6f 9c3d 704c e4bc 608e a0bd a864 a13d
00000110: 1a9c 9c3d c66f f73c 94a2 da3b 4205 7e3d
00000120: 302a 993d bf5a 08bd 27fa 9e3d 8a33 b6bc
00000130: e78e a63d 0705 93bc b7f0 3c3d 4c3f 253d
00000140: a276 b1bd 41d6 053d 3241 6f3d 2219 40bc
00000150: 58bc 803d 8eb4 45bd 3b88 033c 0722 a63d
00000160: 607c 07bd 8e85 84bd b741 a4bc 7d34 963d
00000170: 2771 2b3d baa8 263d 3ad1 c8bc 90d4 a43d
00000180: 006b b73d f814 6cbd 6ac3 773d c9b0 1cbd
00000190: 0408 e23a 1a67 c73d c07f 0b3d af37 aa3d
000001a0: b715 74bd 86a9 26bb f031 593d 14ba 9bbd
000001b0: c0aa 8bbd ed4b 123d f5f1 533c 3ea1 343d
000001c0: 1e27 c33d a226 e53c 93b9 eebc 775a 49bd
000001d0: 3861 94bc c71a 79bd 3d55 5c3d ace1 8e3d
000001e0: a54b a03d 1964 2e3d 7132 203c 3da0 ff3c
000001f0: 074d c03d 805f 50bc fe07 5e3d da08 943d
-0.01836582 -0.056934994 -0.04078067 -0.055295147 0.07832771 -0.045210425 0.05749932 -0.0798098
-0.07630316 0.035779525 -0.028617946 -0.07891893 0.09035561 -0.0019093215 0.030611921 0.07904739
0.050158177 0.091545716 -0.046241812 0.09368508 -0.04932415 -0.104488805 -0.019869132 0.0027817432
0.013857477 0.00434119 0.038382202 -0.031306144 -0.042122368 -0.060441446 -0.047321547 -0.08099042
0.05911338 0.08075886 0.05180109 0.025990158 0.07403562 -0.025856093 -0.06263274 0.0948215
-0.081780545 0.039511204 0.038704082 -0.012427342 -0.011258047 -0.0006205744 0.06422493 -0.046416037
-0.048782017 0.061825503 -0.074289076 -0.06402654 -0.008510185 0.026781408 0.022226034 0.047088157
-0.062254496 0.020049972 -0.10324909 -0.067980655 -0.06356384 0.0631321 0.05564735 -0.023817584
0.07638499 -0.02786848 -0.07839656 0.07880527 0.076469615 0.030204665 0.006672213 0.062016733
0.0747875 -0.033289667 0.077625565 -0.022241373 0.08132725 -0.017946733 0.046128 0.040343568
-0.086652055 0.03267503 0.058411784 -0.011724742 0.06285924 -0.048267893 0.008028085 0.08111959
-0.033077598 -0.06470786 -0.020050867 0.0733423 0.041855957 0.040688254 -0.02451383 0.080483556
0.089559555 -0.057637185 0.060489096 -0.038254533 0.001724482 0.09736462 0.03405738 0.08311402
-0.05959102 -0.0025430634 0.05302614 -0.07603851 -0.06819677 0.03571694 0.012936105 0.044099085
0.095289454 0.027972523 -0.029141223 -0.04915854 -0.018112764 -0.060816552 0.053792227 0.06976637
0.07826928 0.04257593 0.009777651 0.031204337 0.09389692 -0.0127180815 0.05420684 0.07228251

model.convs.2.weight f4 [128, 128]
00000000: 85ef fd3c 2bbb 853d f850 9e3d 40cf 8cbd
00000010: df9b 673d 7059 ffbc 2969 973c 6d21 923d
00000020: 581b 65bb 06b8 533b 252a 95bd e134 9d3d
00000030: f799 8bbd 95f7 55bd 04ad 73bd ea3a 963d
00000040: 762d 57b8 1f38 813c 4432 aa3c d37c 2d3d
00000050: c00c 63bd 98f7 7abd c868 233d 8dd0 16bd
00000060: e309 3e3b 9f41 423d 2e7a 8a3d b1ff 6e3a
00000070: 2ee3 ffbc ab66 913c e63c acbd 667d 7d3d
00000080: 9738 14bd 3f2f a13d abf2 47bb f509 8abd
00000090: 08cf 15bc 5d28 923d 06b1 e2bc c8f2 4a3d
000000a0: 9e96 ad3d 335d 81bd cec1 673d 0b1d 16bd
000000b0: 0eba 393d acc8 9e3d 9741 203d 24af 4fbd
000000c0: 6a93 b5bb 26c7 033d 9772 abbd ae4c dabc
000000d0: ea19 f7bc 369c b1bd 9fef 27bd 1c83 b5bd
000000e0: c032 923d 3703 8dbd 61f2 acbd 5c03 a73b
000000f0: 9063 e9bc 98c5 723d ffac 9d3d c74f 493d
00000100: f3dc 03bd 03d4 a13d 186b 31bd bdef f6bc
00000110: 5189 b13a 4a5f dcbc 0b25 c03b 4045 a3bc
00000120: 4a6e 87bd e976 95bb 779b 76bd 294f aa3b
00000130: c354 fabc bdb4 84bb 2439 94bc cae7 77bd
00000140: d075 5cbc f070 5ebd 1cba 92bd a4d3 bf3c
00000150: 0bfb 1fbb 07b7 9fbc b484 8c3b ad01 63bd
00000160: 7452 f23c 459a a8bc de68 b839 5331 5a3d
00000170: a564 3dbd bb59 093d 80b6 213c f2c4 9d3d
00000180: e4e0 993d e5ad 843b 7e51 b83c 9076 b7bc
00000190: 2241 1a3d 4dd2 413d 8377 bcbd 376f f83c
000001a0: b89f 54bd e7ff 78bd dce8 b73c 8004 07bd
000001b0: 732f 22bd 4199 b5bd ab00 10bd b152 aabc
000001c0: ffeb 1c3d 9ce4 a43d e084 41bd 96d6 193d
000001d0: 97d7 013d 9e49 d8bc 5e0f 423d b8a5 9b3c
000001e0: eb25 9bbd 7e3a a73d 6e20 223d cd56 113d
000001f0: a97a 79bd 9796 b43c 05df d93c e2c4 35bc
00000200: ca36 5337 c575 983d 6a92 8dbd a0fa e63c
00000210: da39 403c 26fb 273d e87d 23bc 006a 6ebc
00000220: f183 a63d 10e1 fe3c 5ca2 8dbd 585f 5bbb
00000230: 9805 bd3d ae17 abbd 3822 edbc 6148 02bc
00000240: 19b4 963d 6820 b1ba 719a e73c 3b17 8c3d
00000250: 48f6 9ebc 8960 a4bc 91ee 71bd ca42 573d
00000260: 0d7d 6cbc 206e 153d 329b 4b3c 14c5 383d
00000270: 787f 903c 941e df3c 943f fc3c 20dc d13b
00000280: 6368 e23c 38f9 d03c 344f 8abb a6f5 66bd
00000290: fd11 41bd 86e8 3c3d dd92 2e3d d95e 61bd
000002a0: 70d5 2ebd cb43 073d 932f 013d 55ea 97bd
000002b0: 710a 4d3d f21e 8b3d 8d87 32bd e145 973d
000002c0: ba16 fcbb 5ced b3bc 81b9 abbd 2ce0 85bd
000002d0: 456b a53d b2b3 81bd 8c37 79bd 1a74 45bd
000002e0: 2b37 a03d a866 5ebd 2838 f5bd e796 023d
000002f0: e322 fc3c 3c47 71bd e824 b4bd 68fb 9ebc
00000300: df18 0f3d f6b2 20bd c0ed faba 6005 34bd
00000310: 573a a1bc 853d ffbc a683 d73c 0fa0 8e3c
00000320: 42d0 d13c 1b5e 9f3d ba88 b03d 144a ca3d
00000330: bbda 673c a30e 1b3d 6c33 c13d 410e 0b3c
00000340: 9120 53bd 5dc3 88bd 550d 363d bb80 213d
00000350: a282 64bd b161 94bc 42cd 533d 15ed 99bc
00000360: 0a8d dfbc be72 81bd 471f 4b3d 7632 e13d
00000370: 2c6e 33bc d127 debc 3094 8f3d 0189 bebc
00000380: 1e0e 6bbd 6254 e5bc 4f19 263d ccda d03c
00000390: 14e5 b1bd c2ea a93c a134 c33b 1811 af3d
000003a0: 67d7 1abc b414 2b3d c48e 813d d559 d73c
000003b0: e22e 36bd a128 85bd 738f 00bd 0182 413c
000003c0: c303 d03d 9168 793d cd57 8f3d 975c 363d
000003d0: 7a3c d33c 5b8e 973d 5638 993b 2cce b13d
000003e0: 5512 363d 8d77 1f3d e017 7f3d da35 253d
000003f0: 3309 2f3d ec40 0f3d adba 6d3c 3302 963d
0.030998 0.0652984 0.07730287 -0.06875467 0.056545135 -0.031170577 0.018482761 0.07135282
-0.0034958925 0.0032305731 -0.07283429 0.076761015 -0.06816476 -0.052238066 -0.059491172 0.07335456
-5.1302333e-05 0.015773831 0.020775922 0.04235537 -0.05543208 -0.06127128 0.03989485 -0.036819983
0.0028997592 0.047425862 0.06761585 0.00091170805 -0.031236257 0.017749151 -0.08410053 0.061887167
-0.03618678 0.078703396 -0.0030509632 -0.067401804 -0.009143598 0.07136605 -0.027672302 0.04954794
0.084759936 -0.063166045 0.05658131 -0.03664879 0.04534345 0.07753119 0.03912505 -0.050704136
-0.0055412548 0.032172345 -0.08371466 -0.026647892 -0.030163724 -0.08672373 -0.041000005 -0.08862898
0.07138586 -0.06885379 -0.084446676 0.005096836 -0.028489858 0.05927047 0.07699012 0.049148347
-0.032193135 0.07901766 -0.043315023 -0.030143613 0.0013544952 -0.026900906 0.005863791 -0.019930482
-0.06612833 -0.0045612943 -0.060206857 0.005197425 -0.030557996 -0.004049866 -0.018093653 -0.060523786
-0.013455823 -0.054306924 -0.07164404 0.023416348 -0.0024411108 -0.019496454 0.0042882804 -0.05542152
0.029580332 -0.020581374 0.00035173347 0.053269695 -0.04623856 0.03353284 0.009870172 0.0770358
0.075135976 0.00404905 0.022499796 -0.022395402 0.03765977 0.0473197 -0.092024826 0.030326469
-0.051910132 -0.060790922 0.022449903 -0.032963276 -0.039596032 -0.088671215 -0.035156887 -0.020791383
0.038311 0.08051416 -0.04724586 0.03755816 0.031699743 -0.02640229 0.047377937 0.01899992
-0.07575592 0.081654534 0.03958171 0.03548317 -0.060907993 0.022044463 0.026595602 -0.011094304
1.2589337e-05 0.07444338 -0.06912692 0.02819568 0.011732543 0.041011 -0.009978749 -0.01455164
0.081306346 0.031113178 -0.06915733 -0.0033473577 0.092295825 -0.08354126 -0.02894698 -0.007951827
0.0735857 -0.0013513686 0.028271886 0.06840368 -0.019404545 -0.020065563 -0.059065405 0.05255393
-0.014434111 0.036481977 0.012427138 0.045109823 0.017638907 0.02723626 0.030792035 0.006404415
0.027637666 0.025509462 -0.0042208675 -0.056386612 -0.047136296 0.04612019 0.04262053 -0.055022094
-0.04268402 0.033023637 0.03153951 -0.07417742 0.050058786 0.06793012 -0.043586303 0.07386375
-0.007693139 -0.021963768 -0.083849914 -0.06536898 0.08077101 -0.06333102 -0.06084399 -0.048206426
0.078230225 -0.05429712 -0.119736016 0.031882193 0.030778354 -0.058905825 -0.08796102 -0.01940699
0.03493583 -0.03923317 -0.0019144341 -0.04395044 -0.019681139 -0.031157264 0.026307892 0.017410306
0.025612 0.07781621 0.086198285 0.098774105 0.0141512705 0.037855756 0.09433636 0.008487285
-0.05154473 -0.066778876 0.04444631 0.039429408 -0.055788644 -0.01811299 0.05170942 -0.018789807
-0.027288932 -0.063207135 0.049590375 0.10995953 -0.01095156 -0.027118595 0.070106864 -0.023258688
-0.05738651 -0.027994338 0.04055148 0.025494955 -0.08686271 0.020741824 0.0059572016 0.08548182
-0.00945077 0.04176779 0.063260585 0.026287952 -0.044478305 -0.0650189 -0.031386804 0.0118107805
0.101569675 0.060890738 0.069991685 0.044521894 0.025785673 0.07400199 0.004675905 0.08681902
0.044451077 0.038932372 0.06227863 0.04033456 0.042733382 0.034974024 0.014509839 0.07324638

model.convs.2.bias f4 [128]
00000000: b79e 1f3d 3278 03bd 8ebe 7abd 284b a03d
00000010: 1869 783d eaa4 0fbb 4a29 94bd b150 60b9
00000020: e898 96bd e76e 5b3c 988a 85bc 67be 56bd
00000030: 6863 4dbd a721 46bc 10d1 91bd d234 34bd
00000040: ee9b a9bd 0030 a03a 590e 7c3d 6a2e b3bd
00000050: 47cd 873d 517c 113d c021 df3a b0f4 963d
00000060: faa9 b4bd 6f87 493d 4495 863d 7cca 2c3d
00000070: 263a 4bbd 1450 adbc 108e cc3d d63d 12bc
00000080: d0ae 85bd 2d66 363d 651e 1b3d 79f9 7e3d
00000090: d0cb 41bd 0350 82bd 3b72 21bd dbbe a9bc
000000a0: 2ca0 083b 1682 0abd b8d5 3d3d 7036 ccbd
000000b0: 70f6 933d 163a 1fbd 38e7 8abd e436 d6bc
000000c0: 96f4 943d 9764 733d f4df 9dbc d077 2e3d
000000d0: 26b7 8f3d 6e00 93ba 120e 833d a020 c93c
000000e0: a5d0 47bd 0cde cd3b 04ca bd3c 0e8c 6cbc
000000f0: 75b3 a0bd 05e3 8dbd 4d94 843d ae77 783a
00000100: 2f4d 073d 8079 5fbb b87e 6f3d f5ba 733c
00000110: 4b2c afbd 234c eabc f67a 8b3d 1783 e23c
00000120: 40fb 6c3d 6c7c 003b c26a 173d f494 523c
00000130: 8ced c03d 92c1 bc3d 6005 b3bc 50a2 623d
00000140: 25cd 90bd 0af3 293d 18b4 9fbd b059 12bd
00000150: 3e1d 40bd 0568 4f3d 1e7a d13d e7bd bfbd
00000160: c0b0 053a e4b2 083d d23e a9bd 057e 053d
00000170: 43d2 003d 79aa a73c 5c7c a83c b31a 49bd
00000180: 72c8 c0bb 9c1a 85bc 6183 1d3b d038 943d
00000190: 2c57 44bd 30a4 2dbd c850 98bc 19fa 16bd
000001a0: 85b6 813d 3340 94bd 31e5 bebc 949c 97bd
000001b0: b7f2 97bd 94dd 963d b41b dfbc f126 003d
000001c0: 0a08 c73d c7a5 12bb e75c 783d 2918 f0bc
000001d0: 0d0b 173d 5bbd 2f3d 1ea2 163d 3bc4 9a3d
000001e0: 20d6 273d 2dc1 cb3d 3bf8 9d3d cd1b 7cbd
000001f0: 2eea a33d 6893 9d3d 7044 2f3c 5a0f bbbd
0.03896972 -0.03209705 -0.061216883 0.07826835 0.0606471 -0.0021918365 -0.07234438 -0.00021392365
-0.07353383 0.01339314 -0.016301438 -0.052427676 -0.05014363 -0.012092984 -0.07119954 -0.043995686
-0.08281694 0.0012221336 0.06153712 -0.08749087 0.066309504 0.035518948 0.0017023608 0.07370889
-0.08821483 0.049201425 0.06571439 0.04218529 -0.049616 -0.021156348 0.09988034 -0.008925876
-0.065274835 0.044531036 0.037870783 0.062249634 -0.04731351 -0.06362917 -0.03941558 -0.02072089
0.0020847423 -0.033815466 0.046346396 -0.09971321 0.072247386 -0.038873754 -0.06782383 -0.02614922
0.072732136 0.0594221 -0.019271828 0.04259473 0.07017355 -0.0011215338 0.06399168 0.02455169
-0.048782963 0.0062825736 0.023167618 -0.0144376885 -0.07846729 -0.06928066 0.06473599 0.0009478283
0.033032592 -0.003409952 0.058470458 0.014876117 -0.0855337 -0.028600758 0.06810562 0.0276504
0.0578568 0.0019605411 0.036967047 0.012852896 0.094203085 0.09216608 -0.021853149 0.055330575
-0.07070378 0.041491546 -0.07798022 -0.035730064 -0.046902888 0.05063631 0.1022837 -0.09362393
0.0005099885 0.03337373 -0.08263935 0.032590885 0.03145052 0.02046703 0.020567112 -0.049097728
-0.00588327 -0.01624804 0.0024034607 0.072373986 -0.047934696 -0.04239291 -0.018593207 -0.036859605
0.06333641 -0.072388075 -0.023302646 -0.07402912 -0.07419341 0.073664814 -0.02723489 0.031287137
0.0971833 -0.0022376643 0.060635474 -0.029308395 0.036875773 0.042905193 0.0367757 0.07556959
0.04097569 0.09948955 0.07713362 -0.06154995 0.080036506 0.07694131 0.010697469 -0.091337875

model.output.weight f4 [1, 128]
00000000: 27f8 623d a8f0 a1bd e335 ab3c 4f15 0dbd
00000010: f1d0 a9bc 9f0d fa3c 5523 39bc ec72 8c3d
00000020: bbc0 953d 418d 37bd 3b17 a8bd 3bb5 013c
00000030: 8f7e 5ebd 7d46 563d fc75 3f3d 5772 193c
00000040: 743b f33c e8de 0a3d 0e62 6d3d b66c 78bd
00000050: 1d1e 323d c31c a0bd a0ff cd3c ec44 2a3c
00000060: d3ce e13c 4180 753d 3f82 53bd d9f7 91bd
00000070: a70c 8d3d db62 41bd 0cfd d4bd 0b7a a43d
00000080: c065 f2bc 6022 d2bd c21a 72bd 3e7f abbd
00000090: cbe8 40bd c657 e93c 836e c23c e7b9 4fbc
000000a0: dce9 04bd 0a24 e9bc 7564 853b 7279 823d
000000b0: 480f 5cbd 2ef9 3c3d 50f5 f53c b22d 86bd
000000c0: 0b06 25bd 6f19 aebd 032d 953d 9475 c7bc
000000d0: 684c 0d3d d749 01bd ffd3 c3bd 4b70 7abd
000000e0: 0539 a83d 45b5 5e3d ab8e 2c3d f2dd 4abd
000000f0: 87c0 ad3d e983 d3bd 9d05 823b d1d6 d2bd
00000100: 6ddc 15bd e9d9 813d ce46 913d a98e 6abd
00000110: 6b17 9f3d a655 1c3d 7a9d 63bb a8c0 203c
00000120: ede7 94bd edee 7d3c 3bdc 5b3d da8c 6b3d
00000130: 04e5 d1bd 40c4 aabd 1301 7cbd dfbe 90bd
00000140: 7030 d8bd a2ca 523c 9af8 313d f0cb 41bc
00000150: 40e9 2c3c 811b 703c 785b debc 1af1 ba3d
00000160: 7f2a 533d fdd4 22bd 5556 183d 0cfa 953d
00000170: b1f2 58bd d155 923b a30e 663d fb34 28bd
00000180: f1c7 8e3d bd7a 03bd 3c43 84bd 881c 02bd
00000190: dade 28bd bedf 5a3d 0865 7c3c 31b4 9a3c
000001a0: 8a2f c3bd 8f45 923d c3c7 263b aa13 093d
000001b0: bb6f e83c 1f67 0e3d 0cf4 273d b73e 653c
000001c0: 5fde 48bd a49b 0d3d c3d3 71bd 1c99 673d
000001d0: c42b 06bd 4027 1a3d cb21 743d cf34 7f3d
000001e0: 2c64 bfbd b727 7cbd f123 6bbd cb52 90bd
000001f0: e860 bbbd 1f91 2b3d c2a0 cebd 705b b43d
0.055412438 -0.0790723 0.020899719 -0.03444415 -0.020729514 0.030524073 -0.011299928 0.06857857
0.07312151 -0.044812445 -0.08207556 0.007916744 -0.054319914 0.052313317 0.046743378 0.00936564
0.029691435 0.033903986 0.05795484 -0.06065055 0.04348575 -0.07817986 0.025146306 0.010392409
0.027564442 0.059936766 -0.051637884 -0.07127351 0.06887179 -0.047213417 -0.10399827 0.0803109
-0.029589534 -0.10260463 -0.05910755 -0.08373879 -0.04709701 0.028484236 0.023734337 -0.0126786
-0.03244959 -0.028459568 0.0040708133 0.0637082 -0.05372551 0.046136074 0.0300242 -0.065516844
-0.040288966 -0.08500945 0.07283976 -0.024348058 0.034496695 -0.03156456 -0.095619194 -0.061142247
0.082140006 0.05437209 0.042128246 -0.04952807 0.08483987 -0.10327894 0.0039679543 -0.10294879
-0.036587168 0.06340391 0.07093583 -0.057264958 0.077681385 0.03816762 -0.0034731315 0.009811558
-0.07270799 0.015498859 0.053676825 0.057507373 -0.102487594 -0.08338213 -0.061524462 -0.07067656
-0.10556114 0.012865694 0.043449976 -0.011828408 0.010553658 0.014654995 -0.027143225 0.09128018
0.0515542 -0.039753903 0.037191708 0.07323083 -0.052965824 0.0044657965 0.056166302 -0.04106615
0.069717295 -0.032099474 -0.064581364 -0.03176549 -0.041228153 0.053436033 0.015404947 0.01888475
-0.09530552 0.071421735 0.0025448657 0.03346602 0.02837359 0.034766313 0.041004226 0.013992003
-0.049040195 0.03457226 -0.059039842 0.0565425 -0.032756582 0.037635088 0.05960254 0.06230622
-0.09345278 -0.061561313 -0.057407323 -0.070470415 -0.09149343 0.041886445 -0.10089256 0.08806503

exp_avg f4 [128, 53]
00000000: 3501 0bbc 0a69 263c d0fd c13b 74e7 243b
00000010: 40b1 1839 ca21 c7ba d5e8 1abb 4c6c a7bb
00000020: 3e86 16ba 1efd f1ba cded 0c3b 76e5 18bb
00000030: e83d 433b ba7d bc3b a07e 7eba b0ef e33b
00000040: 0036 1339 1358 0b3b 4577 0dbc c8f6 3ebb
00000050: 9da8 92bb d679 333a 451d 98bb 4e7b 0dbc
00000060: a6fb 653b da0e 9bbb ef19 46bb 5c06 ceba
00000070: bbd6 063c 2ff7 babb 80f5 a439 29b4 0c3c
00000080: ece3 2c3c 18d6 083c 4668 b43a e8e7 493a
00000090: d65b 5abb aaa4 4dbc 8caf 53bc e96a 7e3c
000000a0: 4684 c23b dc13 98bb 5d77 043c d554 1a3c
000000b0: fa0e a43a 4001 7bbb bafd cc3b 0893 3f3c
000000c0: 12e6 a8ba 5847 91bb aa15 5abb 4e63 1a3b
000000d0: 9253 923a cdc9 92bb 361b 913b a9cc 013b
000000e0: a800 b8b9 9a48 a0ba 5309 db39 bf99 1abb
000000f0: b883 d1ba 3cb4 98ba cb8d fdba 14a5 043a
00000100: c412 1aba 4016 95b7 7896 d639 5496 4dbb
00000110: 7396 303b c0e4 953a cfbf 683b 7772 8fbb
00000120: a4e5 67ba 1ba9 9cba f4a0 71b9 e8c8 f2ba
00000130: 5c2f 00bb 82ad 833a 626a f6ba 5e5c fdba
00000140: 0e6b 1abb 1641 a33b 272a 01bb 8d5f a8b9
00000150: ae86 a13b 8059 033b d410 873b 687f 7aba
00000160: 4641 003b e436 1aba f254 c5bb 98cf d5bb
00000170: f7a6 ed3b 58c8 063b a14a 08bb 448e fc3a
00000180: a9f7 243b fb72 be3a 0445 3cbb e720 9c3b
00000190: 5302 ad3b 6495 edb9 d0c1 59bb 9afd acba
000001a0: 023e 9e3a 4853 7f39 feef 09bb 52ab 453b
000001b0: 9b17 e23a 8c96 dcb9 eca4 39ba 2862 b438
000001c0: 763b 02bb 88d5 cdba 0951 51ba 3d1d c3ba
000001d0: 6489 8639 8be2 ceba 10c8 c43a 501d 25ba
000001e0: c922 c5ba fb49 993a 9bbf bc3a bfec 8b3a
000001f0: 3087 0fbb 4c70 bcba c787 293a d2ec 613a
00000200: 389e 6fba 08c6 8eba 9cc1 823a 0006 2fb9
00000210: 9c91 743a 04f9 ecba 0a9b 743b 8a1d 6fba
00000220: 9cf3 25ba 4404 0a3b 48ef e63a 69f0 223b
00000230: 34b4 a1b9 63fa 1f3a 8046 23b9 8eac 7cbb
00000240: 46ec 8ebb a6d3 873b 44dd 943a 11c6 f8ba
00000250: 627f b53a 93c7 6d3b 3229 083a 6942 18bb
00000260: d835 6d39 4aed 6f3b 280a b9b8 ee13 29bb
00000270: 0f29 0abb af59 e439 4016 673a 56e2 a73b
00000280: f192 8bbb 4830 dfba 06ce 8eba b540 2dba
00000290: 48a8 1039 6486 f439 9683 b03a 9498 5639
000002a0: a8f2 8438 4097 feb8 ec90 3a3a 5072 d2ba
000002b0: 3246 6cbb 382b 6f39 f042 5bbb f0da 0ab9
000002c0: c4b1 01ba 80df 873b 482d e539 6229 5b3b
000002d0: e19d 72ba 0e61 153b 92d3 cb3b b8dd 52bb
000002e0: cb26 8f3b 0aef d63a c430 93ba 78e8 38bb
000002f0: ae4c 6d3b 5420 16ba fb3d 37bb 00e7 d2bb
00000300: ee14 72bb 400a 36b9 b4b1 0eb9 b86e b63a
00000310: 9aab e63b 8e9a a73b 75a1 08bc bb98 62bb
00000320: fbce 093b 0a50 b0bb 5b12 bcbb 00ec 8ab8
00000330: ba97 8d3a 2bfe 60bb 24d4 b9bb 45c0 ad3a
00000340: 98fa 9f3a f8a7 923a 9e33 27ba 00a3 3eb6
00000350: b6a1 d139 081a e2b9 4e85 60b9 50f2 4238
00000360: 2171 0239 207e f239 3270 18b9 00a9 bf38
00000370: da3f 26b7 8894 63b9 6e42 8639 da0f c139
00000380: 000a edb8 fa90 26ba a667 81ba 4c34 c7b9
00000390: 7eb3 a939 4181 c539 fb31 2d3a 78a4 8039
000003a0: d813 08b9 562c 2239 d4af 413a df2f 873a
000003b0: ac27 4dba ce26 7e39 d033 c539 0c53 e638
000003c0: c0de f0b9 948e a339 205e ad36 2cc6 3bb9
000003d0: 3943 02ba 7e0e 2eb9 7843 b9b9 fe41 dd39
000003e0: 56bf 0a3a ee67 1f3a 2ce8 743a 7cfb 44ba
000003f0: dfd3 06ba ef42 de39 d8ee bdb9 3cf4 4cba
-0.0084841745 0.010156879 0.0059201494 0.002516237 0.0001456188 -0.0015192565 -0.0023637314 -0.0051093455
-0.00057420495 -0.0018462276 0.0021504045 -0.0023330129 0.0029791538 0.0057522925 -0.00097081997 0.006956063
0.00014039129 0.0021262213 -0.008634393 -0.0029138792 -0.0044756667 0.0006846463 -0.004642161 -0.008635355
0.003509262 -0.004731995 -0.003022786 -0.0015718448 0.008229907 -0.005705736 0.0003146343 0.008587875
0.010552388 0.008351825 0.0013763986 0.0007702098 -0.0033318899 -0.012551466 -0.012920272 0.015528419
0.0059361784 -0.0046410393 0.008085099 0.00941964 0.001251667 -0.0038300306 0.0062558325 0.01169277
-0.0012885949 -0.0044335537 -0.0033277073 0.0023557725 0.0011163822 -0.004479623 0.0044282926 0.0019805825
-0.00035095704 -0.0012228668 0.00041777882 -0.0023590175 -0.001598469 -0.0011650394 -0.0019344626 0.0005059999
-0.000587743 -1.7772545e-05 0.0004092937 -0.003137012 0.0026945143 0.0011435971 0.0035514717 -0.004377659
-0.000884617 -0.0011952253 -0.00023043511 -0.001852301 -0.0019559478 0.0010046216 -0.0018800015 -0.0019329896
-0.0023562345 0.004982124 -0.0019708963 -0.00032114648 0.004929385 0.002004236 0.004121879 -0.0009555728
0.0019570156 -0.0005882813 -0.006022089 -0.0065249912 0.00725257 0.0020566192 -0.0020796435 0.0019268473
0.002517203 0.0014530116 -0.002872766 0.0047646645 0.005279818 -0.00045315467 -0.0033227094 -0.0013198138
0.0012072923 0.0002434972 -0.0021047588 0.003016193 0.0017249467 -0.00042073836 -0.0007081765 8.601352e-05
-0.0019871867 -0.0015703896 -0.00079847925 -0.0014886033 0.00025660836 -0.0015784068 0.0015013237 -0.00062986184
-0.0015040274 0.0011695022 0.0014400365 0.0010675414 -0.0021900646 -0.0014376729 0.0006467071 0.0008618358
-0.0009140703 -0.0010892758 0.0009975913 -0.00016691536 0.0009329559 -0.0018079584 0.0037323856 -0.0009121528
-0.0006330551 0.0021059671 0.0017618919 0.0024862534 -0.00030842575 0.0006102679 -0.00015571155 -0.0038555
-0.004361662 0.0041451035 0.0011357446 -0.0018979927 0.0013847167 0.0036282286 0.0005194127 -0.0023232943
0.0002262214 0.003660994 -8.823379e-05 -0.0025799233 -0.0021081602 0.00043554368 0.0008815266 0.005123417
-0.00425946 -0.0017027939 -0.001089514 -0.00066090684 0.000137956 0.00046639435 0.001346695 0.0002046547
6.339449e-05 -0.00012139836 0.0007116932 -0.0016055796 -0.0036052582 0.00022808916 -0.0033456646 -0.00013242266
-0.00049474486 0.0041465163 0.0004371202 0.0033441414 -0.0009255093 0.0022793445 0.0062202895 -0.0032175612
0.004368638 0.0016398143 -0.0011229743 -0.0028214734 0.0036209035 -0.0005726863 -0.0027960527 -0.0064362288
-0.0036938745 -0.00017360691 -0.00013608375 0.0013918495 0.0070394995 0.00511486 -0.008339276 -0.0034575898
0.002102791 -0.005380635 -0.005739493 -6.624311e-05 0.0010802664 -0.0034331183 -0.005671041 0.0013256153
0.001220542 0.0011188975 -0.0006378236 -2.8407085e-06 0.0003998407 -0.00043125474 -0.00021411965 4.6478875e-05
0.0001243991 0.00046251807 -0.00014537646 9.1390684e-05 -9.909238e-06 -0.00021703739 0.00025607966 0.0003682364
-0.00011302903 -0.00063540007 -0.0009872809 -0.00037995202 0.00032367924 0.0003767107 0.0006606874 0.000245366
-0.00012977363 0.0001546604 0.0007388566 0.0010313949 -0.0007826041 0.00024237784 0.0003761337 0.00010982723
-0.0004594233 0.00031196012 5.1667594e-06 -0.00017907534 -0.00049691234 -0.00016599332 -0.00035336218 0.00042201573
0.00052927935 0.00060808554 0.00093424576 -0.0007514281 -0.00051432656 0.0004239301 -0.00036226842 -0.0007818376
