experiments/workflow/lightning_logs/version_2/checkpoints/epoch=99-step=4200.ckpt (torch, 692906 bytes, 27 tensors)

model.embedding.weight f4 [128, 53]
0	0xbdc45365	-0.09586219
1	0x3c34d621	0.01103738
2	0x3cdfc272	0.027314398
3	0x3e076bc3	0.13224702
4	0xbdfbccc6	-0.12294917
5	0x3da8d279	0.082432695
6	0x3d0e9ebd	0.034819353
7	0x3c156b7c	0.009119865
8	0x3bd9dbc6	0.0066485135
9	0x3e2c7194	0.16840202
10	0x3d40b493	0.04704721
11	0xbe0384e1	-0.12843658
12	0x3be64d60	0.007028267
13	0xbd159a72	-0.036524244
14	0xbdbee0ef	-0.093202464
15	0x3d950131	0.07275618
16	0x3d438cfb	0.04774187
17	0xbde40ed7	-0.11135643
18	0x3a0608f7	0.000511303
19	0x3d053559	0.03252158
20	0x3d8bf554	0.06833902
21	0x3d1aae7f	0.03776407
22	0xbe018ab2	-0.12650564
23	0xbda4dec2	-0.080503
24	0x3dc75ac7	0.09734111
25	0x3de35103	0.11099436
26	0xbdfef3d1	-0.12448848
27	0xbcd4a793	-0.025958812
28	0x3ddc91cc	0.10769996
29	0x3deb7e7f	0.114987366
30	0x3d43fbf4	0.047847703
31	0x3df45de5	0.119319715
32	0xbdf6d3fb	-0.12052151
33	0x3cd1b8e7	0.025600864
34	0xbdb75d5a	-0.08953352
35	0x3d38183d	0.04494499
36	0xbde819c4	-0.113330394
37	0x3df39ef9	0.11895556
38	0xbd76e01f	-0.060272332
39	0xbde4fa99	-0.1118061
40	0x3d91bebe	0.07116459
41	0x3c425b2c	0.011862557
42	0xbd6858b4	-0.05672522
43	0xbd1c9283	-0.038225662
44	0x3e055c89	0.1302358
45	0xbbfd255b	-0.0077254004
46	0xbde97860	-0.11399913
47	0x3df5148c	0.1196681
48	0xbce7b9cb	-0.028286835
49	0x3ddf6819	0.10908527
50	0xbd7db43e	-0.06193947
51	0xbe2e2975	-0.17008002
52	0xbdae2694	-0.08503452
53	0xbbc81170	-0.0061055943
54	0x3b030667	0.001999283
55	0xbda27657	-0.07932728
56	0xbd87c74a	-0.06629808
57	0xbddd8734	-0.108168036
58	0x3cb4325f	0.021996675
59	0x3d67209f	0.056427594
60	0x3e07beb9	0.13256349
61	0x3db4dc19	0.08831043
62	0xbd070df1	-0.03297228
63	0x3d4a0acb	0.0493267
64	0x3e1510b7	0.14557157
65	0x3dd331d6	0.1031224
66	0x3df0b7e5	0.11753825
67	0x3d56810f	0.052369174
68	0xbe026525	-0.12733896
69	0xbe038401	-0.12843324
70	0x3de457a1	0.111495264
71	0x3db3d636	0.08781092
72	0xbd938491	-0.072030194
73	0xbb9f2914	-0.004857192
74	0x3dfc6c11	0.123252995
75	0xbd835e78	-0.06414503
76	0x3d808006	0.062744185
77	0xbd01c708	-0.03168395
78	0x3d13ad06	0.03605368
79	0xbe019f9d	-0.12658544
80	0xbda10bc4	-0.07863572
81	0xbc241238	-0.010014109
82	0xbb2cd54a	-0.0026372247
83	0xbcdd8ccf	-0.027044682
84	0x3c3ca42a	0.011513749
85	0x3ddfbaca	0.10924299
86	0xbb771693	-0.0037702664
87	0xbe062a12	-0.13101986
88	0xbdec04c3	-0.11524346
89	0xbd1c49d9	-0.038156364
90	0xbde9f8fc	-0.11424443
91	0xbe12ad33	-0.14323883
92	0xbd1dca2d	-0.038522888
93	0xbde5a47f	-0.11213016
94	0xbe05d0ca	-0.13067928
95	0xbd059a2d	-0.032617737
96	0xbd102b55	-0.035197575
97	0xbd9810f8	-0.074251115
98	0xbd10adb6	-0.035321914
99	0xbe273189	-0.1632749
100	0xbdbbc237	-0.09167903
101	0xbd9d94cd	-0.07694397
102	0xbc86c43d	-0.016450996
103	0x3d029fc7	0.031890657
104	0xbcc6668d	-0.024218822
105	0x3c225aab	0.009909312
106	0xbddbaa8f	-0.10725891
107	0xbd82a760	-0.063795805
108	0x3d74faa8	0.059809357
109	0xbdd663ad	-0.104682304
110	0x3d7316c1	0.05934787
111	0x3d5d21c8	0.053987294
112	0xbd939755	-0.07206599
113	0xbe11332a	-0.14179674
114	0xbdf9dae6	-0.12199955
115	0x3d0b8d2f	0.03407019
116	0xbd5420c3	-0.051789057
117	0x3dcdbe46	0.100460574
118	0xbdf4f470	-0.11960685
119	0xbd4894ec	-0.048970148
120	0x3ddf0403	0.10889437
121	0x3d9de725	0.07710103
122	0x3cf30e3c	0.029669873
123	0xbdbdd656	-0.09269397
124	0xbdea313a	-0.114351705
125	0xbc1bdb1c	-0.009512689
126	0x3d73a036	0.05947896
127	0x3cde3795	0.027126113
128	0x3d83569e	0.06413005
129	0x3d9d2af3	0.076742075
130	0x3d21b8da	0.03948293
131	0x3deb46f8	0.114881456
132	0xbc3df7a4	-0.011594687
133	0x3dbcb12e	0.09213482
134	0x3c53bb9c	0.0129231475
135	0xbc03aeff	-0.008037328
136	0x3bdb483a	0.0066919597
137	0xbdc38671	-0.09547127
138	0xbe0be2e2	-0.13660768
139	0x3df07ce9	0.11742575
140	0xbd85d04c	-0.0653387
141	0x3d16613a	0.036713816
142	0xbe0cbd6c	-0.13744134
143	0xbd1d4e81	-0.038404945
144	0x3e055af5	0.13022979
145	0xbd6cb64a	-0.057791032
146	0x3dc3c5b5	0.09559194
147	0xbdcbb5b2	-0.09946765
148	0xbb7ac332	-0.0038263318
149	0x3d9c15a4	0.07621315
150	0x3d34baa3	0.044123303
151	0x3d604b37	0.05475923
152	0x3d72e936	0.05930444
153	0xbd735f32	-0.059416957
154	0x3da4ace9	0.080407925
155	0x3de11143	0.109896205
156	0xbde06789	-0.10957248
157	0x3dc13392	0.094336644
158	0x3cb6d92a	0.022320349
159	0xba4f1d43	-0.00079007837
160	0xbdd30e47	-0.103054576
161	0xbd28b26c	-0.04118578
162	0xbd283aba	-0.04107163
163	0xbe1d8c4d	-0.15385552
164	0x3d8bc218	0.0682413
165	0xbcabdfdc	-0.020980768
166	0x3c825f1f	0.015914498
167	0xbd526d5f	-0.051373836
168	0xbe0b4137	-0.13599096
169	0xbd6b4e59	-0.057447765
170	0x3c1e016f	0.0096438965
171	0xbe11e89f	-0.14248894
172	0x3d2dc08b	0.04241995
173	0x3dcd48ea	0.10023673
174	0xbc947856	-0.018123787
175	0x3d8b44fb	0.06800266
176	0x3dd0544d	0.10172329
177	0x3e14d2ac	0.1453349
178	0xbc415da6	-0.011802113
179	0x3e06103f	0.13092135
180	0xbd372812	-0.04471595
181	0x3bf6ecc4	0.007535549
182	0xbda02b65	-0.07820777
183	0x3d69e182	0.057099827
184	0xbe01ed2d	-0.12688132
185	0x3b490d32	0.003067803
186	0x3da70b04	0.08156398
187	0xbd5a98d9	-0.053368423
188	0x3d2201fb	0.03955267
189	0x3e0e4ff6	0.1389769
190	0x3e10d494	0.14143592
191	0xbe03fcd0	-0.12889409
192	0x3dd29e04	0.10284045
193	0xbd930b83	-0.0717993
194	0xbdb0c32a	-0.086309746
195	0xbde658ba	-0.11247392
196	0x3dedcdf4	0.11611548
197	0xbda90af8	-0.08254045
198	0x3bd5bf33	0.006523037
199	0xba9e146c	-0.001206053
200	0xbd268b4c	-0.040660188
201	0xbe11410e	-0.14184973
202	0xbe0e2249	-0.13880266
203	0x3e04dd67	0.12975083
204	0xbdbef144	-0.093233615
205	0x3dffb412	0.124855176
206	0x3db43b4b	0.08800372
207	0x3d84dbe9	0.06487257
208	0x3e00c45a	0.12574902
209	0x3cdb7325	0.026788304
210	0x3e1e7f7a	0.15478316
211	0xbe087eb7	-0.13329588
212	0xbd8ca24a	-0.06866892
213	0x3b71e5f4	0.0036910744
214	0xbd8715b8	-0.065959394
215	0xbcf91d8f	-0.030409602
216	0x3e022ce6	0.1271244
217	0x3c8076e5	0.015681693
218	0xbddcd51b	-0.10782834
219	0xbce9b1b7	-0.028527124
220	0xbc374245	-0.0111852335
221	0xbb23cb3e	-0.0024992968
222	0x3d309a8a	0.04311613
223	0xbde8a3d1	-0.113593705
224	0xbc5896e0	-0.013219565
225	0x3df08701	0.117445
226	0xba07ccc3	-0.0005180353
227	0x3d859365	0.06522254
228	0x3d4b03e4	0.049564257
229	0x3a3f2632	0.00072917633
230	0x3da3f059	0.08004827
231	0x3d37b1d1	0.044847313
232	0xbd3df1ff	-0.046373364
233	0xbd179e0b	-0.037015956
234	0xbcfd5fc2	-0.03092945
235	0xbde14dc3	-0.1100116
236	0xbd83c303	-0.0643368
237	0xbdddfebf	-0.108396046
238	0xbe139e74	-0.14415914
239	0x3d52a8b0	0.051430404
240	0xbdb80c79	-0.08986754
241	0x3dfbea4b	0.12300547
242	0xbd634344	-0.05548407
243	0xbcfd9c9d	-0.030958468
244	0x3cf915e6	0.03040595
245	0xba60211c	-0.00085498556
246	0x3d96c2a3	0.07361343
247	0x3cdbd7cd	0.0268363
248	0xbd3b7425	-0.04576506
249	0x3d950657	0.072766
250	0x3dcee593	0.101023816
251	0x3dd23f91	0.102660306
252	0xbcb69c0c	-0.022291206
253	0xbe1f3667	-0.15548097
254	0x3b28fca3	0.002578535
255	0xbd4e25b6	-0.050328933

model.embedding.bias f4 [128]
0	0xbd62d04f	-0.05537444
1	0xbe0e6856	-0.13906989
2	0xbdddf809	-0.108383246
3	0x3d7cebfc	0.06174849
4	0xbe047161	-0.12933876
5	0x3d38e748	0.045142442
6	0x3dc4acea	0.09603293
7	0x3d47efcb	0.04881267
8	0xbe0fb7df	-0.14034985
9	0xbdfdf22a	-0.12399705
10	0x3d3a1a58	0.04543528
11	0x3cf59196	0.029976647
12	0xbdaaaa6d	-0.083332874
13	0xbd384006	-0.044982933
14	0x3e12799a	0.143042
15	0x3c7b69e8	0.015345074
16	0x3d2ba34e	0.041903786
17	0x3ce8cf40	0.028419137
18	0x3c34c401	0.011033059
19	0x3e2409e2	0.16019395
20	0xbca624c2	-0.0202812
21	0x3d79b056	0.060959183
22	0xbca6e437	-0.020372493
23	0x3d57b9dc	0.052667484
24	0xbd9ebc0d	-0.077507116
25	0xbd3ec727	-0.046576645
26	0x3db8d2c8	0.09024578
27	0xbd040a1a	-0.032236196
28	0x3cdf7825	0.027278969
29	0xbe179dfd	-0.14806361
30	0xbd27bc02	-0.040950783
31	0xbd6b18f0	-0.05739683
32	0xbe0099e6	-0.12558708
33	0xbe19b075	-0.1500872
34	0xbd334c85	-0.043774147
35	0xbbee07a4	-0.0072640944
36	0xbd3fb22a	-0.04680077
37	0xbde8bb25	-0.1136382
38	0xbe1b1ced	-0.15147753
39	0x3e204996	0.15653071
40	0x3bb38894	0.005478928
41	0xbca3f156	-0.020012539
42	0x3dc55c79	0.096367784
43	0x3dbff188	0.0937224
44	0xbcd41a31	-0.025891395
45	0xbd23807b	-0.03991745
46	0xbe14439e	-0.14478919
47	0xbdbec7ec	-0.09315476
48	0x3da4bae8	0.08043462
49	0x3b8dac14	0.004323492
50	0xbdc530c1	-0.0962844
51	0x3e04c26a	0.12964788
52	0xbe250ed0	-0.16118932
53	0xbdfa0850	-0.12208617
54	0x3cd0bc5d	0.025480444
55	0xbe0b9804	-0.13632208
56	0xbe1cb12d	-0.15301962
57	0xbbc89d49	-0.0061222655
58	0x3e086766	0.13320693
59	0x3dfd1021	0.12356592
60	0x3ca14747	0.019687308
61	0x3ca0cc82	0.019628767
62	0x3cacec9b	0.021108916
63	0xbdaa5648	-0.08317238
64	0x3e0501fb	0.12989037
65	0x3d68eaba	0.056864478
66	0xbdc5c710	-0.09657109
67	0xbd2ea632	-0.042638965
68	0xbdfe8f4f	-0.12429678
69	0x3d36b7ac	0.044608757
70	0xbbd52e18	-0.006505739
71	0x3d9f56f9	0.077802606
72	0x3e0b007f	0.13574408
73	0x3cc06f2d	0.023490513
74	0xbdaebe40	-0.08532381
75	0xbcde38bb	-0.02712666
76	0xbdeca0e1	-0.11554123
77	0xbe0f62cb	-0.1400253
78	0xbd30abd3	-0.043132614
79	0xbd4690b4	-0.048477843
80	0xbdf436cd	-0.11924515
81	0xbe09b9c9	-0.13449778
82	0x3de90a3f	0.113789074
83	0xbe2665b3	-0.16249733
84	0x3e098667	0.13430177
85	0xbe1463d7	-0.14491211
86	0xbdc09d72	-0.0940503
87	0xbdecb720	-0.11558366
88	0x3d7c99ab	0.061669987
89	0x3db81189	0.089877196
90	0xbb2142ed	-0.0024606541
91	0x3e13d708	0.14437497
92	0x3e05a70d	0.13052006
93	0x3d942221	0.07233072
94	0xbe1ff953	-0.15622453
95	0x3d5932cd	0.053026963
96	0xbe131dd0	-0.14366841
97	0x3d61fd94	0.05517347
98	0x3e18f8a9	0.14938606
99	0x3d1812e9	0.03712741
100	0xbe130654	-0.14357883
101	0xbbd1bcd7	-0.0064006853
102	0xbdedd09d	-0.116120555
103	0xbd827eff	-0.06371879
104	0xbd9f253c	-0.07770774
105	0x3e050418	0.12989843
106	0xbd5b1f54	-0.053496674
107	0x3d5a3b56	0.053279243
108	0xbd03e58f	-0.032201346
109	0x3d5e859e	0.054326646
110	0x3b078adb	0.002068213
111	0x3b1d36c3	0.002398894
112	0xbdc282c1	-0.094975956
113	0x3c33d0fd	0.01097512
114	0x3b904dc9	0.004403804
115	0x3d8f61f4	0.07001105
116	0xbc3784ec	-0.011201125
117	0xbd98b123	-0.07455661
118	0xbde2891f	-0.1106131
119	0xbb226699	-0.0024780391
120	0xbd3e1561	-0.046407107
121	0x3bc6c4f3	0.0060659586
122	0xbd9a9c70	-0.07549369
123	0x3df34ac0	0.11879492
124	0xbd12103a	-0.035660006
125	0x3de28df8	0.11062235
126	0xbcd333c0	-0.025781512
127	0xbe168bc0	-0.14701748

model.convs.0.weight f4 [128, 128]
0	0xbd677b2f	-0.05651396
1	0xbd983e77	-0.07433789
2	0xbcd470d2	-0.025932703
3	0xbd880fc4	-0.06643632
4	0xbcd1efd7	-0.02562706
5	0xbc6f2315	-0.014595767
6	0x3c51b879	0.012800329
7	0xbc386eba	-0.011256868
8	0xbda46fe9	-0.08029158
9	0xbdc760f2	-0.09735288
10	0xbce9a265	-0.028519819
11	0xbcdb63cd	-0.026780987
12	0xbdb95b9d	-0.09050677
13	0x3c7bfefd	0.015380618
14	0x3cf36c93	0.029714858
15	0x3d73b7af	0.059501346
16	0x3d9377e3	0.07200601
17	0xbd5bc6c2	-0.053656347
18	0x3bbb970d	0.0057247938
19	0x3d7f813a	0.0623791
20	0x3c4630a7	0.012096561
21	0x3d4a0b9c	0.049327478
22	0x3cd2e720	0.025744975
23	0x3d16f8c0	0.03685832
24	0x3d875b0f	0.06609165
25	0x3b101e8b	0.0021990861
26	0x3d946ec9	0.07247693
27	0x3d6b781b	0.05748759
28	0xbd014f4a	-0.031569757
29	0xbb24785c	-0.0025096154
30	0xbd67e861	-0.0566181
31	0xbdb231f5	-0.08700935
32	0xbd94a845	-0.07258657
33	0xbd5db3b4	-0.054126456
34	0x3d3d7500	0.046254158
35	0xbd9b1362	-0.07572056
36	0x3d8445cd	0.06458626
37	0xbd907208	-0.07053
38	0xbd3e2d1a	-0.04642973
39	0x3d143bdc	0.0361899
40	0xbd83292e	-0.06404339
41	0x3daa0b4b	0.08302935
42	0xbcc51c57	-0.024061365
43	0x3d5db01f	0.05412304
44	0x3d5750bc	0.05256723
45	0xbda979ec	-0.08275208
46	0xbabd1098	-0.0014424501
47	0x3d5bdce2	0.053677447
48	0xbc59cd84	-0.013293628
49	0xbd8441c6	-0.06457858
50	0xbca7747a	-0.020441283
51	0x3d892fc6	0.06698565
52	0xbda89886	-0.082322165
53	0x3cdcbf6f	0.026946751
54	0x3d0dc78e	0.03461414
55	0xbd37a0e4	-0.04483117
56	0xbc8a76db	-0.016902378
57	0xbd898f3d	-0.06716774
58	0x3bc8e4e7	0.006130803
59	0x3db26e94	0.08712497
60	0xbdbc04d4	-0.091806084
61	0xbd13da3f	-0.036096808
62	0xbcdf6544	-0.027269967
63	0xbbc16d77	-0.005902942
64	0xbd1a25bd	-0.037633646
65	0x3cc263c4	0.023729213
66	0x3d2a492f	0.0415737
67	0xbdb71c6d	-0.08940969
68	0xbdc5cc63	-0.09658124
69	0xbd828992	-0.06373896
70	0x3da92cab	0.08260473
71	0xbd6c55f7	-0.05769917
72	0xbd500d80	-0.050794125
73	0xbcb72082	-0.022354368
74	0xbd6051ed	-0.05476563
75	0xbd830916	-0.063982174
76	0xbca14fd3	-0.019691383
77	0xbd370ebb	-0.044691782
78	0xbd8dcfce	-0.06924401
79	0xbc8a2adc	-0.01686614
80	0x3d4491ed	0.04799073
81	0xbd047f3a	-0.032347895
82	0xbd97120b	-0.07376488
83	0x3d73ee11	0.05955321
84	0xbd2b455a	-0.041814186
85	0x3d65ec08	0.0561333
86	0xbc9fd89f	-0.019512473
87	0xbdb708e2	-0.08937241
88	0xbd8432ab	-0.06454977
89	0x3d7368f7	0.059426274
90	0xbba17ecd	-0.004928446
91	0xbd2471bd	-0.04014753
92	0x3dbb0cdb	0.09133311
93	0x3df88a09	0.12135703
94	0xbd6e84f8	-0.058232278
95	0x3d032e36	0.032026492
96	0xbdcfee21	-0.10152841
97	0x3ccb8bcc	0.024846934
98	0x3d8149d2	0.06312908
99	0x3cf5c43c	0.030000798
100	0xbd8ffd9f	-0.07030796
101	0x3cab6949	0.020924227
102	0xbd00b252	-0.03142006
103	0xbdb5d0af	-0.08877694
104	0xbc70167e	-0.0146538
105	0xbcf1019d	-0.029419715
106	0xbda5e0ed	-0.08099542
107	0xbc9c38c4	-0.019070037
108	0x3d526233	0.05136318
109	0x3d94034f	0.072271936
110	0x3ca0c552	0.01962534
111	0x3c9e8899	0.019352244
112	0x3c28e67d	0.010308859
113	0xbd8091c8	-0.062778056
114	0x3d3e08a6	0.046394967
115	0x3da4deea	0.0805033
116	0x3da59496	0.08084981
117	0xbdb42f49	-0.087980814
118	0x3cacce1c	0.021094374
119	0x3dcbab3b	0.09944769
120	0xbd8ce225	-0.06879071
121	0x3d93042f	0.07178532
122	0x3d6fe4cd	0.05856781
123	0xbbc56e03	-0.0060250773
124	0xbd471518	-0.0486041
125	0x3dd47d39	0.10375447
126	0x3ca606ca	0.02026691
127	0x3bce322d	0.0062926025
128	0xbdb463db	-0.088081084
129	0x3c875327	0.016519142
130	0xbd1149d6	-0.035470806
131	0x3b718e57	0.0036858523
132	0xbce10f17	-0.027473016
133	0x3d1dc90b	0.038521808
134	0x3ca91cdd	0.020643646
135	0x3b904711	0.004403003
136	0xbdb13198	-0.086520374
137	0x3d84cd34	0.06484452
138	0xbc76f7f7	-0.015073768
139	0x3b422a12	0.0029627127
140	0x3d80dc01	0.062919624
141	0xbd41b116	-0.047288023
142	0xbab09612	-0.0013472459
143	0x3db3523a	0.08755918
144	0xbcbdb38d	-0.023156906
145	0x3d925965	0.07145957
146	0x3d9c32af	0.07626855
147	0x3d17d579	0.037068818
148	0x3b96279e	0.0045823595
149	0x3dd2abe0	0.10286689
150	0xbdb7c676	-0.089734
151	0xbc96e049	-0.018417494
152	0x3d999c4d	0.07500515
153	0xbcf81f81	-0.03028846
154	0x3d713f80	0.05889845
155	0xbc2d99b9	-0.010595732
156	0x3d22a700	0.039710045
157	0xbd0f9b42	-0.035060175
158	0xbd5b1cdc	-0.05349432
159	0xbcf12e79	-0.029441105
160	0xbcb83642	-0.02248681
161	0x3d499ca0	0.049221635
162	0xbd99782e	-0.074936256
163	0x3d0d0e0b	0.03443722
164	0x3c960590	0.0183132
165	0xbc6f4f0d	-0.0146062495
166	0xb89f2a7f	-7.589626e-05
167	0x3cf824e9	0.030291038
168	0x3d875cfa	0.06609531
169	0x3d2c4c11	0.04206473
170	0xbd8d3ba3	-0.068961404
171	0x3d0d2f65	0.034469027
172	0x3d32dbd5	0.04366668
173	0x3d2fae39	0.04289076
174	0xbdb6aa71	-0.08919228
175	0xbb7d22cc	-0.0038625477
176	0x3da541be	0.0806918
177	0xbdcb5910	-0.09929097
178	0x3c29075e	0.010316698
179	0x3cf98b83	0.030462032
180	0xbd8e5a45	-0.06950811
181	0xbdcfe48e	-0.10151015
182	0x3d11a173	0.03555436
183	0x3c12f9cb	0.008970688
184	0x3cd7bfa9	0.026336508
185	0x3d8491f7	0.06473153
186	0x3bb6e1a1	0.0055810963
187	0xbd8fcfab	-0.070220314
188	0xbd0f006b	-0.034912508
189	0xbdc07747	-0.0939775
190	0xbdcb9912	-0.09941305
191	0x3c8506fb	0.01623868
192	0x3d976e59	0.07394094
193	0xbb75240a	-0.0037405514
194	0x3d0c2ac8	0.034220487
195	0xbd3cfac8	-0.0461376
196	0xbd3ffa40	-0.046869516
197	0xbdbbffee	-0.09179674
198	0x3d8cb251	0.06869949
199	0x3d87627b	0.066105805
200	0x3d9d576e	0.076826915
201	0xbd6c5f18	-0.057707876
202	0x3d2a8bbe	0.041637175
203	0xbcf51d3b	-0.029921165
204	0xbcee2362	-0.029069606
205	0xbd80a417	-0.06281298
206	0xbd3cf91c	-0.046136007
207	0xbdadd005	-0.08486942
208	0x3d8418cf	0.06450044
209	0xbce87b7a	-0.02837919
210	0x3d459034	0.048233226
211	0x3d26ee00	0.04075432
212	0xbd8120d5	-0.0630509
213	0x3c04af9b	0.008098508
214	0x3d69023f	0.056886908
215	0xbd93d67b	-0.07218643
216	0x3d65f0d4	0.056137875
217	0xbcaac228	-0.020844534
218	0x3d5845db	0.052800994
219	0x3d6bbaab	0.057551067
220	0xbce22f3b	-0.027610412
221	0xbcd15ae7	-0.02555604
222	0x3d3fb6ea	0.0468053
223	0xbd5c2de2	-0.053754695
224	0x3d9b3614	0.07578674
225	0xbd69694d	-0.05698519
226	0xbd803dbe	-0.062617764
227	0xbc861432	-0.016367052
228	0xbb6bceda	-0.0035981447
229	0x3d27af45	0.040938634
230	0xbd49e957	-0.049294796
231	0xbd352e6b	-0.04423372
232	0xbdb69c00	-0.089164734
233	0x3d8cbe79	0.06872267
234	0xbd0220a0	-0.031769395
235	0x3d062d8f	0.03275829
236	0x3d629813	0.05532081
237	0xbd9f5b6d	-0.0778111
238	0xbd9c310d	-0.07626543
239	0xbcc0438a	-0.023469705
240	0x3b0a7525	0.0021126952
241	0xbd0be81e	-0.03415691
242	0x3c91e7d5	0.017810741
243	0x3d155793	0.03646047
244	0xbd167bc8	-0.03673914
245	0xbd8e6847	-0.06953483
246	0x3d83fade	0.064443335
247	0x3d8bf263	0.06833341
248	0x3c161731	0.009160803
249	0xbcccc783	-0.024997478
250	0x3d829fea	0.063781574
251	0xbd88b83f	-0.06675767
252	0xbd53b4bc	-0.051686034
253	0x3c27eec4	0.010249797
254	0x3d9f583b	0.077805005
255	0xbc02784d	-0.007963252

model.convs.0.bias f4 [128]
0	0x3db98e1a	0.09060307
1	0xbcefba4c	-0.029263638
2	0x3d1a242d	0.037632156
3	0xbd17092a	-0.036873974
4	0x3c5feda6	0.0136675
5	0x3d12036f	0.035647806
6	0x3dc3b5c2	0.09556152
7	0xbc3f6d5e	-0.01168379
8	0x3d3b09e9	0.045663748
9	0x3d154f10	0.036452353
10	0x3dd5821f	0.10425209
11	0x3da4268f	0.08015167
12	0x3a835bea	0.0010021899
13	0xbd47851a	-0.04871092
14	0xbca79a84	-0.020459421
15	0x3d234710	0.039862692
16	0xbd031dc4	-0.03201081
17	0x3b36d394	0.0027897106
18	0x3b3a1f89	0.0028400144
19	0x3d4100e9	0.04712001
20	0x3d5d0ee6	0.053969286
21	0x3d148ca1	0.036266927
22	0x3d96ec8a	0.07369335
23	0xbd774e7c	-0.060377583
24	0xbdc4898d	-0.09596548
25	0x3d92b78b	0.07163914
26	0x3da9d76a	0.0829304
27	0xbcd526e5	-0.026019523
28	0xbdda37a0	-0.10655141
29	0x3dbd663f	0.092480175
30	0x3d3b8855	0.045784313
31	0x3c847942	0.016171101
32	0x3c8ac460	0.016939342
33	0xbd386dcf	-0.045026597
34	0x3d5dc326	0.054141186
35	0x3b865b1f	0.004100218
36	0x3d88095d	0.06642411
37	0x3dcd1059	0.10012884
38	0x3d7adf3c	0.06124805
39	0x3b35fb00	0.0027768016
40	0x3d3e5950	0.046471894
41	0x3dad6d6a	0.08468135
42	0x3dc48faa	0.09597714
43	0xbd46b913	-0.048516344
44	0x3c8f09fb	0.017460814
45	0x3d2c969c	0.04213582
46	0xbd60c889	-0.054878745
47	0x3d3f4aa8	0.046702057
48	0xbd433d16	-0.047665678
49	0xbd9b7223	-0.07590129
50	0x3dcb5946	0.09929137
51	0xbd4ef8e5	-0.050530333
52	0xbb8f0a8b	-0.0043652705
53	0x3dc3e6a8	0.095654786
54	0x3d9c16bc	0.07621524
55	0x3daddca7	0.08489352
56	0xbd1b7cb4	-0.037960723
57	0xbdad8ace	-0.084737405
58	0x3d28d1da	0.041215755
59	0x3d8a55f9	0.06754679
60	0x3d2d33a7	0.042285588
61	0xbd832a9d	-0.06404612
62	0xbcee7bf4	-0.02911184
63	0xbc1ac08a	-0.009445319
64	0x3dc2ec3d	0.09517715
65	0x3d16a964	0.036782637
66	0xbdb452de	-0.08804868
67	0x3c7e4dab	0.015521447
68	0xbd0d0b7c	-0.03443478
69	0xbd032ca4	-0.032024994
70	0x3cca14ef	0.024668185
71	0x3db2603d	0.08709762
72	0xbcbc296f	-0.022968976
73	0xbdbbe416	-0.09174363
74	0xbd484a72	-0.04889912
75	0xbd48d23a	-0.049028613
76	0x3d4fb434	0.050708964
77	0xbdae9f8d	-0.08526526
78	0x3d3f0b20	0.04664147
79	0x3caa653f	0.020800231
80	0xb925f24f	-0.00015825893
81	0x3c392d22	0.011302264
82	0x3da51bff	0.080619805
83	0x3d2d1d6b	0.042264383
84	0xbd5ff678	-0.05467841
85	0x3db36fca	0.087615564
86	0x3d40cd5d	0.04707085
87	0xbd0769c3	-0.033059847
88	0xbd0ba99f	-0.03409731
89	0x3db12b55	0.08650843
90	0x3cf7b76a	0.030238826
91	0x3d137aa3	0.036005627
92	0xbd78eab5	-0.06077071
93	0xbd699be6	-0.057033442
94	0x3dbd2b3d	0.09236763
95	0xbc55ce3a	-0.0130496565
96	0x3b9ea056	0.004840891
97	0xbd46cb99	-0.04853401
98	0x3d85f193	0.06540217
99	0x3a6e6c9a	0.00090951624
100	0xbd6f7ffd	-0.05847167
101	0x3ceae429	0.028673248
102	0xbcfdc263	-0.03097648
103	0x3d92f2b3	0.071751975
104	0x3d881db3	0.0664629
105	0x3d3845a5	0.044988293
106	0xbd33f7ae	-0.043937378
107	0x3d9ad512	0.07560171
108	0xbd8531be	-0.06503628
109	0x3ce0d6b5	0.02744613
110	0xbd320c1c	-0.04346858
111	0x3dd79f7b	0.10528465
112	0x3ca7770c	0.020442508
113	0xbd5a98e5	-0.053368468
114	0xbcf0a4cb	-0.029375454
115	0x3c98772b	0.018611511
116	0x3db5d0f5	0.08877746
117	0xbda1ecf5	-0.07906524
118	0x3d6de13a	0.05807612
119	0xbc845462	-0.016153518
120	0x3d8df192	0.069308415
121	0x3d8e94a9	0.069619484
122	0x3d041583	0.032247078
123	0xbcd60a75	-0.026128033
124	0x3d582b48	0.05277565
125	0x3cbfb9f7	0.023404105
126	0x3c9c6d77	0.019095166
127	0xbc914eb4	-0.017737724

model.convs.1.weight f4 [128, 128]
0	0xbd43b324	-0.047778264
1	0xbd3eedbc	-0.04661344
2	0xbdaf9e46	-0.0857511
3	0xbd804a4b	-0.0626417
4	0x3d4bf291	0.049791876
5	0xbc603453	-0.01368435
6	0x3c8aba02	0.016934399
7	0x3c3a5864	0.011373613
8	0xbd838283	-0.064213775
9	0x3dc17471	0.094460376
10	0x3ab8a928	0.0014088498
11	0xbd121d17	-0.035672273
12	0xbd91c081	-0.07116795
13	0xbd48f7a7	-0.049064305
14	0x3db7030e	0.089361295
15	0x3d5fce2c	0.05463998
16	0x3d8b0efc	0.067899674
17	0xbd372b6b	-0.04471914
18	0xbd39f9e9	-0.04540435
19	0x3d19ad8e	0.03751903
20	0x3cfda490	0.030962259
21	0xbade96cf	-0.00169822
22	0xbd35fee1	-0.044432525
23	0xbd92fcad	-0.071771
24	0xbd4ec0e4	-0.050476924
25	0x3d6be2cc	0.057589337
26	0xbd0801ba	-0.03320477
27	0xbd8ec277	-0.06970685
28	0xbcf94e04	-0.030432709
29	0xbc134ee2	-0.008990975
30	0xbd92d46d	-0.07169423
31	0xbd9381ff	-0.07202529
32	0xbbf4f139	-0.007475045
33	0xbdc50c71	-0.09621514
34	0x3d0f1319	0.034930322
35	0xbc315916	-0.010824462
36	0x3d808585	0.06275467
37	0x3d9b4625	0.075817384
38	0x3cfccdb5	0.030859808
39	0x3d90048c	0.07032117
40	0xbc9be194	-0.019028462
41	0x3c6744c4	0.014115516
42	0xbd54dc56	-0.05196794
43	0x3d5f2023	0.054474007
44	0x3d4ed901	0.05049992
45	0x3cad49ac	0.021153294
46	0xbd21e64c	-0.03952627
47	0xbcf76a04	-0.03020192
48	0xbc74b7e3	-0.01493642
49	0xbc78475d	-0.015153733
50	0xbbc4ff74	-0.0060118977
51	0x3ca8e776	0.020618182
52	0x3d85378c	0.06504735
53	0x3cc3ed48	0.023916855
54	0x3d354ee0	0.044264674
55	0xbd91bfa9	-0.071166344
56	0xbe066d4c	-0.13127631
57	0x3cbacfa4	0.022804089
58	0x3da48517	0.080331974
59	0x3d743c58	0.05962786
60	0xbb917508	-0.004439
61	0x3cda9b05	0.026685247
62	0x3d82e96d	0.06392179
63	0x3d067752	0.032828636
64	0xbd720caa	-0.05909411
65	0x3d1ddb19	0.038539026
66	0x3d2d7c29	0.042354736
67	0x3d220d0f	0.039563235
68	0x3d97dc93	0.07415118
69	0x3d989285	0.074498214
70	0x3ca9bd5d	0.020720178
71	0x3cac8826	0.021061014
72	0xbd698f6e	-0.05702155
73	0x3c7c5783	0.015401724
74	0x3d0ece30	0.034864604
75	0xbe00b0e5	-0.1256748
76	0x3d2e1d85	0.04250862
77	0x3d779c62	0.060451873
78	0xbce3d215	-0.027810136
79	0xbcfb0cef	-0.030645816
80	0x3c90391e	0.01760536
81	0xbd0229ef	-0.031778272
82	0xbdac2f76	-0.0840749
83	0x3d6840e8	0.056702524
84	0xbd206ee3	-0.03916825
85	0xbd924584	-0.07142165
86	0x3d1da0d4	0.038483456
87	0x3dd1b9ff	0.10240554
88	0xbcab306c	-0.020897113
89	0xbdac0f83	-0.08401396
90	0xbd32a72c	-0.04361646
91	0xbcf40db2	-0.029791687
92	0x3c36f71e	0.011167316
93	0x3d8f8265	0.07007293
94	0xbcdf5b49	-0.027265208
95	0xbc487ae4	-0.012236331
96	0x3cae16f6	0.021251183
97	0xbd421777	-0.04738566
98	0x3d53d505	0.051716823
99	0x3d51a7f9	0.05118558
100	0x3da53a30	0.08067739
101	0x3c5a9ddf	0.013343303
102	0xbca2928a	-0.019845266
103	0xbd7e01fa	-0.062013604
104	0x3cf798e0	0.030224264
105	0x3c42d433	0.011891413
106	0xbd60f0a2	-0.054916985
107	0x3c4b83f9	0.012421601
108	0xbd9fa0bc	-0.077943295
109	0x3d9b0b92	0.07570566
110	0x3d48f156	0.04905828
111	0x3d00b81f	0.03142559
112	0x3c5fca3b	0.013659055
113	0x3ccc4033	0.024932956
114	0x3c65aed1	0.01401873
115	0x3d93e428	0.07221252
116	0x3da5b26b	0.08090671
117	0xbd3d46d8	-0.04621014
118	0xbb3ab3a2	-0.0028488417
119	0x3ccbbe43	0.024870997
120	0xbd07e469	-0.033176813
121	0xbd7e4db4	-0.062085822
122	0x3d52e527	0.051488068
123	0x3ceb47e9	0.028720813
124	0x3d756803	0.059913646
125	0x3ccf361b	0.025294354
126	0xbcf2062f	-0.029543964
127	0xbdbc37d3	-0.09190335
128	0x3ca83c50	0.020536572
129	0xbd2229de	-0.03959071
130	0x3d4e927d	0.05043267
131	0xbc325133	-0.010883617
132	0x3ddb7d0b	0.107172094
133	0x3d9efdcf	0.07763254
134	0x3d07943e	0.03310036
135	0xbd228d06	-0.03968527
136	0xbdbdc17c	-0.0926542
137	0xbc9e0f21	-0.019294323
138	0x3d05e7c4	0.032691732
139	0xbd0371bf	-0.0320909
140	0x3cf560ce	0.029953387
141	0xbbd1cba6	-0.0064024506
142	0x3d17e817	0.037086572
143	0xbc7d9758	-0.015477978
144	0xbcd24adb	-0.02567046
145	0xbd5aeb2f	-0.053446945
146	0xbc0e2c72	-0.008677589
147	0x3e0e9fdc	0.13928169
148	0x3c579b2b	0.0131595535
149	0xbd8e1917	-0.06938379
150	0x3d662fe3	0.056198012
151	0x3d979426	0.07401304
152	0x3ddba14d	0.10724125
153	0x3e039611	0.12850215
154	0x3a2cf93e	0.0006598419
155	0x3b66a205	0.0035191786
156	0xbd289a63	-0.04116286
157	0xbcc4f7e0	-0.024043977
158	0x3c1b6418	0.009484313
159	0x3d3ab2df	0.04558074
160	0x3cef51dd	0.02921384
161	0x3d89b66c	0.06724247
162	0x3d921ac6	0.07134013
163	0xbd6a9cd0	-0.057278454
164	0xbd5b7f07	-0.05358794
165	0x3bac6675	0.0052612373
166	0x3ccca4de	0.024980959
167	0x3e2f5e31	0.17125775
168	0x3cc4145b	0.023935487
169	0x3d27f764	0.041007414
170	0xbccb36e9	-0.024806457
171	0x3d9ba58c	0.07599935
172	0xbcb5cf6e	-0.022193637
173	0x3d0ad875	0.033897836
174	0x3d8d528c	0.0690051
175	0x3c97e2c9	0.018540757
176	0x3d626cf4	0.055279687
177	0x3c4d6274	0.01253568
178	0xbd3f8590	-0.046758235
179	0x3dbde254	0.09271684
180	0x3c17f71b	0.009275223
181	0xbbfcf305	-0.0077194
182	0x3d6808a4	0.056648865
183	0x3da0e19d	0.07855532
184	0xbd1b0cdb	-0.037854057
185	0x3bf07603	0.007338287
186	0xbc080c25	-0.008303677
187	0x3cb50929	0.022099094
188	0xbd603fbc	-0.05474828
189	0xbcbcf1d4	-0.023064531
190	0x3da627d7	0.081130676
191	0x3c3c2eb2	0.011485742
192	0x3c244920	0.0100272
193	0x3db1f97c	0.086901635
194	0xbe163e48	-0.14672196
195	0x3dcd7f22	0.10034014
196	0x3d240978	0.040048093
197	0x3d27bf77	0.04095408
198	0xbc666de2	-0.014064284
199	0xbd0d10e1	-0.034439925
200	0xbe12a75a	-0.14321652
201	0xbd9d5313	-0.07681861
202	0xbd7caeb8	-0.061690062
203	0x3e634b55	0.22196706
204	0xbe2a4fd0	-0.16632009
205	0x3d9469d3	0.07246747
206	0x3d6d6849	0.057960782
207	0x3db38225	0.087650575
208	0x3dd261ca	0.10272558
209	0x3c9af57f	0.01891589
210	0x3da12f98	0.07870406
211	0x3bfd38b9	0.007727709
212	0x3b227017	0.002478605
213	0xbca4dc31	-0.020124527
214	0x3e042a81	0.12906839
215	0xbb193058	-0.0023374762
216	0xba779b0f	-0.0009445408
217	0x3d4c5a1f	0.049890634
218	0x3c9e74ce	0.019342806
219	0xbcd31284	-0.025765665
220	0xbe092f48	-0.13396943
221	0xbcfc4313	-0.030793702
222	0xbabc0970	-0.0014346074
223	0x3da50057	0.080567054
224	0x3d0408ec	0.03223507
225	0x3d27a298	0.040926546
226	0x3d76f409	0.060291324
227	0xbb58925c	-0.0033046221
228	0xbcfc6c8b	-0.030813476
229	0x3d9352e7	0.07193547
230	0x3bf8a676	0.007588203
231	0x3dd51230	0.104038596
232	0x3dabd2c9	0.083898135
233	0x3e043ee6	0.12914619
234	0xbd7f2fa6	-0.0623013
235	0x3d3774c7	0.044789102
236	0x3da50979	0.080584474
237	0x3deb9304	0.115026504
238	0x3dc2b272	0.09506692
239	0xbd528cbf	-0.051403757
240	0xbc9dc279	-0.01925777
241	0x3dab1185	0.08352951
242	0x3decdad1	0.115651734
243	0x3d8dae1b	0.069179736
244	0x3d6d4996	0.057931505
245	0x3da3443a	0.079719976
246	0x3d6eef8a	0.05833391
247	0x3da1ab48	0.078939974
248	0x3d67195c	0.05642067
249	0x3dd3aff0	0.10336292
250	0x3d70eee3	0.05882157
251	0xbd31814d	-0.0433362
252	0xbdcf1250	-0.10110915
253	0xbd5370b4	-0.051621154
254	0x3d461308	0.048357993
255	0x3d83b4fd	0.06431005

model.convs.1.bias f4 [128]
0	0x3d061e39	0.032743666
1	0xbcb8f1f5	-0.022576312
2	0xbd0d5633	-0.034506034
3	0x3d5dfc5f	0.054195758
4	0xbc149556	-0.009068808
5	0x3d967594	0.07346645
6	0x3dc5b322	0.096533075
7	0xbd78b3ee	-0.06071847
8	0xbd293d24	-0.041318074
9	0x3dd2d9fb	0.10295483
10	0x3dc8df24	0.09808186
11	0x3ab40376	0.0013733942
12	0x3d06620f	0.03280836
13	0x3d780ad8	0.060557216
14	0xbcc00512	-0.023439918
15	0x3d016276	0.03158804
16	0x3c594ea4	0.013263378
17	0x3dc2ff41	0.09521342
18	0xbaa94838	-0.00129152
19	0x3cffb922	0.031216208
20	0xbcc6d108	-0.024269596
21	0xbbe92e61	-0.0071161245
22	0xbcff9a37	-0.031201465
23	0x3da3c85c	0.079972
24	0x3c8a0091	0.016845973
25	0xbd546d5b	-0.051862102
26	0x3c3a360c	0.011365425
27	0xbd48e483	-0.04904605
28	0x3dbb930b	0.091589056
29	0x3d8055fa	0.06266399
30	0x3bcb711c	0.006208552
31	0x3c8be4a3	0.017076796
32	0xbb5635cc	-0.0032685874
33	0xbd50f35e	-0.051013343
34	0x3d89c46d	0.06726918
35	0xbcee480a	-0.029087085
36	0x3d320dd6	0.043470226
37	0x3ac57eec	0.0015067733
38	0xbd2fa1ca	-0.042878903
39	0xbcf56416	-0.029954951
40	0x3c69696e	0.014246328
41	0xbb708eed	-0.0036706284
42	0xbcc5d75c	-0.024150543
43	0x3d5a4226	0.05328574
44	0xbd94523e	-0.07242249
45	0x3cf0e716	0.029407065
46	0xbd81643e	-0.06317948
47	0xbca6d1d5	-0.020363728
48	0xbc5cc021	-0.0134735415
49	0xbc9c7f8b	-0.019103786
50	0x3cf0f67b	0.029414406
51	0xbd8fee5b	-0.070278846
52	0x3b04265d	0.0020164468
53	0x3d2abb5e	0.041682594
54	0x3cda2089	0.026626842
55	0xbc2c2ea8	-0.010509171
56	0x3bea2f70	0.0071467683
57	0xbd4eb735	-0.05046769
58	0xbd81a01b	-0.06329366
59	0x3dbdb226	0.09262495
60	0x3ce7c04c	0.028289936
61	0x3d7aeaf4	0.061259225
62	0x3b215120	0.0024615005
63	0x3d60a8ac	0.054848358
64	0xbd645279	-0.055742715
65	0xbd09b641	-0.033621076
66	0xbd794189	-0.060853515
67	0x3ce0bff3	0.027435279
68	0xbd267cac	-0.04064624
69	0x3b93bf76	0.004508908
70	0x3d5f30a3	0.054489743
71	0xbd895ca1	-0.06707121
72	0x3d56f76b	0.05248205
73	0x3cb7b6d7	0.022426052
74	0xbc2b2804	-0.010446552
75	0x3d874b35	0.066061415
76	0xbd9ac310	-0.075567365
77	0x3d559a6b	0.052149218
78	0x3d81f51e	0.063455805
79	0x3ce2419b	0.027619174
80	0xbc9c23f6	-0.019060116
81	0xbcaa20cd	-0.020767594
82	0xbd3eee15	-0.04661377
83	0x3d6ae173	0.05734391
84	0x3d85d73e	0.06535195
85	0xbd7beb88	-0.061503917
86	0x3db3bc9c	0.08776209
87	0x3d8b7cd9	0.06810922
88	0xbdb14826	-0.08656339
89	0xbd491064	-0.049087897
90	0x3d9085a3	0.07056739
91	0xbb86ad6b	-0.0041100285
92	0x3dcfd6cc	0.10148391
93	0xbb807c6a	-0.0039210813
94	0xbd582ad1	-0.052775208
95	0x3d930468	0.07178575
96	0x3a8c90bf	0.001072429
97	0xbd3f97b2	-0.046775527
98	0x3d28445d	0.04108082
99	0x3d6db911	0.05803782
100	0xbc62b7f2	-0.013837801
101	0xbd736826	-0.059425496
102	0x3be7e63f	0.007077008
103	0xbb04b92a	-0.0020251968
104	0x3c8990af	0.016792623
105	0xbd97b0dd	-0.07406781
106	0x3d892e30	0.06698263
107	0xbdba11d4	-0.09085432
108	0xbd7273d5	-0.059192497
109	0x3cdbcdee	0.026831593
110	0xbd4524e0	-0.04813087
111	0xbd5c3e4b	-0.053770345
112	0x3c929406	0.017892849
113	0x3d499d83	0.04922248
114	0x3d85381e	0.06504844
115	0x3ccd5533	0.02506504
116	0x3d57c3fc	0.05267714
117	0x3cadea2c	0.021229826
118	0x3dcc6ae6	0.09981327
119	0x3dd7ff4d	0.10546742
120	0xbccdf368	-0.02514048
121	0xbd3b2485	-0.045689125
122	0xbd39312e	-0.045212917
123	0x3d5f8c57	0.054577198
124	0x3d182881	0.037148003
125	0x3cb6f22b	0.022332272
126	0x3d8d8bb5	0.069114126
127	0x3a7dc332	0.00096802705

model.convs.2.weight f4 [128, 128]
0	0x3d9eb000	0.07748413
1	0xbdb06372	-0.08612718
2	0x3c2ac80a	0.01042367
3	0x3ce3dfab	0.027816614
4	0x3c2b9c78	0.010474317
5	0xbd06b535	-0.032887656
6	0xbd0cd78d	-0.034385253
7	0xbba317f9	-0.004977223
8	0xbc2097a5	-0.00980178
9	0x3cebd332	0.02878723
10	0xb7c48149	-2.3425224e-05
11	0xbd2663ae	-0.040622406
12	0x3d0fc10e	0.03509622
13	0x3d72b73b	0.059256773
14	0xbd9d2ed3	-0.07674947
15	0xbc13ad7d	-0.009013531
16	0x3d87fbcd	0.06639824
17	0xbd616456	-0.05502733
18	0xbd87b9ab	-0.0662721
19	0xbd872896	-0.06599538
20	0x3c9c6457	0.019090815
21	0x3d6a9a37	0.057275977
22	0xbca67002	-0.020317081
23	0xbb9bf8ba	-0.004759875
24	0xbd2b58cd	-0.041832734
25	0xbd33401b	-0.043762308
26	0x3d413157	0.047166195
27	0x3d15b12e	0.036545925
28	0xbc626280	-0.01381743
29	0x3d70b3ed	0.05876534
30	0xbdbe31dd	-0.092868544
31	0x3cd404d3	0.025881207
32	0xbc0fb5f7	-0.008771411
33	0x3c48b908	0.012251146
34	0xbd9ca6d7	-0.0764901
35	0xba0df705	-0.0005415532
36	0x3ca4e1fd	0.02012729
37	0x3afa30df	0.0019088051
38	0x3d0be1e2	0.034150966
39	0xbd1237fa	-0.035697915
40	0xbcd1904f	-0.025581507
41	0xbd927f85	-0.07153229
42	0x3d7ba3e5	0.0614356
43	0x3d213a28	0.039362103
44	0xbd5f73e6	-0.05455389
45	0x3d5e4c8a	0.054272212
46	0x3da2001a	0.079101756
47	0x3dd5eec4	0.104459316
48	0x3d17e6ac	0.03708522
49	0xbc599fba	-0.013282711
50	0xbb6ae7c3	-0.0035843707
51	0xbd7313a6	-0.05934491
52	0xbd189257	-0.037248936
53	0x3ce7fbb4	0.028318264
54	0xbc11e0f5	-0.008903732
55	0x3dad47ca	0.08460958
56	0x3d87b887	0.06626993
57	0x3ab1d64c	0.0013567894
58	0x3caf077e	0.021365877
59	0x3d05f88f	0.032707747
60	0x3d935442	0.07193805
61	0x3d71cdbd	0.059034098
62	0x3de922cc	0.1138359
63	0xbbf4d028	-0.007471103
64	0xbd22c70d	-0.03974061
65	0xbda3713b	-0.079805814
66	0x3c9823f8	0.018571839
67	0xbd86846d	-0.06568227
68	0xbc3ff5d3	-0.011716324
69	0x3d0a3fa8	0.033752114
70	0xbd8f0af0	-0.06984508
71	0xbe213cef	-0.157459
72	0xbe1a4c55	-0.15068181
73	0xbd5233a8	-0.051318794
74	0x3bda8aa8	0.006669361
75	0x3d39a7f1	0.045326177
76	0xbe21a05b	-0.15783827
77	0x3d7f2983	0.062295448
78	0xbd1ebbc0	-0.03875327
79	0x3d826de2	0.06368615
80	0xbcb9cacc	-0.022679709
81	0x3d62cbe2	0.05537022
82	0x3d7efce1	0.062252883
83	0x3da104d5	0.0786225
84	0xbdb6cbfc	-0.08925626
85	0xbd26ab30	-0.0406906
86	0x3d0cf7c5	0.03441598
87	0x3da4ce4c	0.080471605
88	0x3d8d2411	0.06891645
89	0x3d984169	0.07434351
90	0x3c4fe9fe	0.012690065
91	0x3d248110	0.040162146
92	0x3cc8ec53	0.02452675
93	0x3d1dc582	0.038518436
94	0x3d8ac4b6	0.06775801
95	0x3d212396	0.039340578
96	0xbd830b76	-0.063986704
97	0x3d0c8bcc	0.03431301
98	0x3da386c3	0.07984688
99	0xbdafc610	-0.08582699
100	0x3c8711d8	0.016488
101	0xbd621291	-0.055193488
102	0x3d7697d5	0.060203392
103	0x3cef5542	0.029215459
104	0x3b3657b7	0.0027823278
105	0xbc4e68a2	-0.012598189
106	0x3d73a108	0.059479743
107	0x3da10bed	0.07863603
108	0x3d583046	0.052780412
109	0xbd871dd1	-0.06597484
110	0xbd9c91af	-0.076449744
111	0x3d9f45eb	0.07777008
112	0x3d97daff	0.07414817
113	0x3d07d575	0.033162553
114	0xbd715db2	-0.058927245
115	0x3d65f68a	0.05614332
116	0xbd2b0bab	-0.041759174
117	0xbda156c3	-0.078778766
118	0x3d0870c9	0.033310685
119	0xbca22bd8	-0.019796297
120	0x3d59051e	0.052983396
121	0xbe3e4be7	-0.18583642
122	0x3d47e73c	0.048804507
123	0x3cdee2d9	0.027207779
124	0xbd48c9b4	-0.049020484
125	0x3d029088	0.031876117
126	0xbd394079	-0.0452275
127	0x3d823bd8	0.063590705
128	0x3da31e0c	0.07964715
129	0xbae624d7	-0.0017558587
130	0xbd4311b0	-0.04762429
131	0x3d600de1	0.054700736
132	0xbc87f417	-0.016595883
133	0xbcc995ea	-0.024607617
134	0x3d79bcc1	0.060971025
135	0xbd34d620	-0.044149518
136	0xbd2519c3	-0.04030777
137	0x3d26e975	0.040749986
138	0x3cd2aa77	0.02571605
139	0x3ba186d9	0.004929405
140	0xbc9d23ba	-0.019182075
141	0xbd006e76	-0.031355344
142	0xbbd2af80	-0.0064296126
143	0x3c28b782	0.010297658
144	0xbd61b80f	-0.055107173
145	0x3dd90e31	0.1059841
146	0xbb6c038f	-0.0036012863
147	0x3dd067a9	0.101760216
148	0xbd7b1d05	-0.061306972
149	0xbd2a7e6c	-0.04162447
150	0x3d7c5ea8	0.06161371
151	0x3cb48b89	0.022039192
152	0x3e0ce5d4	0.13759547
153	0xbd84395d	-0.06456254
154	0x3da1464c	0.07874736
155	0xbdafe320	-0.085882425
156	0x3db370d2	0.08761753
157	0x3d5c0683	0.053717148
158	0x3cebbc2e	0.028776255
159	0xbd815a64	-0.06316069
160	0x3da379ce	0.07982217
161	0xbd5527fd	-0.05204009
162	0xbd50b6dc	-0.05095564
163	0x3d7a5440	0.061115503
164	0x3d3e3d96	0.04644545
165	0xbd73ec0e	-0.05955129
166	0x3d75f286	0.06004574
167	0xbc5c88a7	-0.013460315
168	0x3d9fb8ec	0.07798943
169	0x3d97c1e9	0.07410032
170	0xbd996656	-0.07490222
171	0xbd0c094c	-0.034188554
172	0x3da157af	0.078780524
173	0xbd5a362b	-0.053274315
174	0x3d535c89	0.05160192
175	0xbd3595b7	-0.044332232
176	0x3dd721de	0.105045065
177	0xbcb19428	-0.021677092
178	0x3c40397c	0.011732455
179	0xbda8292d	-0.08210979
180	0x3d134601	0.035955433
181	0xbdabffd8	-0.08398408
182	0xbce14e1d	-0.027503068
183	0x3cf767a4	0.030200787
184	0xbd2a550e	-0.04158502
185	0xbd1bacd7	-0.03800663
186	0xbd4776ef	-0.04869741
187	0x3dd151c5	0.102206744
188	0xbd3638cb	-0.044487756
189	0x3dbe3de2	0.09289147
190	0xbd430df6	-0.047620736
191	0x3dae64fb	0.08515354
192	0xbd5f491e	-0.05451309
193	0xbd889531	-0.06669081
194	0x3c233318	0.009960912
195	0x3c1ff261	0.0097623775
196	0x3d5cbc3f	0.053890463
197	0x3d4ef310	0.05052477
198	0xbd1f21d0	-0.038850605
199	0x3e309371	0.17243744
200	0x3d8100f0	0.06299007
201	0x3da7bee1	0.08190704
202	0xbb94b7a9	-0.0045384956
203	0x3d9216ea	0.07133277
204	0x3d9e9192	0.07742609
205	0xbd380620	-0.044927716
206	0xbd6a9b23	-0.057276856
207	0x3d0e90ef	0.03480619
208	0x3d9a206c	0.07525715
209	0xbc675ebb	-0.014121707
210	0x3c5febd7	0.013667068
211	0xbd43073f	-0.047614332
212	0xbd0163fb	-0.03158949
213	0x3d0fa004	0.035064712
214	0x3da97343	0.082739376
215	0xbd7c4755	-0.061591465
216	0x3d976f43	0.07394268
217	0xbd28b6cd	-0.041189957
218	0xbd39086d	-0.04517405
219	0xba014203	-0.0004930796
220	0x3d13ca6e	0.036081724
221	0x3d52077b	0.051276665
222	0x3d01eea0	0.03172171
223	0xbd3c9170	-0.046037138
224	0x3dd6f356	0.104956314
225	0xbbf9993e	-0.007617145
226	0x3d283b0a	0.04107193
227	0xbcad16f6	-0.021129113
228	0x3d816047	0.063171916
229	0x3baf1120	0.0053426176
230	0x3de5a48d	0.11213026
231	0x3d5a9ef9	0.053374264
232	0x3c245d97	0.010032079
233	0x3dc021f2	0.093814746
234	0x3dcb67d3	0.09931912
235	0x3d95f5e2	0.07322289
236	0x3cbd9f39	0.023147212
237	0x3d27008c	0.040772006
238	0x3d87f7b1	0.0663904
239	0xbd2bc666	-0.041937254
240	0xbda2bad9	-0.079457946
241	0x3da0320a	0.07822044
242	0x3ddf5f50	0.10906851
243	0x3dcc4ed9	0.099759765
244	0xbcb22e56	-0.02175061
245	0x3dab0e05	0.083522834
246	0x3d41afe9	0.0472869
247	0x3dc67091	0.09689439
248	0xbcabce38	-0.020972356
249	0x3e0b4289	0.135996
250	0xbe0bd45f	-0.13655232
251	0xbc4c3068	-0.012462713
252	0x3d9d1d6d	0.07671628
253	0x3dafcfc0	0.08584547
254	0x3cf56cb3	0.029959058
255	0x3d18471a	0.037177183

model.convs.2.bias f4 [128]
0	0xbdcc1d1d	-0.099664904
1	0x3d1c91f2	0.03822512
2	0xbd2a1d2e	-0.041531734
3	0x3c718a71	0.01474248
4	0xbd5540dd	-0.05206381
5	0x3bd10610	0.0063788965
6	0xbdb4aa16	-0.08821504
7	0x3d411eeb	0.047148626
8	0x3d29b070	0.04142803
9	0x3d8df336	0.069311544
10	0x3c70c14a	0.014694521
11	0x3dac8c51	0.08425201
12	0xbc0f866f	-0.008760079
13	0x3d15cbea	0.03657142
14	0x3d2a940e	0.041645102
15	0xbb3602bb	-0.0027772624
16	0xbd0266a2	-0.03183616
17	0x3d4ed440	0.050495386
18	0x3ce7c6cb	0.028293034
19	0xbd294ab0	-0.041330993
20	0xbc46c783	-0.012132528
21	0x3cbab7b5	0.022792676
22	0x3cbed61c	0.023295455
23	0x3c8ed084	0.017433412
24	0xbd551553	-0.05202229
25	0x3c24ccb3	0.01005857
26	0xbd84c518	-0.06482905
27	0x3d862674	0.06550303
28	0x3bfc1282	0.007692636
29	0x3d5f5c6a	0.054531492
30	0x3bca120e	0.006166703
31	0x3cd7967e	0.026316877
32	0x3da99977	0.08281224
33	0xbbea064b	-0.0071418635
34	0x3ceaa729	0.028644161
35	0x3d1dc3d4	0.038516834
36	0x3c2376ca	0.009977052
37	0xbd3ec46b	-0.046574038
38	0x3da227c8	0.07917744
39	0xbd4545d7	-0.048162308
40	0xbd4864ef	-0.048924383
41	0x3ddc7e7d	0.10766313
42	0xbc1745e8	-0.009232976
43	0xbd369614	-0.04457672
44	0x3d4d6752	0.050147362
45	0xbca40129	-0.020020084
46	0x3d9b943d	0.075966336
47	0x3c88039a	0.01660328
48	0x3d654f0f	0.0559836
49	0x3b18b81d	0.00233031
50	0x3c782557	0.015145621
51	0x3cc70e46	0.024298798
52	0x3c6d01b8	0.014465742
53	0xbcd30fdf	-0.025764404
54	0xbc71b0c8	-0.014751621
55	0xbce32626	-0.027728152
56	0x3d2777e0	0.040885806
57	0xbd12f472	-0.035877652
58	0xbc8bdacc	-0.017072104
59	0x3d76393a	0.06011317
60	0xbd98aba6	-0.07454614
61	0x3d4b715c	0.049668655
62	0xbd90509c	-0.07046625
63	0xbd79da2f	-0.06099909
64	0x3da51780	0.08061123
65	0xbd67242a	-0.056430973
66	0xbd9e2a0f	-0.07722866
67	0x3db4f17a	0.088351205
68	0x3d0ed832	0.03487415
69	0x3c3e8ec1	0.011630715
70	0xbbee6980	-0.00727576
71	0xbd872da1	-0.066005
72	0xbcf2db4a	-0.02964558
73	0xbce8c54e	-0.028414395
74	0x3d0be40e	0.034153037
75	0xbd7e4a07	-0.062082317
76	0x3dadba5d	0.084828116
77	0xbd1e2127	-0.038605835
78	0x3d76ae76	0.060224973
79	0x3ccc9149	0.024971621
80	0xbd96a3e1	-0.07355476
81	0x3d1dc4a2	0.0385176
82	0x3d7eb012	0.062179632
83	0x3c2d6af5	0.010584583
84	0xbd7a9059	-0.061172817
85	0x3cb21f66	0.021743488
86	0x3cc4a33a	0.024003614
87	0x3cd7a5cb	0.026324173
88	0x3d0dc113	0.034607958
89	0x3d8ee89a	0.06977959
90	0xbd5838b4	-0.05278845
91	0x3d681484	0.05666019
92	0xbd5367da	-0.051612712
93	0x3d82bcfb	0.063837014
94	0xbca87869	-0.020565229
95	0x3d6d9192	0.058000155
96	0x3cc6a3a2	0.024247948
97	0x3db94261	0.09045864
98	0x3d9db188	0.07699877
99	0x3d80c5d0	0.0628773
100	0xbcc76a0e	-0.024342563
101	0xbd8b9c29	-0.068168946
102	0xbcc263f2	-0.023729298
103	0x3d44c0e5	0.04803552
104	0x3d93e99c	0.07222292
105	0x3d3056e0	0.0430516
106	0xbca95448	-0.020670071
107	0x3cd38160	0.025818527
108	0x3b8081b0	0.00392171
109	0x391418d9	0.00014123636
110	0x39f28251	0.0004625493
111	0xbd4dee91	-0.050276343
112	0xba986a58	-0.0011628373
113	0xbc0df39c	-0.008664038
114	0xbcb71092	-0.022346769
115	0x3c418e25	0.011813675
116	0x3db2fe06	0.087398574
117	0x3db20421	0.08692194
118	0xbd9b765b	-0.07590934
119	0x3b850f8c	0.004060691
120	0x3dc788c6	0.09742884
121	0xbd80cee7	-0.062894635
122	0x3c936b7d	0.01799559
123	0xbd2af7ff	-0.041740414
124	0x3d8aab45	0.06770948
125	0x3d81b373	0.06333055
126	0xbc421420	-0.0118456185
127	0xbd24c032	-0.040222354

model.output.weight f4 [1, 128]
0	0x3d9b073d	0.0756974
1	0xbda07f0a	-0.07836731
2	0x3d178b16	0.036997877
3	0x3cc6aeb4	0.024253227
4	0x3cf74c1c	0.030187659
5	0xbcc113b0	-0.023568958
6	0xbd711ddc	-0.058866367
7	0xbd1efb46	-0.03881385
8	0x3d0f075b	0.034919124
9	0x3ae3870b	0.0017358972
10	0xbdab8446	-0.083748385
11	0xbd9cdbe5	-0.07659129
12	0xbc61402d	-0.013748211
13	0x3cd019ad	0.025402868
14	0x3d84218e	0.064517125
15	0x3c0a0bea	0.008425692
16	0xbc7bb6b8	-0.015363388
17	0x3ccf5943	0.025311118
18	0x3ce0ffa8	0.027465656
19	0x3db07089	0.086152144
20	0x3daacb77	0.08339589
21	0xbd9bb40e	-0.07602702
22	0xbda3f7d0	-0.08006251
23	0x3d6b490a	0.057442702
24	0x3e0830b0	0.13299823
25	0xbdbe7f31	-0.093016036
26	0xbd407eb9	-0.046995852
27	0xbd94da05	-0.072681464
28	0x3cee4d85	0.029089699
29	0xbd81f2a2	-0.06345107
30	0xbd04b255	-0.032396633
31	0x3d896716	0.06709115
32	0xbd6107fa	-0.054939248
33	0xbd81f060	-0.06344676
34	0x3d83751a	0.0641882
35	0xbde13dde	-0.10998128
36	0x3d49e815	0.049293596
37	0xbd8095ce	-0.06278573
38	0xbd85499e	-0.06508182
39	0xbd87db43	-0.06633618
40	0x3a943524	0.0011307341
41	0xbcbe4ce0	-0.023230016
42	0x3d9d8f35	0.0769333
43	0xbbf43ea0	-0.0074537545
44	0x3d361a0a	0.044458427
45	0xbdae5740	-0.08512735
46	0xbdb988d9	-0.09059305
47	0x3d9af85a	0.075669006
48	0x3cc23eab	0.023711523
49	0x3c8e4df8	0.017371163
50	0xbdd931f7	-0.10605233
51	0xbd77dc06	-0.060512565
52	0x3bcefd79	0.0063168374
53	0xbccd5175	-0.025063256
54	0xbc6fb540	-0.014630616
55	0xbd34036d	-0.04394858
56	0x3cf01baf	0.029310076
57	0x3d302a2e	0.043008976
58	0xbd25bd5b	-0.040463787
59	0xbd905dc3	-0.07049134
60	0x3cf29ee4	0.02961678
61	0xbc99e570	-0.018786162
62	0xbd029444	-0.03187968
63	0x3ca17d93	0.019713199
64	0x3bdb2eea	0.006688942
65	0xbc8fcf18	-0.017554805
66	0xbd8f26e6	-0.06989841
67	0xbd023b4e	-0.03179484
68	0x3ca9ccc4	0.020727523
69	0xbd0e5239	-0.034746382
70	0x3cf7ad7c	0.030234091
71	0x3b6d9960	0.0036254749
72	0x3d67947f	0.0565381
73	0xbd4a0800	-0.049324036
74	0xbdc90d2f	-0.09816968
75	0xbcde13d4	-0.027109064
76	0xbdc38d76	-0.09548466
77	0x3d020906	0.031746887
78	0x3ce9d760	0.028545082
79	0xbd8ac669	-0.06776125
80	0x3c7bd420	0.015370399
81	0xbd8053d1	-0.06265987
82	0xbcc7a2c6	-0.024369609
83	0xbd728d15	-0.059216578
84	0xbce1d107	-0.027565492
85	0x3d66bf83	0.056334984
86	0x3d490ef9	0.049086545
87	0x3d69a5ec	0.057043
88	0x3d9e1f40	0.07720804
89	0x3c945660	0.018107593
90	0x3db28129	0.087160416
91	0xbd9a71a9	-0.0754121
92	0x3d88ece7	0.066858105
93	0x3d8aa3b6	0.06769507
94	0x3d5e4a84	0.054270282
95	0xbd8da57d	-0.0691633
96	0x3d88e8d9	0.06685037
97	0xbd662e0f	-0.05619627
98	0xbd682e29	-0.056684647
99	0x3c83f4e9	0.016107993
100	0x3b29a7ae	0.0025887298
101	0xbd6b7844	-0.05748774
102	0x3d0c93c9	0.034320626
103	0x3d9ba984	0.07600692
104	0xbcb5dc0a	-0.02219965
105	0xbd61122a	-0.054948963
106	0x3d5cc0e2	0.053894885
107	0x3da8e6a3	0.082471155
108	0x3d21b746	0.039481424
109	0xbd82f79d	-0.06394885
110	0xbddc6cf7	-0.10762971
111	0x3d48a999	0.048989866
112	0xbcc93e33	-0.024565792
113	0x3d0e6621	0.034765366
114	0x3d5313a9	0.05153242
115	0xbdda80e6	-0.10669117
116	0xbd9eadaf	-0.07747971
117	0xbd7a0a14	-0.061044767
118	0x3d93fae1	0.07225586
119	0xbd38d80f	-0.045127925
120	0xbdaa467a	-0.083142236
121	0x3d102330	0.035189807
122	0xbdd3250f	-0.10309803
123	0xbd34304f	-0.043991383
124	0xbd21f2ae	-0.039538078
125	0xbd8a5cd3	-0.06755986
126	0xbddab398	-0.10678786
127	0x3d922c06	0.07137303
