experiments/workflow/lightning_logs/version_0/checkpoints/epoch=99-step=4200.ckpt (torch, 692906 bytes, 27 tensors)

model.embedding.weight f4 [128, 53]
000000 c5 11 68 bd 4e 17 f5 bd 79 f7 c4 3d 59 d5 f7 bc
       -0.05665757 -0.11967336 0.09617514 -0.0302531
000010 2d 51 a6 3b 74 90 f9 bc 6d 4c 77 bc 32 ea b5 3d
       0.005075595 -0.030464388 -0.015093905 0.0888256
000020 23 a0 7c 3d 9a 09 81 3d f6 ea d6 3d 41 0d f7 bb
       0.061676156 0.063006595 0.10494034 -0.007539422
000030 ab 3b cc 3d ba 0c c0 bd f2 b1 9a bc 46 88 26 3d
       0.09972318 -0.093774274 -0.018883679 0.040657304
000040 a1 d7 48 bd 9b cb 12 3e 2b 66 7d 3d e5 98 39 3d
       -0.049033765 0.14335482 0.061865013 0.045311827
000050 a6 db e8 3c 96 94 65 bb 7a 08 54 3d 7f a4 45 3c
       0.028425049 -0.003503119 0.051765896 0.012063145
000060 67 5c b1 3d 53 d3 12 bd cd 94 15 bd 80 67 ac bc
       0.086602025 -0.035846066 -0.03651886 -0.021045446
000070 a3 35 52 bd d0 e7 65 bd 56 8b ff 3d 66 71 f4 3d
       -0.051320683 -0.056129277 0.12477748 0.119356915
000080 08 dc 78 3d 88 d7 f0 3d a7 7f bc bd 32 96 f1 3d
       0.060756713 0.11759859 -0.09204035 0.117962256
000090 05 3e 7b 3d 04 a5 24 bb 52 d9 63 3d a9 c4 d7 bd
       0.061338443 -0.002512277 0.055627175 -0.10535557
0000a0 55 17 8c 3c 9a 59 3a 3d fc 0b be bd a7 ed b5 3d
       0.01710097 0.045495607 -0.092796296 0.08883219
0000b0 2c 20 da 3d b2 7a 90 3d fc 88 83 bd dd 05 0c 3d
       0.106506675 0.07054652 -0.06422612 0.03418528
0000c0 a8 c0 a0 bc 87 90 fd bd 63 4e f1 bd 4f b8 62 3c
       -0.019623116 -0.12381082 -0.11782529 0.013837888
0000d0 1e 6c c3 bd 4f 0d f7 bd 96 19 5c bd 75 67 e9 bd
       -0.09542106 -0.12063085 -0.05373534 -0.11396686
0000e0 4a 14 e3 bd 2c e6 cc bd b2 b4 bb 3c 8a a7 dc 3d
       -0.11087854 -0.10004839 0.02291331 0.10774143
0000f0 83 39 b2 3d 93 d1 11 3d 78 68 dc bc 56 01 15 be
       0.08702376 0.035600256 -0.026905283 -0.14551291
000100 48 fe d1 bc af 62 6f bc 1e 2a 9e 3d da ba eb 3d
       -0.025633946 -0.01461093 0.07722877 0.115102485
000110 1b 3b 02 3e 2a 8e c7 3d bd a4 3a 3d 8e 4f 79 3d
       0.1271786 0.097439125 0.045567263 0.060866885
000120 a5 fe e3 bd 92 c5 68 3d cf 8a b1 bd b3 b4 da 3d
       -0.11132554 0.056829043 -0.08669054 0.10678997
000130 09 ba 88 bd ad 33 f9 3c c2 e4 b6 bd 53 cf ce bd
       -0.066761084 0.030420149 -0.08930351 -0.10098138
000140 fb 2b d7 bc 69 f1 95 3c 92 87 47 bc d3 45 ab bd
       -0.026266089 0.01830359 -0.012178319 -0.08362927
000150 eb a5 60 bc cf 90 1b bd fa 5f 9b 3d 6e 9e 02 3d
       -0.013711433 -0.037979897 0.075866655 0.03188937
000160 e0 d4 72 3d 7d 86 91 3d 36 dd 99 bd c2 2f d3 bc
       0.059285045 0.0710573 -0.07512896 -0.025779609
000170 14 e5 80 bd e7 ca 8b bd 76 fa 00 3e 44 10 17 bd
       -0.06293693 -0.0682581 0.12595543 -0.036880746
000180 60 60 eb 3c ab 56 cc bc b2 62 13 be ef 13 ab 3d
       0.028732479 -0.02494367 -0.14393118 0.083534114
000190 d2 cf 0b 3d ce 17 01 3d 4e c5 82 3d 8d 13 a3 3d
       0.03413374 0.031516843 0.06385289 0.079627134
0001a0 79 31 5b bd ef aa c1 bd c0 67 1a 3e f7 06 04 bd
       -0.053513978 -0.09456431 0.1507864 -0.032233205
0001b0 b4 56 f9 3d 71 ad 22 bd 98 61 33 3d 44 99 36 3d
       0.121747404 -0.039716188 0.043794245 0.04457976
0001c0 38 3e db bd 04 be a3 bd d3 b8 c1 bb 37 f4 c4 bd
       -0.10705227 -0.07995227 -0.0059119253 -0.09616893
0001d0 05 0e 0f be cb 7e 15 3e b8 15 59 bc ac 2b 04 be
       -0.13970192 0.14599149 -0.013249807 -0.12907284
0001e0 3e b1 1c bd 4a 57 a4 3d 07 86 79 3d fe a1 e6 bd
       -0.03825497 0.080244616 0.060918834 -0.11261366
0001f0 6c 33 17 bd 68 dd 2b 3b 56 ce 14 be be 92 92 bc
       -0.036914274 0.0026224498 -0.14531836 -0.017892238
000200 b6 72 04 be cf 69 f4 3b e8 31 9e bd 76 95 90 bd
       -0.12934384 0.0074589024 -0.077243626 -0.070597574
000210 9a 85 ac 3d cb aa c7 bd 42 4a 4d bd a8 f9 8c bd
       0.0842392 -0.09749373 -0.050119646 -0.06883556
000220 f3 8e 14 3e a7 ae 9d bd 0c d6 bd 3b 35 e2 5b 3d
       0.14507656 -0.07699328 0.0057933386 0.053682525
000230 31 0d 6c bc 68 df 9a 3d 99 8c d8 3c aa b2 d8 bc
       -0.014407442 0.075621426 0.02643423 -0.026452381
000240 3e 13 98 bc 7c 48 5b bd 78 55 ee 3d 70 79 e5 3d
       -0.018563863 -0.053535923 0.116373956 0.11204803
000250 0b b1 a3 bd ca 46 a2 3c 80 46 07 3e eb 17 0c be
       -0.07992753 0.019809145 0.13210487 -0.13680999
000260 17 55 f7 bd 50 ff e1 3d 3b 67 da 3d 73 71 d8 3d
       -0.120767765 0.11035025 0.10664221 0.10568514
000270 7b eb 85 bd 25 b2 5f bd d0 93 91 bd cb 1e 33 3d
       -0.06539055 -0.05461325 -0.07108271 0.04373054
000280 47 20 b5 3d 93 c5 cf bd 9a 55 30 3d ab d9 a3 bd
       0.08844047 -0.10145106 0.043050386 -0.08000501
000290 06 29 84 3c b6 9c c1 3d 5a 88 15 bd 8f 5d b2 3d
       0.016132843 0.09453718 -0.036506988 0.08709251
0002a0 8f 41 da 3d 37 35 9b 3d a0 a7 01 be 91 79 12 be
       0.106570356 0.07578509 -0.126616 -0.14304186
0002b0 92 36 06 3e 87 bc ec 3d 03 8d ef 3d bd 5b c5 bd
       0.13106754 0.11559396 0.11696818 -0.09636638
0002c0 ec 48 d3 3d 96 6f 00 be 38 c6 8f 3d 7e d5 4d bd
       0.10316643 -0.12542567 0.07020229 -0.05025243
0002d0 05 82 92 3d d3 00 0d 3e a0 df cb 3b b1 b5 03 be
       0.071537055 0.13769846 0.0062217265 -0.12862279
0002e0 00 0e 2b 3d df 97 3e bd 1e e2 6b bd 3f 36 99 3c
       0.0417614 -0.046531554 -0.05758869 0.018702624
0002f0 a4 1e 12 3e 0a 52 3f 3d 0f 0a 9d bd 08 7e 9b 3d
       0.14269501 0.046709098 -0.07667934 0.07592398
000300 70 3c 25 bd 11 27 02 be 79 ed 90 bd 96 c2 e5 bd
       -0.04034084 -0.12710215 -0.07076544 -0.11218755
000310 69 aa e5 3d 6e 49 17 3d 94 12 16 bd f4 39 70 bd
       0.11214144 0.036935262 -0.03663881 -0.05864902
000320 74 c7 05 bd 58 2c 1d 3d e7 ad a9 bc 64 b9 a0 bb
       -0.032660916 0.038372368 -0.020712806 -0.004904913
000330 02 ee 08 be 8c f1 09 bd cf 87 93 bd 2c 61 a4 3d
       -0.13372043 -0.033677623 -0.07203638 0.080263466
000340 8e 63 b6 bc a2 a0 bc bd c1 2c 45 bd 65 35 22 bc
       -0.022264268 -0.09210326 -0.048138384 -0.009900426
000350 44 f1 e0 3d 2d 2e eb bd 87 b8 af 3d 0b 76 fa bd
       0.10983518 -0.11483417 0.08580118 -0.12229546
000360 c9 c4 97 3d 2e 9a 8c bd 61 a4 dd bd 1c 98 b2 bd
       0.07410581 -0.06865345 -0.108223684 -0.08720419
000370 3c a5 0e 3e 79 74 3f 3c e5 2d c4 bd c7 b9 81 3d
       0.1393022 0.011685484 -0.09579066 0.06334262
000380 03 a6 8e bd 01 c8 44 3d a0 ec 32 bc b2 d5 53 3d
       -0.06965258 0.0480423 -0.010920674 0.051717468
000390 47 62 14 3d 84 bc 16 be a8 ab c2 3d 55 3a ad 3d
       0.036226537 -0.1472035 0.09505397 0.084583916
0003a0 01 54 b2 bc 2e 8f d3 3d f5 09 9c bd 37 7a 02 3d
       -0.021768572 0.10330044 -0.07619087 0.031854834
0003b0 1d 7e 1d 3e 53 6d 8f bc 23 37 be 3d 42 4a b3 bd
       0.1538014 -0.017508185 0.0928786 -0.08754398
0003c0 56 2e 73 3d 33 30 f8 bd b2 59 9e 3d 49 f7 0a be
       0.05937036 -0.12118568 0.07731952 -0.13570894
0003d0 3c 88 2e 3d 84 19 03 3e 61 22 07 bd d1 8a c4 bd
       0.042610392 0.12802702 -0.03299177 -0.0959679
0003e0 b0 7a 5a bd 1a 14 07 bc 75 27 f8 3d aa 6e 05 3e
       -0.05333966 -0.008244539 0.12116901 0.13030496
0003f0 a8 63 9d 3d 87 40 f9 bd ff 77 de 3d 77 8b c1 3d
       0.076850235 -0.12170511 0.10862731 0.09450429

model.embedding.bias f4 [128]
000000 66 33 b0 bd 54 05 26 be 19 03 78 bd e3 7b e8 bc
       -0.086035535 -0.1621297 -0.06054983 -0.028379386
000010 0e 64 9e bb f9 f2 79 bd bd fb e6 3c 82 d9 e5 3d
       -0.004833705 -0.061022732 0.02819621 0.11223127
000020 83 6a 5a bd 28 22 c7 bc fb 30 cd bd ab f4 93 bd
       -0.053324234 -0.02430828 -0.10019108 -0.07224401
000030 f3 ba 72 3d ad d9 82 3d 18 45 d5 3c b2 51 1d be
       0.05926032 0.063891746 0.026033923 -0.15363196
000040 e5 dc b5 bd 5b ab d7 3d 63 1a 17 3e 2e ff 08 3e
       -0.08880023 0.1053073 0.1475616 0.13378593
000050 42 f1 be 3c 29 bf 80 bd 35 0c 41 bd a6 17 60 3d
       0.0233084 -0.06286461 -0.047130782 0.054710053
000060 96 9d 21 be 52 fc 5c 3d 13 e5 29 be b8 9a d8 3c
       -0.1578277 0.05395157 -0.16591291 0.026440963
000070 29 7c f8 bd c8 e1 0b 3e 0b 18 9f bb d9 f9 29 bd
       -0.12133057 0.13660347 -0.004855161 -0.04149804
000080 2b 2e e2 3d f3 c0 e5 3a e5 69 e6 bb 50 d2 95 3d
       0.11043962 0.0017528817 -0.0070316666 0.073155046
000090 4b aa aa 3b 77 20 07 3e 91 63 d8 3d 72 50 13 be
       0.005208289 0.13195978 0.10565866 -0.14386156
0000a0 7f e1 01 be 7a 99 2d bc 4a 67 be 3d a2 ac 51 3d
       -0.12683676 -0.010595674 0.092970446 0.051190026
0000b0 27 c5 04 ba a3 86 b6 3d 07 98 cd bd 03 ba b8 bd
       -0.00050647784 0.08912399 -0.100387625 -0.09019854
0000c0 e9 f2 ab 3d 2e 03 21 3e d5 88 93 bd dc 4e 2a be
       0.08395941 0.15723869 -0.07203833 -0.16631645
0000d0 a1 8c 18 3e b6 f1 52 3c 6f a4 c6 3d 2c cf 07 3d
       0.14897396 0.012875011 0.09699332 0.03315656
0000e0 58 77 18 3d 46 61 27 3d 98 67 39 3d f6 4e 70 3d
       0.03722319 0.04086425 0.04526481 0.058669053
0000f0 e6 4d a7 bd c3 8d db bd 18 16 4b bd d3 b6 8f bd
       -0.08169155 -0.10720398 -0.049581617 -0.07017293
000100 65 96 88 bd 8e 37 ad bc ef 55 95 3d 35 bd fa bd
       -0.066693105 -0.021144655 0.07291781 -0.122431196
000110 f0 67 e0 bd 9b 6d 37 bd 6f dc a6 3d d3 7e 8e 3d
       -0.109573245 -0.044782262 0.08147513 0.069577836
000120 42 cb 6d 3c 96 07 b6 3d c5 be bd bd 1b 2f 2a 3e
       0.0145137925 0.08888166 -0.09264902 0.16619532
000130 eb 53 7f bd f9 40 4c 3d 9c c3 16 3e 94 9f 53 3d
       -0.06233589 0.04986665 0.14723057 0.051665857
000140 02 57 e1 3d d7 8c 92 bd 84 49 8a 3c f3 81 ff bc
       0.110029235 -0.07155769 0.016880758 -0.031189894
000150 1a 21 2d 3d 46 fb f8 3d 1f 44 d3 3d 18 b6 3c 3d
       0.042267896 0.121573016 0.103157274 0.046072096
000160 a4 d7 13 3e 47 fb 71 bd 9c a8 63 bc 8d d7 1f 3e
       0.14437729 -0.059077527 -0.01389518 0.1560957
000170 79 0b 0f bd dd 9b 12 be 42 18 ca bd fb 2e 0e 3e
       -0.03492305 -0.1431727 -0.09867908 0.13885109
000180 e0 d7 59 bd 2d b2 1c 3e 99 46 4a 3c f1 86 24 3e
       -0.05318439 0.15302344 0.012345933 0.16067101
000190 d0 91 90 bd 81 58 c6 bd 43 97 25 bd 3f c8 1c ba
       -0.070590615 -0.096848495 -0.040427458 -0.0005980767
0001a0 13 47 04 be e3 5f d3 3d eb 7e 01 3c c6 52 dc 3c
       -0.12917738 0.10321023 0.007903795 0.026894938
0001b0 88 ce c0 bd cf 65 5d 3d 15 a6 a2 3d 6c 4b 1b be
       -0.09414393 0.05405217 0.07941834 -0.1516549
0001c0 55 07 35 bd 66 b1 fd bd 52 f7 a1 3d ed 10 7d 3d
       -0.044196445 -0.12387352 0.07908501 0.06178372
0001d0 02 ff 33 bd 6f 51 0a 3e 4c ab 0b be bd 33 50 3d
       -0.043944366 0.13507627 -0.13639563 0.05083059
0001e0 12 91 25 3d 6c 49 be 3d 62 f4 c9 bd 35 c9 d9 3d
       0.040421553 0.09291348 -0.098610654 0.1063408
0001f0 0b 82 53 3d ab c5 dc bd b4 04 bc 3d 52 cd 80 3d
       0.05163769 -0.1077989 0.091805845 0.06289162

model.convs.0.weight f4 [128, 128]
000000 52 c9 ec bc 47 3e bf 3d fb 9f 81 bd 41 24 f2 3c
       -0.02890459 0.0933805 -0.06329342 0.029558303
000010 e9 83 40 bc e9 7c 8c 3d 8e bd 83 3d f2 24 99 ba
       -0.0117502 0.06859762 0.06432639 -0.0011683984
000020 37 93 71 3c 92 89 14 3e 71 d4 de bd ac 0b b0 bb
       0.014744571 0.14505604 -0.10880364 -0.005372485
000030 e8 3f a0 bc ca 59 e5 bd 61 c5 2a bc 02 8f 08 3d
       -0.019561723 -0.111987665 -0.010423035 0.033339508
000040 c0 3f f0 3d d9 91 55 bd a4 85 26 3c 72 a9 88 3d
       0.11730909 -0.052141044 0.010163698 0.06672944
000050 6f 6e 0b bd f4 d3 91 bb 6b d7 38 3d ef 6d 9d bb
       -0.034040865 -0.0044503156 0.045127314 -0.004804365
000060 0c 06 ea bc 37 20 93 3d 91 1b ae 3d 4e 37 0d bd
       -0.028567336 0.07183879 0.085013516 -0.03447657
000070 c7 61 8f b9 38 49 b8 bd fb a5 7b bc be 41 91 bd
       -0.00027347935 -0.0899834 -0.015359397 -0.070926175
000080 96 bf 0c 3d f1 e6 10 3c b0 59 30 3c 78 64 78 bd
       0.034362398 0.008844123 0.010763571 -0.06064269
000090 2c e2 de ba 3e 13 5b bd 99 03 6d bd 9b 3e b5 3b
       -0.001700466 -0.053485148 -0.05786476 0.005531145
0000a0 07 8f 66 3d d1 e3 19 bb 87 91 b1 3d 6e 34 39 bc
       0.056288745 -0.0023481736 0.08670335 -0.011304004
0000b0 b9 37 b4 b9 40 24 c1 bc d0 6b ed 3c 69 c8 05 be
       -0.00034373792 -0.023576856 0.028982073 -0.13064732
0000c0 f1 ae 78 3d ba c1 99 bc 8c b6 4d bd a0 44 e8 3c
       0.060713712 -0.018769134 -0.05022292 0.028353035
0000d0 1d f1 0f bd c0 9d 0a 3c 32 1c 95 3d ae 79 45 3d
       -0.035142053 0.008460462 0.072807685 0.048211746
0000e0 23 60 51 3d ce c2 e5 bc 06 43 89 bd ea ea 8a 3d
       0.051117074 -0.028046992 -0.06702237 0.067830876
0000f0 37 19 ab 3d 1c f8 83 bc b6 f7 9d bd f7 e8 e2 3c
       0.08354419 -0.016109519 -0.07713263 0.027698977
000100 80 fd d0 bc 2c 2d 2e 3d 3c f4 d2 bb 7c 13 a7 bd
       -0.025511503 0.042523548 -0.0064378064 -0.08158013
000110 c2 60 96 bc 53 e9 c8 3d c7 cd d7 3d 19 ab e6 bd
       -0.018356685 0.09810128 0.10537296 -0.11263103
000120 60 5d ec bd 32 99 a1 bc 73 27 8d bd ed d4 c1 3d
       -0.11541247 -0.01972637 -0.0689229 0.094644405
000130 1d a6 1d bd 1e 50 87 bd 7f 4a ee 3d 56 1f 96 3c
       -0.038488496 -0.06607078 0.11635303 0.018325489
000140 52 4d f8 3c 75 2f ce bc 21 0c eb 3c 37 4f 22 bd
       0.030310307 -0.025169114 0.028692307 -0.039626326
000150 3b 22 39 bd 13 bd ab 3c e1 cf 06 be 35 5c 11 3d
       -0.04519866 0.020964181 -0.13165237 0.035488326
000160 41 8d ac 3d 51 0e 34 3d 55 f3 3d bb a9 16 81 3d
       0.084253795 0.043958966 -0.0028984149 0.0630315
000170 4c 10 7a 3d 69 d9 56 bb b5 9d fd 3c ec 5d 5c bd
       0.0610507 -0.0032783395 0.03095899 -0.05380051
000180 64 fc 47 bd 0d 0d 1c 3e a4 d4 6b bc 23 01 53 3d
       -0.048824683 0.15239353 -0.014393959 0.051514756
000190 d5 63 25 bd ff a9 f1 bd de c7 85 3d 35 d8 b3 bd
       -0.04037841 -0.11800002 0.06532262 -0.087814726
0001a0 a8 a4 99 3d 35 5d fb bc 69 6b 87 bd 40 6c bb 3c
       0.07502109 -0.030684093 -0.06612284 0.022878766
0001b0 7d 19 38 3d 72 ad b7 3d 93 1a 47 3d a2 60 c7 bd
       0.044946183 0.08968629 0.048609328 -0.09735228
0001c0 b3 85 5c bd 89 29 ce 3d 24 cb 2b bc fc 5b be bd
       -0.053838443 0.10066516 -0.010485444 -0.092948884
0001d0 72 81 4f 3d 70 ed 76 3d cb 27 11 bc ec 79 a4 3d
       0.050660558 0.06028503 -0.008859585 0.08031067
0001e0 83 e3 80 3d 70 b4 d6 3d b3 59 09 bd be b4 f6 3d
       0.062933944 0.104836345 -0.03353281 0.120461926
0001f0 06 35 5b bd fa 24 4f bd 20 8a 25 bd 5b d2 90 3d
       -0.053517364 -0.050572373 -0.04041493 0.07071372
000200 7b 95 bf bc 4f 4f 3a bc b5 8b 2f bc 89 0b 05 3b
       -0.023386708 -0.011371448 -0.010714461 0.0020301065
000210 a2 ce c2 3d c0 af 93 bd 63 ec ab 3d c6 b1 7f 3c
       0.09512068 -0.07211256 0.083946966 0.015606349
000220 e7 f7 a8 bc c3 79 77 bd a4 a4 52 3d a6 fd 85 3a
       -0.020626022 -0.060418855 0.051426545 0.0010222688
000230 32 45 2f 3d b2 73 7b 3d 41 c5 56 bd 83 83 ab bd
       0.0427906 0.061389633 -0.05243421 -0.08374693
000240 9e b7 49 bd 97 ce 06 3d 7b 41 63 3c 2a 3a b7 3d
       -0.049247377 0.032911863 0.013870592 0.08946641
000250 3d 3d 2a 3d b9 5d 22 bd b8 93 d2 bc a6 11 e0 3c
       0.041562308 -0.039640162 -0.025705203 0.027352165
000260 92 4b be bd 47 d6 2d bd 0f d3 90 bd 78 ae a6 bc
       -0.09291758 -0.04244068 -0.07071506 -0.020346865
000270 4e 49 44 bd 4a f6 c5 3d ec f7 6c bd 3f e6 89 bd
       -0.04792147 0.096661165 -0.057853624 -0.06733369
000280 b5 86 b6 bd a3 29 2e 3d d9 6c b1 bc f0 b4 a2 3d
       -0.08912412 0.042520177 -0.021658348 0.07944667
000290 d8 46 1f 3d a7 2f 7c bd c2 b0 a9 3d 32 c4 4a bd
       0.03888592 -0.061568882 0.08285667 -0.049503513
0002a0 a4 53 5e bd e7 f5 7e 3c a0 fe 39 3d 58 e6 3e bd
       -0.054278985 0.015561557 0.045408845 -0.04660639
0002b0 5d 8e 0e bd 9e aa 2e 3c f3 40 f0 ba 9d b0 24 bd
       -0.034803737 0.0106607955 -0.0018329903 -0.040207494
0002c0 38 4f 82 bc 4b fa 08 bd 06 a5 07 3d 38 5a 63 bb
       -0.015906915 -0.033441823 0.033116363 -0.0034691226
0002d0 12 9f 4e 3d f1 18 c1 3c 13 32 a9 3d 1d 1e 62 bc
       0.05044467 0.023571463 0.08261504 -0.013801125
0002e0 63 7d 6e bd e9 b2 96 bb 24 b1 2f bd fe 2e d3 3c
       -0.058225047 -0.0045989645 -0.042893544 0.025779244
0002f0 13 20 e6 3c 6b 91 98 3d 29 fd 58 bd ce 59 8b 3c
       0.028091466 0.07449611 -0.052975807 0.017010596
000300 e2 e4 cc 3c 48 ab 6a 3c 09 60 02 3d cf bb 68 bd
       0.025011484 0.014323063 0.031829868 -0.056819733
000310 70 30 02 3b 81 9e c4 bd dd 66 4b bc 29 00 63 3d
       0.0019865297 -0.09600545 -0.012414661 0.055420075
000320 da 72 2c 3d 8b 67 18 3d b2 f1 ab 3d d6 77 6e 3c
       0.04210172 0.03720812 0.08395709 0.014554938
000330 a0 7b 50 3d ff be 7a bd 3e 53 4b bd 44 d1 0b 3d
       0.050899148 -0.061217304 -0.049639933 0.034135118
000340 5d cd dd 3c e6 88 90 bd 3d f1 a0 bd 0b 96 d7 bb
       0.027075464 -0.07057361 -0.078585126 -0.006579166
000350 dd 73 97 bc e3 58 8c 3d bd 7f 1a bc 3c 41 12 bd
       -0.018487865 0.06852891 -0.009429869 -0.035706744
000360 91 18 35 3d 6d 43 de bc f4 78 57 bd 43 c9 6a bd
       0.04421288 -0.02713176 -0.052605584 -0.057320844
000370 c3 3a 06 bd d9 5a c8 bd 9b 02 bf bd f8 9d 9d 3d
       -0.032770883 -0.09782953 -0.09326669 0.07696146
000380 7a c4 30 bc 41 a1 be 3d f8 6e 0a 3d a8 e6 c5 3c
       -0.010789031 0.093081005 0.033797234 0.024157837
000390 85 44 df 3c 8d 0e 05 bd 60 bb b9 bd 15 5f 15 3d
       0.027254352 -0.03248458 -0.09068942 0.03646763
0003a0 56 d2 34 3d 3e e5 99 bd c5 f7 a9 3c 9a e5 35 bd
       0.044145904 -0.075144276 0.020748029 -0.04440842
0003b0 3c 8e 58 bd 7b db 8d 3d 6c 14 ba bd 07 bd ef 3c
       -0.05287002 0.06926628 -0.090859264 0.02926494
0003c0 7d 71 0e bb fc a8 3b bb 60 f2 27 3c 2c e2 97 bc
       -0.0021735125 -0.0028634658 0.010250658 -0.018540464
0003d0 81 5d bc 3a f7 69 e7 3c 73 ca af 3c 84 05 00 bd
       0.0014371128 0.02824877 0.02145884 -0.03125526
0003e0 46 c6 a4 3d 15 45 9a 3d 23 3e 31 bd 16 d8 ac bb
       0.0804563 0.075327076 -0.04327215 -0.005274783
0003f0 32 78 0c 3d 22 3c b1 bc 44 e8 6f bd 46 99 50 bd
       0.034294315 -0.021635119 -0.058571115 -0.050927423

model.convs.0.bias f4 [128]
000000 2f f1 b9 bc dd 31 4f bc f9 9b 0f bb 65 f9 15 3d
       -0.022698013 -0.012646166 -0.0021913035 0.036614794
000010 e2 d9 2a bd a2 10 37 bc 4c 7c 62 bc 09 29 d4 3d
       -0.041711695 -0.011173399 -0.01382358 0.10359389
000020 7e 58 e4 bc de bf d4 bc 2c 06 48 bc 5b b2 63 3d
       -0.027874228 -0.025970396 -0.012208503 0.055590015
000030 cd 30 bc 3d 24 6d 53 bd c8 9d 96 bb dd a1 54 3d
       0.091889955 -0.051617756 -0.0045964457 0.051912177
000040 98 02 4b bd 6e 50 4b bc f0 56 c2 3b f9 03 38 bc
       -0.04956302 -0.012409313 0.005930774 -0.011231416
000050 34 f5 54 3d ab 0f 28 3d 7b 6a c0 3d 6b 93 27 3d
       0.051991656 0.041030567 0.093953095 0.040912073
000060 19 ee 4b 3d 72 64 4b bd 5f 0e 03 3c 05 47 a1 3d
       0.049787614 -0.04965634 0.007999032 0.07874874
000070 b7 0a 97 bd 38 a3 2c 3d 02 05 a2 3c 7d ae 2f 3d
       -0.073750906 0.042147845 0.019777779 0.042891014
000080 01 bb 87 3d 2f fa 49 3d 6d f4 5b 3c 38 85 3a bd
       0.06627465 0.04931086 0.013424975 -0.045537204
000090 e8 89 fe ba b4 6a a7 3d 01 6c be 3d e3 38 69 bd
       -0.0019419761 0.08174649 0.09297944 -0.056939017
0000a0 7e 70 99 3d 65 95 6e 3d 01 31 c3 bb a6 45 62 3d
       0.07492159 0.058247942 -0.0059567695 0.055242203
0000b0 a7 ba ae 3d 4c 8c a0 3d d4 6f 98 bd 2a fb fd 3b
       0.08531695 0.078392595 -0.074432045 0.0077508884
0000c0 01 2e be bd 0f 98 e3 3b 5d 96 3a 3d 56 e7 6a 3d
       -0.09286118 0.006945617 0.045553554 0.057349525
0000d0 33 75 a2 3c ad ac ae 3d 44 ac 99 3d 7a b1 ad 3c
       0.019831276 0.08529029 0.0750356 0.021202791
0000e0 34 8c 47 3d 15 3f 82 3d e7 f8 6f bd a3 3f 92 3d
       0.048717692 0.06359688 -0.05858698 0.07141044
0000f0 ad ec d4 3d dd d2 7f 3d 3f 7a c5 bc a5 5d a2 3d
       0.10396705 0.062456954 -0.024106143 0.079280175
000100 1b 99 88 3d 69 68 8a 3d c4 fe 55 3d a4 9d 51 3d
       0.066698276 0.06758196 0.052244917 0.05117573
000110 a6 f9 ab 3c 21 01 eb bc 2d 9e 5e bd c7 bd 61 bd
       0.020993065 -0.028687062 -0.054350067 -0.055112626
000120 88 34 94 3c 5d 89 80 3d fa 22 81 bc 54 a9 84 bd
       0.018091455 0.062762 -0.015763748 -0.06477609
000130 60 7b 65 3d 62 a3 20 bd 80 46 21 3c a9 51 9f 3d
       0.056025863 -0.039218314 0.009843469 0.07779247
000140 82 a8 89 3d a5 62 b1 3d ae fb c0 3c d2 09 99 3d
       0.067215934 0.08661393 0.02355751 0.07472576
000150 a1 6e 8f bc cc 88 d6 3d b3 54 84 3d 86 2c 90 3d
       -0.017508807 0.10475311 0.064614676 0.07039742
000160 16 06 a6 bc ac 87 b4 3d 67 60 71 3d 25 30 6f 3d
       -0.020266574 0.0881494 0.058929827 0.058395524
000170 9d 8a 7b 3d 4d 0e 66 bc a9 49 32 bd 93 6b 2c bd
       0.06141149 -0.0140414955 -0.04352728 -0.04209478
000180 26 8b ec 3c bd 33 08 bd 2d c0 40 3b bc 77 e6 bc
       0.028874945 -0.033252466 0.002941142 -0.028133266
000190 31 60 3b 3d 40 89 d3 bc 10 f0 a9 3d 3a b8 80 3d
       0.045746032 -0.025822282 0.082977414 0.062851384
0001a0 ea ca 65 bc 97 cb 74 bc 81 82 4d ba 76 f2 41 39
       -0.014025429 -0.014941118 -0.0007839576 0.00018496238
0001b0 da 74 17 3d 27 42 80 3c 0d f6 45 bd 5f 04 cb 3d
       0.036976673 0.015656544 -0.048330355 0.09912943
0001c0 9b ca 5f 3d 26 c4 59 3b 75 2e fc bc 7e a6 c5 3d
       0.05463658 0.0033228486 -0.030783871 0.096508965
0001d0 c5 63 0f bd 51 14 14 bd 8e 8c 30 bd 69 35 55 bc
       -0.035007257 -0.036152188 -0.043102793 -0.013013222
0001e0 a1 aa ad 3d fd aa 2c 3d d9 58 1f bd 6e c6 85 bc
       0.084798105 0.042155255 -0.03890309 -0.01632997
0001f0 7b 8f e2 bc 55 30 0a bd 84 bb 61 bc 19 65 c7 3d
       -0.027656307 -0.0337375 -0.013777617 0.0973608

model.convs.1.weight f4 [128, 128]
000000 6e fc 1a 3d 74 41 c9 bc 21 c7 24 bd 40 d0 bb bc
       0.037838392 -0.024567343 -0.040228967 -0.02292645
000010 78 4f 21 bc 53 46 4a bd 6a 26 a0 bd 90 1c 8c bc
       -0.009845607 -0.049383473 -0.07819827 -0.017103463
000020 e4 46 8e bc 92 9d 35 3d 3c 16 ad bc 6b aa 8d 3d
       -0.017367788 0.044339724 -0.021128766 0.0691727
000030 80 98 03 3c 6d 38 a6 bd a4 5d c8 bc a5 07 4a bd
       0.008031964 -0.08116231 -0.024458714 -0.049323697
000040 58 e7 aa bd 94 dd 9d bc f8 0f 15 3d 43 3e 8e 3d
       -0.083449066 -0.019270696 0.036392182 0.06945469
000050 09 c0 82 3d 00 d0 d8 3b ff ba 9b bd 68 8a d9 3c
       0.06384284 0.0066165924 -0.07604026 0.026555255
000060 e2 44 61 3d c0 36 44 bb c1 27 a1 bd 09 19 92 3d
       0.054997332 -0.002993986 -0.078689106 0.07133681
000070 20 f3 53 bc c7 7e a2 bd dc c5 a7 3c 23 96 31 bd
       -0.0129363835 -0.07934337 0.020480089 -0.043356072
000080 d6 7d 6c 3d a3 5f a1 bd b6 2b 70 3d 2c e8 f4 bc
       0.057737194 -0.078795694 0.058635436 -0.029895864
000090 74 90 89 bd 3e a0 6b bd 2a 05 11 3d 50 66 c9 bc
       -0.06717005 -0.057525866 0.035405315 -0.02458492
0000a0 1d 40 9f bd 5e 68 a9 bd ec 36 f2 bc 50 42 76 bc
       -0.077759005 -0.082718596 -0.029567204 -0.015030459
0000b0 be 67 23 3d 54 94 d9 bc 98 21 ab bc 10 cf 20 bc
       0.039893858 -0.026559986 -0.020890042 -0.009814993
0000c0 20 6b 3c bb c0 4b 0f bd 10 50 f2 bb fe 22 36 3d
       -0.0028750375 -0.03498435 -0.007394798 0.044466965
0000d0 d1 ff a1 bd 27 92 a5 bd e0 b1 01 bb db f5 8f 3d
       -0.07910121 -0.08084517 -0.001978986 0.07029315
0000e0 96 03 74 3d d9 9b 89 3d a8 d2 56 3c ba 18 df bc
       0.059573732 0.06719179 0.013111748 -0.02723347
0000f0 c9 2c a4 bd a0 ee 9f 3b d2 e0 42 3d 41 d4 00 bd
       -0.080163546 0.0048807412 0.047577687 -0.03145242
000100 9b d8 9d bd c8 d6 88 bd 75 ce 81 3d ee 39 0a 3d
       -0.0770733 -0.06681591 0.06338207 0.033746652
000110 b8 01 30 3c 1e 83 a0 bd 30 c8 81 bb 36 5d 88 bd
       0.010742597 -0.078375086 -0.003960632 -0.066584036
000120 f2 4d a0 bd 10 29 b1 bc 24 00 11 3d 0e f2 28 bd
       -0.07827367 -0.021626025 0.035400525 -0.041246466
000130 da ff 62 3d f3 cc 9d 3d ae 30 1c bd 60 43 83 bc
       0.05541978 0.077051066 -0.038132362 -0.016023338
000140 14 ed 8b bc 18 2d af bd 9a 8b 35 3d 26 8f 79 3d
       -0.017080821 -0.08553523 0.044322588 0.060927533
000150 cc 7c e1 bc 6c 29 a7 bd 08 06 86 bd 00 d0 ef b9
       -0.027525328 -0.081621975 -0.06544119 -0.00045740604
000160 11 71 9d 3d f6 28 71 bd 4c 26 98 3c 2c 9b 80 bc
       0.07687581 -0.058876954 0.018572949 -0.015698992
000170 ac bc a4 bc 9d 53 53 bd cc 33 a7 bd a0 ae 14 bb
       -0.020109497 -0.05159341 -0.08164176 -0.0022687092
000180 ae 8c 1e bd c4 be cd bc ea 16 9e bd 00 43 2d bb
       -0.03870838 -0.025115378 -0.07719214 -0.002643764
000190 50 e6 5d bc 48 12 64 bc 40 13 69 bc 5d d8 72 bd
       -0.01354368 -0.013920374 -0.014225781 -0.05928837
0001a0 b0 3b 8d 3b 2d 20 93 3d 34 eb 13 3d b0 40 b6 3c
       0.004310094 0.071838714 0.03611298 0.022247642
0001b0 66 c1 0e 3d 7a 3d 26 bd 40 65 64 3c 4b 5a b4 3d
       0.034852408 -0.040585972 0.0139401555 0.088062845
0001c0 d7 76 8a 3d ff 99 7c bd d8 3d 3e bc b1 bc ae bd
       0.06760948 -0.0616703 -0.011611424 -0.08532084
0001d0 c0 da 61 bb 28 d8 0b bc a8 f2 05 3d e5 02 81 3d
       -0.003446266 -0.008535422 0.03270212 0.0629938
0001e0 74 a2 f5 bc 4e fb 0a bd 32 56 b3 bd 73 0a 9b 3d
       -0.02998469 -0.03393107 -0.08756675 0.075703524
0001f0 b0 4d 01 bc b7 11 80 3d 80 17 51 3c 38 8a 86 3c
       -0.007892057 0.06253379 0.0127619505 0.01642333
000200 57 92 5a 3e 4b b2 1e bc 80 29 99 3d d6 4b 8e 3c
       0.21344887 -0.009686063 0.074786186 0.017370146
000210 95 f6 8e 3d de d2 fa bc f5 54 a0 3d bc a2 e0 3d
       0.069806255 -0.030618127 0.07828704 0.10968539
000220 8d 70 3e bd 49 b6 9e bd db 43 15 bd ca 6a f3 3b
       -0.046494056 -0.07749612 -0.036441665 0.0074285017
000230 27 42 cd 3d 7c 4e dd 3c fb 3c c3 3d 07 67 d3 3c
       0.10022383 0.027014963 0.095331155 0.025805963
000240 db 0b 06 3d e7 be 4e bd c4 85 92 3d 06 e0 93 bd
       0.03272615 -0.050475027 0.0715442 -0.072204635
000250 cc 30 d7 3c 74 93 0c 3a f5 6d 4a 3c d6 ae f5 bd
       0.026268385 0.00053625484 0.012355317 -0.11996238
000260 aa 21 25 3e 15 b5 81 bc 26 5e 37 3d c5 75 1e 3d
       0.16126123 -0.015833417 0.04476752 0.038686533
000270 86 00 4a 3c 45 82 0a 3d 77 bf f6 3d b8 a8 c7 3c
       0.012329226 0.03381564 0.12048238 0.024372444
000280 94 f6 ac 3d 0a 6b d3 3d 9c 6d 37 bd 69 b2 b6 3d
       0.084454685 0.103231505 -0.044782266 0.08920748
000290 9a 7a 89 3d 50 43 fc 3d 80 23 ab 3d f4 3f d4 3b
       0.067128375 0.12317526 0.083563805 0.0064773504
0002a0 aa d7 ab 3d 97 89 4b bc 20 8f b2 3d 9d 94 85 bd
       0.08390744 -0.012422941 0.08718705 -0.06522486
0002b0 d9 29 40 be d8 d9 88 3d 72 d2 a0 bd 87 af d2 bd
       -0.18765964 0.066821754 -0.07852639 -0.102873854
0002c0 a4 23 ba bd c1 e4 a7 3d b8 bb d7 3c 7f 09 ff bc
       -0.09088829 0.08197928 0.026334628 -0.031132458
0002d0 0a 91 75 bd fa 9f 0b bd a2 c0 bb 3d 0c ce 7f bd
       -0.059952773 -0.034088112 0.09167601 -0.06245236
0002e0 ed 40 cc 3d 8b 99 0a bd ed 50 a4 3d 36 8c 80 bd
       0.09973321 -0.033837836 0.08023248 -0.06276743
0002f0 58 13 3f 3d 18 e9 80 3b 80 f9 e1 3c 01 06 48 bd
       0.046649307 0.003934037 0.027584791 -0.04883385
000300 9d 85 b9 3d c1 c5 b0 3d 4a 71 e5 3c b4 94 4d 3d
       0.09058688 0.086314686 0.028008122 0.050190642
000310 b1 a5 23 bd 10 33 be 3d 33 5c 86 3d 7a 15 b6 39
       -0.039952938 0.09287083 0.06560554 0.00034729746
000320 ce 18 96 3d 5c ad 1d 3d 25 5c 12 be d8 02 d3 3d
       0.0732895 0.038495407 -0.14292963 0.10303277
000330 06 5e 33 3b 04 1b 93 bc 5a 1b 1a bd 06 a6 57 bc
       0.0027369275 -0.017957218 -0.03762374 -0.013162142
000340 f6 eb 96 3d 0e 1f 0c bc f7 01 23 bd 12 0f f7 bc
       0.07369225 -0.008552326 -0.039796796 -0.030158553
000350 fb 6e 6b 3d 41 1e 54 3b 86 06 a4 3a c8 aa ce 3d
       0.057478886 0.0032366666 0.0012514151 0.10091168
000360 27 d7 8f bd ad 16 0d 3d 1b 2e ca 3c 2f 8b 02 3c
       -0.07023459 0.034445453 0.024680188 0.007967754
000370 ee 2e 90 3b 82 5a d0 3c 41 49 d8 bb f3 6f 48 3d
       0.0044001257 0.025433782 -0.0066005294 0.048934888
000380 87 6a 3a 3d 3b 47 d8 3d 9a cd 1e bd 29 83 33 3c
       0.04551175 0.10560461 -0.038770296 0.010956564
000390 a6 ba 9f 3c 07 0b e6 3d b8 56 0e bd f2 b4 88 3d
       0.01949818 0.11232572 -0.03475067 0.066751376
0003a0 01 03 15 3d fe 90 66 bc f1 11 f8 3c 12 ae 42 bc
       0.036379818 -0.014072655 0.030281993 -0.011882322
0003b0 26 a7 74 bd 3a 97 af 3c 5c 54 34 bb a1 4b 6d bd
       -0.059729718 0.021434415 -0.0027516102 -0.057933453
0003c0 8f d5 e0 3d f2 c1 d3 3d 98 9b 97 3d 94 de b0 3c
       0.10978233 0.103397265 0.07402724 0.021590509
0003d0 ba 88 63 3d cb 0c 00 3e 55 1c 1e bd db 5d 02 3e
       0.055550314 0.1250488 -0.03860124 0.12731116
0003e0 ed 94 47 3c 93 68 dd 3c 23 d2 98 3d 33 f2 91 3c
       0.012181503 0.027027404 0.074619554 0.017815685
0003f0 8d 46 e9 ba 27 d2 a1 bd ed fd 16 3d 5d a2 c2 3d
       -0.0017797515 -0.079014115 0.036863256 0.095036246

model.convs.1.bias f4 [128]
000000 69 1d 88 bd 48 c7 af bc 34 d5 a9 3d 7f a2 8b bc
       -0.066462345 -0.02145733 0.082926184 -0.017045258
000010 6b 73 44 3a 9e e4 92 bd 57 6a 1b 3d 4b 28 a2 bc
       0.0007494005 -0.071725115 0.03794321 -0.019794604
000020 a5 7f bb 3d d4 35 38 bd f9 5c 2a 3d c9 2b d3 3d
       0.09155206 -0.04497321 0.041592572 0.10311086
000030 02 d4 56 3d 87 1d 05 bd 94 e6 77 bd 27 60 f4 3c
       0.05244828 -0.032498863 -0.06052263 0.029831005
000040 aa 0e ab 3d 0e 06 b0 3d 88 d2 7e bd 32 ba 74 bc
       0.08352406 0.08594905 -0.062212497 -0.014936971
000050 95 9b 55 3d 31 b8 1a bc a6 2c 74 bd 71 71 5b bd
       0.052150328 -0.009443329 -0.059612893 -0.053574983
000060 31 7e a5 3c 80 e8 16 3d 0b eb 72 bd 17 5b 66 bd
       0.020201774 0.036842823 -0.059306186 -0.056239214
000070 51 e5 88 bd 46 4f 9e 3c 0e 2d fd 3c 20 2d 96 bd
       -0.06684364 0.01932491 0.030905273 -0.07332826
000080 43 ce 9b 3c cb 08 55 bd 38 08 0f 3d 60 ee 14 bc
       0.019019252 -0.05201034 0.034919947 -0.009090036
000090 9a 37 c0 3d d1 bb 75 bc 68 a8 c0 3c 83 08 46 bd
       0.09385605 -0.014998392 0.023517802 -0.04834796
0000a0 73 ef 9e bd 8f 5c 7a 3d 15 83 ac bb 44 95 aa 3d
       -0.07760515 0.061123427 -0.0052646496 0.083292514
0000b0 c8 c9 19 bd db db 74 bd 12 70 81 bc c1 33 c3 bc
       -0.03754595 -0.059779983 -0.01580051 -0.02382839
0000c0 c9 64 e3 3c ff 37 9c bd 13 3d d1 3d 4b 60 16 3c
       0.027758019 -0.07627868 0.10216727 0.0091782315
0000d0 17 8b 92 bd 64 18 74 3d ee af a0 bc d6 bd c8 3c
       -0.071554355 0.059593573 -0.01961514 0.024504583
0000e0 b0 a4 d0 3c 94 d1 ae 3d 65 f6 2f 3c ed b5 39 bd
       0.025469154 0.085360676 0.010739897 -0.045339514
0000f0 00 3f ab 3d e2 f2 84 bd b4 2c 9c 3d 39 97 ce 3d
       0.08361626 -0.06491639 0.07625714 0.10087437
000100 68 50 92 3d 51 f9 0e 3d 16 f5 90 3a a5 a0 9b 3d
       0.071442425 0.034905735 0.001105937 0.07599
000110 c8 34 d3 3d b5 ea 50 3d 6f bc 84 3d 6c 5f 12 3d
       0.103128016 0.051005084 0.06481253 0.035735533
000120 17 00 c3 bd 1c b7 51 bd 6e e3 7b 3c 63 4d 94 3d
       -0.095215015 -0.051200017 0.015374048 0.07241323
000130 16 d9 a7 3d d8 e1 21 bd 02 07 af bd 2e 0f 84 bd
       0.08195703 -0.039522022 -0.085462585 -0.06448208
000140 4a be 97 3d c3 24 8e bd 90 ff 84 3d 50 14 cb bc
       0.07409342 -0.069406055 0.06494057 -0.02478996
000150 72 12 0d bd cb 0b d2 bd ec af a1 3d 34 ad be bd
       -0.03444142 -0.102561556 0.078948826 -0.093103796
000160 2f 55 88 3d 51 dd 7c 3d 72 9d a7 3c 06 f3 87 3d
       0.066568725 0.0617345 0.020460818 0.0663815
000170 8a 4b ff 3c ba 52 8b 3c e4 52 83 bd d1 a4 7b bd
       0.03116395 0.01700722 -0.064122945 -0.061436478
000180 2d d3 1c bc 7f dd a7 3d fa f7 84 bc e4 0e 74 3b
       -0.009571833 0.08196544 -0.016231526 0.003724032
000190 df f3 99 3d aa b0 4a 3d 5f 24 54 3d 84 a2 21 bd
       0.07517218 0.049484886 0.0517925 -0.039461628
0001a0 94 9a 23 bd b1 4f 39 bc ba 41 31 3a b9 6c a6 bc
       -0.03994234 -0.011310504 0.0006761808 -0.020315515
0001b0 83 73 1c 3d 79 be cf 3c fe 28 b3 bd 67 e7 15 3d
       0.038196098 0.02535938 -0.08748053 0.036597636
0001c0 38 f4 bc 3d 4f be 77 3c c0 b6 40 3c 93 11 80 3c
       0.092262685 0.015121057 0.011762321 0.01563338
0001d0 88 9c 82 3d d9 4a d9 3d ba 69 ad 3c 10 8d a7 3b
       0.06377512 0.10609979 0.021168578 0.0051132515
0001e0 ac f9 99 bd cc d4 85 bc fd 37 45 bb 8c 07 31 3d
       -0.07518324 -0.016336821 -0.0030093186 0.043220088
0001f0 84 26 28 3b b4 b2 56 3d d7 50 45 bc 6c 73 9e 3d
       0.0025657723 0.05241652 -0.0120431995 0.07736859

model.convs.2.weight f4 [128, 128]
000000 af 35 89 bd 3e 5b de 3d 26 b9 a8 bd c8 02 a1 bc
       -0.066996925 0.10857247 -0.08238439 -0.019654647
000010 44 11 ef bc ff 3b 31 bd 9b f4 aa 3d 3e 43 d0 3d
       -0.029183038 -0.043270107 0.08347436 0.101690754
000020 99 c8 81 3d 8a c3 5f 3d fe 86 cd 3d 43 06 9a 3d
       0.06337089 0.05462984 0.10035513 0.075207256
000030 7d 1c 91 bb 27 a8 9d bd 44 cf bb 3c a4 73 b4 3d
       -0.004428445 -0.07698088 0.02292598 0.08811119
000040 cd d7 a5 bd 51 ce 0f bd 62 57 46 3d 1e 2c 7e bc
       -0.08097801 -0.035108868 0.04842318 -0.015513448
000050 1c 4c c4 bc 13 7d bd 3d bb fc f1 ba ad 4b 82 3c
       -0.023962073 0.09252372 -0.001846216 0.015905226
000060 62 42 1a ba fa f7 24 bd 89 1e 3e be 11 64 97 3d
       -0.00058845256 -0.04027555 -0.18566336 0.07392133
000070 f8 84 54 3c 27 5a 12 3d 16 c2 09 bc 20 f8 0d 3c
       0.012971155 0.035730507 -0.00840809 0.008665115
000080 8d 9a 92 bd 7a c8 d3 3d ce a7 a1 bd 4a 63 d9 3c
       -0.071583845 0.10340972 -0.07893334 0.026536603
000090 63 d2 04 bc 37 7f 4f 3d a9 fe 97 3c b8 91 b7 3d
       -0.008106801 0.05065843 0.018554049 0.089633405
0000a0 f8 d4 db bc d5 a4 a6 3d 34 e4 3e 3d 7f fb a7 3d
       -0.02683495 0.08136908 0.04660435 0.08202266
0000b0 d3 4e 54 3e 2a 8e 66 3d 93 3c 65 bd c0 8e dc bc
       0.20733194 0.056287922 -0.05596597 -0.026923537
0000c0 63 f1 13 3d fe 62 77 bd 7b 3a 92 3d 53 cb b0 3d
       0.036118876 -0.06039714 0.071400605 0.08632531
0000d0 1a 1e 10 be aa 99 d7 3d 2e aa 82 bd bf 7a f0 bc
       -0.14073983 0.10527356 -0.063801154 -0.029355405
0000e0 41 3b 9e 3d b2 87 6d 3d 11 74 74 3d 49 2b 01 bd
       0.077261455 0.057990737 0.059681002 -0.03153542
0000f0 da 05 4e 3d 52 94 cf bb f3 82 09 3d e3 92 5c 3c
       0.05029855 -0.00633482 0.03357215 0.013462755
000100 e6 ef 36 3d 77 67 75 bd 13 01 88 3d 35 ec 74 3c
       0.04466238 -0.059913125 0.0664083 0.014948894
000110 a7 83 84 3d 9d e4 ca 3c 6b 34 39 3b a1 80 ce 3d
       0.06470423 0.024767214 0.0028260003 0.10083128
000120 8e 09 b4 3b a6 54 3a 3e 35 19 8e bc 5d 46 67 3d
       0.005494303 0.18196353 -0.017346004 0.056463588
000130 58 83 e6 3c 29 f8 47 3d d3 f9 ca bc 10 1a 3e bd
       0.028138801 0.04882065 -0.024777329 -0.046411574
000140 cc 50 16 3d b8 3d 99 3d b9 46 8d 3b 26 c3 64 3d
       0.036698148 0.07482475 0.0043114093 0.05585017
000150 fd 12 c5 3d 8c f7 05 be b5 02 1a 3d bf 1e 03 be
       0.09622762 -0.13082713 0.037600238 -0.12804697
000160 d6 a7 a7 bd da 55 8e 3d 7b 69 1b 3d 5f 73 94 3d
       -0.08186309 0.06949969 0.03794239 0.07248568
000170 e0 b4 a5 3d 06 44 93 bb ba f8 4d bd 86 36 6d 3d
       0.0809114 -0.004494193 -0.050286032 0.057913326
000180 bc 27 4d 3d 5e c0 0a bd 16 af 39 bd e0 bb d6 3d
       0.05008672 -0.033874862 -0.04533299 0.10485053
000190 16 3c e7 3c 44 f4 31 bd f3 be fd bc 62 08 46 3d
       0.028226893 -0.04344584 -0.03097484 0.04834784
0001a0 30 e3 c2 3b 75 80 23 3d 9e ef 97 bd fd 90 10 3d
       0.005947493 0.039917428 -0.0741875 0.03529452
0001b0 d5 7c 9e 3d 4a 7c 9f bc e4 c8 d1 bd b0 73 75 bd
       0.077386536 -0.019468445 -0.10243395 -0.05992478
0001c0 fb fb dd bc 16 8d 4a 3b ba 11 b1 3d 16 bc a1 3d
       -0.027097693 0.0030906848 0.08645959 0.07897203
0001d0 f7 89 95 3d 70 f5 c1 3d 7c b7 16 bd 8a d0 a0 3c
       0.07301705 0.094706416 -0.036796078 0.01963069
0001e0 f0 25 c2 3d 3c 03 77 3c ed 96 01 be f9 e3 b2 3d
       0.09479892 0.015076455 -0.1265523 0.087348886
0001f0 89 71 b7 3d e4 4b 40 3c 71 21 9e 3d 11 a9 97 bc
       0.08957202 0.011736844 0.07721222 -0.018513234
000200 0f e4 5c bd 94 8b 07 3c c6 54 5c bc 17 bf bc 3d
       -0.05392843 0.008273024 -0.013447946 0.09216135
000210 ec 9d e5 bc c1 8c bd 3d 8d 18 2d 3d 5c aa 85 bd
       -0.028029405 0.09255362 0.04225974 -0.06526634
000220 91 53 e4 3d b6 7f b9 bc dd 5e c3 3d 2e c6 2e 3d
       0.111487515 -0.022643905 0.09539578 0.042669468
000230 33 ad ad bc 70 06 a0 bd 1d 6b a1 3d ba b3 d6 3d
       -0.021200752 -0.07813728 0.07881758 0.10483499
000240 d7 59 79 3c d4 4a 1b bd d4 23 13 3d c3 f8 82 3d
       0.015219173 -0.03791316 0.03592284 0.06395104
000250 53 78 54 bb 8d 7a 64 3d cb f4 bb ba 11 55 f9 3c
       -0.0032420352 0.055780936 -0.0014339922 0.03043607
000260 c0 c4 4f bd c9 93 49 3c 49 0a f2 bd 86 6c 00 3d
       -0.050724745 0.012303301 -0.11818368 0.031353496
000270 35 3e 9d 3d 4f 47 89 3d 96 cd 72 3d a0 2a 44 3c
       0.07677881 0.06703054 0.059278093 0.011973053
000280 ca e4 91 bd 49 f5 95 3d 66 e3 08 3d 08 fa 64 3c
       -0.07123716 0.07322175 0.03341999 0.013975628
000290 e5 40 3f 3d 69 cc 83 3d c7 b0 ed 3c 40 26 b8 bb
       0.046692748 0.064354725 0.029014958 -0.005619794
0002a0 42 25 79 3d 94 33 0f bd 0e 17 fa bc ef dc e5 bc
       0.060826547 -0.034961298 -0.030528571 -0.02805945
0002b0 25 59 96 3d 96 ff 39 bc 21 96 5c 3c 9e a9 f0 3d
       0.07341222 -0.01135244 0.013463528 0.11751102
0002c0 de ca e2 3b 9b 45 77 bd 85 67 51 3c 04 4c db 3d
       0.0069211563 -0.060369115 0.012781029 0.10707858
0002d0 19 92 03 be 69 51 ec 3c 23 2b 73 bd 85 1f 5a bd
       -0.128487 0.028847413 -0.05936731 -0.053252716
0002e0 da c6 c9 3d fd 05 99 bc 5c 67 da bc c1 00 5c bc
       0.09852381 -0.018679613 -0.026660614 -0.013427914
0002f0 74 e4 45 bd 11 63 62 3d 1e c8 e6 3d 5a f3 81 3d
       -0.048313573 0.05527026 0.11268638 0.06345244
000300 c5 87 7e bd e2 df a6 bd 03 71 94 3d 25 90 04 bd
       -0.0621412 -0.08148171 0.07248118 -0.03236403
000310 f1 d4 18 bb b3 85 d5 3d 97 1b a8 3d 6a 16 30 3d
       -0.0023320282 0.10425892 0.08208387 0.042990126
000320 aa ed b1 bd f3 90 ae 3d c8 8f d0 3d 6b e1 30 bc
       -0.08687909 0.085237406 0.10183674 -0.010795931
000330 1f 73 bf 3a 80 b5 c4 bb 08 c2 5c 3d 30 e6 ad 3d
       0.0014606452 -0.006003082 0.05389598 0.084911704
000340 d6 31 29 bc ab bb d3 3d c7 f6 55 3c 5e 99 84 bc
       -0.010326823 0.10338529 0.013059325 -0.016186412
000350 fe ae 95 3d 3b e8 60 bd 10 c6 9f 3b fc 0f a0 bd
       0.07308768 -0.054908972 0.004875906 -0.07815549
000360 64 88 42 3b 01 ec 1c 3a 12 c4 ac bc df cb da 3d
       0.0029683346 0.0005986095 -0.021089587 0.106834166
000370 eb 9d a0 3d 09 86 11 bd 21 8a 7e 3d 8c cf 71 3d
       0.078426205 -0.035528217 0.06214345 0.059035823
000380 78 b7 a5 bd 58 23 ab 3d 32 1b c9 3b ca d5 26 bd
       -0.080916345 0.08356351 0.006137275 -0.04073123
000390 f5 6c 11 3d 8e 1e b4 3c bd 9c 74 3c 2e 9b 34 bd
       0.0355043 0.021987226 0.014929947 -0.044093303
0003a0 2b 5e 43 3d d7 3b 7b bd 55 07 8a 3d b8 8b 57 3b
       0.047697227 -0.061336365 0.0673968 0.0032889675
0003b0 29 dd 03 3c 27 95 05 bd e4 38 24 be 29 eb 2e bd
       0.008048334 -0.032612946 -0.16037327 -0.042704735
0003c0 93 4f a0 bc 8a 1a be 3c e8 30 12 3d 12 a6 46 bd
       -0.019569194 0.023206014 0.035691172 -0.04849822
0003d0 9e 5d b4 3d a3 bf 80 bb 72 d8 3a 3d e8 7b 95 bc
       0.088069186 -0.003929095 0.045616575 -0.01824756
0003e0 3f 4b 25 3d 4b 1a 9c 3d cb 07 32 be 51 15 8e 3c
       0.040354963 0.076222025 -0.17385785 0.017344149
0003f0 5c c2 59 3c c2 05 07 3d da 6a 5d 3d bb 4c 5b bd
       0.013290968 0.032964475 0.05405698 -0.053539973

model.convs.2.bias f4 [128]
000000 d6 a0 53 bd b0 ab 81 3d 6a e3 7b 3d df d7 91 bd
       -0.051667057 0.06331575 0.061496176 -0.07121252
000010 8b 3b 46 bd 02 21 51 bd 1e 93 89 3d eb e1 45 bd
       -0.04839663 -0.05105687 0.067175135 -0.048311155
000020 fb b8 a9 bd 55 75 a4 3d 5a 03 a4 bd b6 e6 2c bd
       -0.08287235 0.08030192 -0.08008452 -0.04221221
000030 87 68 12 3c 82 82 2f bd ef ff f6 3c 1c ad 8b 3b
       0.008936054 -0.04284907 0.030151336 0.0042625796
000040 48 66 fd bc c1 66 ed 3c 34 21 c0 3c 90 68 84 3d
       -0.03093256 0.028979661 0.023453332 0.06465256
000050 45 fe ac 3d c9 ce c1 3c bc 4a ad bc d4 9f 83 bd
       0.084469356 0.023658173 -0.0211538 -0.06426969
000060 66 87 33 bd b8 aa 16 bd f3 f7 97 bc bc 58 2b bc
       -0.043830298 -0.036783904 -0.018550849 -0.010458168
000070 f1 22 47 bd 5d 51 c4 3d 6f 50 31 bd c8 fc 43 bd
       -0.048617307 0.09585831 -0.043289598 -0.047848493
000080 39 a2 ab bd 1a a3 84 3d 63 43 1c bd e5 df a0 3d
       -0.08380551 0.06476422 -0.038150202 0.078552045
000090 cc 1d 83 bd 48 ae 95 bd 78 d1 1f bc 05 87 9e 3d
       -0.06402168 -0.07308632 -0.009754531 0.07740597
0000a0 4a 7f 9c 3d e4 5b 85 3d 9d 11 af bd 17 b2 c5 3b
       0.07641466 0.06511667 -0.08548281 0.006033193
0000b0 45 14 47 3d e7 01 c4 bc fb ab e0 bc 82 d3 6d 3d
       0.048603315 -0.023926688 -0.027425757 0.058063038
0000c0 4c 90 70 b8 d2 bf 7b 3d fd be 83 bc 53 23 86 bd
       -5.7354846e-05 0.06146223 -0.016082281 -0.06549706
0000d0 32 5f 91 3d aa 45 52 3d fb 90 97 bd cd b4 1e bc
       0.07098235 0.051335968 -0.074007 -0.009686661
0000e0 84 a8 a0 bc e6 d0 7c bd 82 b3 94 3b c6 b9 ad bd
       -0.019611605 -0.06172266 0.0045380006 -0.08482699
0000f0 9e ce 01 3d c9 2d a3 3c ec f2 bd 3c 32 d1 df bc
       0.031691186 0.019919293 0.023187123 -0.027321432
000100 42 b4 1e bd b8 21 0f 3d 56 4b db bb da e9 09 3d
       -0.038746126 0.034944266 -0.0066923304 0.033670284
000110 97 4c c1 3d 3d 3c bc bd 0c b5 b3 bd 03 11 03 bd
       0.094384365 -0.09191177 -0.08774766 -0.031998646
000120 4c 08 61 bd bf 2d 9d 3d 93 3e 49 bd 08 af c2 bc
       -0.054939553 0.07674741 -0.04913194 -0.023765102
000130 9c 8b 28 3a fc 3e a8 3c f1 91 ed 3c 17 5d 80 3d
       0.0006429495 0.020537846 0.029000254 0.062677555
000140 42 37 a0 bc 9d f4 bf bc f0 6f 2d 3d 97 7f 76 3d
       -0.019557599 -0.02343207 0.04234308 0.060180273
000150 d7 6e 95 bd b8 19 df 3c f7 a8 49 3d a4 8e 33 3d
       -0.07296532 0.027233943 0.049233403 0.043837205
000160 0b 48 e3 bc 40 09 91 bc 3f 14 bf 3d 8c ed b0 bd
       -0.027744314 -0.017704606 0.093300335 -0.086390585
000170 b8 43 bb bc 93 ba 8d 3d 77 65 8f 3d 1f 64 76 3d
       -0.02285944 0.06920352 0.07001775 0.060154077
000180 fc 76 c1 bd 1a aa 1a 3d 86 83 98 3c 64 e2 6e 3d
       -0.094465226 0.037759878 0.018617403 0.05832137
000190 1c 95 6a bd 94 59 6f 3d 0c 33 6b bd f7 4c 45 bd
       -0.057271108 0.058435038 -0.05742173 -0.048169103
0001a0 6a 2e 80 3d be fb 6b 3c ad e7 78 bd c6 cb ac bd
       0.06258853 0.014403282 -0.06076782 -0.08437304
0001b0 f0 7e 83 bd 22 5a d3 bd a2 81 b6 3d b7 c8 6c 3d
       -0.06420696 -0.10319926 0.08911444 0.057808604
0001c0 5f c0 40 3c 35 2d de bc 52 2e 00 3d 20 2d 85 3d
       0.011764615 -0.027121166 0.031294174 0.065027475
0001d0 c2 0b 2f 3d 25 9e de bc dc 4a 81 3d 90 df d7 bb
       0.042735822 -0.027175019 0.063131064 -0.00658793
0001e0 e1 89 39 3d 8c cb b0 3c c2 59 b5 bc de e5 04 3d
       0.045297507 0.021581434 -0.022137526 0.03244578
0001f0 4c b7 ce bc 11 82 91 3c 3a 1f 80 bd 09 fb 45 bd
       -0.025233887 0.017762216 -0.06255956 -0.04833511

model.output.weight f4 [1, 128]
000000 ca 86 a1 bd 99 95 2a bd 60 8d 8e bd cf 4e b1 bd
       -0.07887037 -0.041646574 -0.06960559 -0.0865761
000010 c2 c0 33 bd 5a 28 a2 bd 9b f6 8a 3d b8 1a c5 bd
       -0.043885 -0.07917853 0.067853175 -0.09624237
000020 c2 b6 7c 3d 9a 18 29 3d 10 ae fe bb 26 d1 7b bd
       0.06169773 0.041283228 -0.0077722147 -0.061478756
000030 bd b5 b3 bd a0 37 1a 3d 9a 3e 70 3d 1a e0 65 3d
       -0.08774898 0.037650704 0.05865345 0.056121923
000040 e7 4b be 3c e1 9e 80 bd e4 f1 96 3d f2 fb a8 bd
       0.023229552 -0.06280304 0.07370356 -0.0825118
000050 cf 47 1a b9 9e 78 48 bd 95 2c 95 3d 0f 55 78 bd
       -0.00014713335 -0.048943155 0.07283894 -0.060627993
000060 2e 2a 20 3d 84 8a 7f bd 85 de a6 3d 41 e2 3b 3d
       0.039102726 -0.06238796 0.08147911 0.04587007
000070 c0 ce ce 3a 2c f7 dc bd 1e 61 bc bd f1 86 cb bc
       0.0015778169 -0.10789332 -0.09198211 -0.024844619
000080 76 96 4b 3d 76 7e 99 3c 80 73 f3 3c 7e 43 4f 3c
       0.049704038 0.01873706 0.02971816 0.012650369
000090 ba bd 7f 3d 39 31 7b 3d 0e 06 23 bd 47 76 73 bd
       0.062436797 0.06132624 -0.039800696 -0.05943897
0000a0 b4 f8 55 bd d5 42 e6 bd c6 54 12 3d 00 46 a1 3d
       -0.052239135 -0.11243216 0.035725378 0.078746796
0000b0 ab 6f 3f bd 41 5e 91 3d 5c 8b 68 bd 4d 3b 56 bd
       -0.046737354 0.07098056 -0.05677353 -0.052302647
0000c0 12 6c c5 3b a8 f3 3d 3d ff 2d a2 bd 5e 1d 97 3c
       0.006024846 0.046374947 -0.07918929 0.01844662
0000d0 a1 1a f1 bc 50 7c 92 3c d7 5d 87 bd f5 a9 ad 3d
       -0.029431643 0.017881542 -0.066096954 0.08479682
0000e0 0e f4 a0 bd 10 28 7f 3c 59 64 c8 bd c0 7c a2 3d
       -0.0785905 0.0155735165 -0.09784765 0.079339504
0000f0 ca 7c 7a bd 3c 35 c8 3c 0a 34 e7 bd 97 b8 93 bd
       -0.061154164 0.024439447 -0.112892225 -0.07212942
000100 19 d5 9c 3d 62 89 ae 3d fe 73 78 3d e8 2e 34 3d
       0.07657833 0.085222974 0.060657494 0.043990046
000110 5e 82 d5 bd 61 35 a0 3d 36 4d 9c bd 23 75 1c bd
       -0.10425256 0.07822681 -0.07631914 -0.038197648
000120 b3 02 de 3c dc 2b ab bd 8a 10 27 3d 70 06 bb 3b
       0.027100896 -0.08357975 0.040787257 0.0057075545
000130 35 5c e8 bd 8a 07 33 bd 4d df 3f 3c 32 9c a4 bd
       -0.11345712 -0.04370836 0.011710954 -0.080376044
000140 9a 86 a3 3d 67 13 3a bd b9 b7 67 3d 4a 4a df 3a
       0.079846576 -0.04542866 0.056571696 0.001703569
000150 88 06 51 bc 07 94 88 bd d8 96 99 3d b6 4c af 3d
       -0.012757905 -0.06668859 0.07499474 0.08559553
000160 8a dd 61 3d b8 12 8b bc 46 19 56 bd df 51 ae 3d
       0.055142917 -0.0169767 -0.052270196 0.085117094
000170 90 0f 57 3c 18 41 a8 bd 0f a6 9e bd ca ea f7 3c
       0.013126269 -0.08215541 -0.07746517 0.030263323
000180 60 01 05 3e 66 21 d8 bd 7b 51 59 bd d2 24 05 3c
       0.12988806 -0.10553245 -0.05305622 0.008126454
000190 b7 11 43 3d 50 82 99 3d 5d 1f 9d 3d 30 08 90 3d
       0.047624316 0.07495558 0.07671998 0.07032812
0001a0 93 a9 7e 3d 3e ce cb bc 93 cf 6f bd c6 e4 39 3b
       0.062173437 -0.024878617 -0.058547568 0.002836512
0001b0 3d be 85 3d 8e 80 e4 3d 78 18 d4 bc d3 21 b0 3c
       0.06530426 0.11157332 -0.025890574 0.021500504
0001c0 fa 16 14 bd f7 5e 19 3d 1e 53 8c bd 55 ac 83 3d
       -0.036154725 0.03744408 -0.06851791 0.06429354
0001d0 cc 63 a4 3d 09 85 ba 3c d9 bf c1 bc d7 b8 93 3d
       0.08026847 0.022768514 -0.02365105 0.0721299
0001e0 9c 40 94 3b 72 0a b3 bd 27 d3 a1 3d f8 17 2f 3d
       0.0045243036 -0.08742227 0.07901602 0.042747468
0001f0 e7 00 bd 3d b4 94 3f 3d 21 91 47 bd 47 bc 02 3d
       0.09228688 0.046772674 -0.04872239 0.031917837
